mlagents-env/results/=PelletGrabberRun8/Agent Controller/Agent Controller-499985.pt (torch, 446250 bytes, 33 tensors)

network_body._body_endoder.seq_layers.0.weight f4 [128, 6]
000000 51 d5 ee be 18 7f 9d 3e 28 de e9 3e 97 5e 11 bf
       -0.46647123 0.30761027 0.45677304 -0.5678496
000010 43 f8 5d be cb 28 20 3c 71 0a e1 3e a0 33 64 3d
       -0.21676736 0.009775351 0.4395328 0.055713296
000020 f6 1e 48 3e 1a 07 17 3f f0 eb 5c 3d 76 29 d3 3c
       0.1954306 0.5899521 0.053935945 0.025776606
000030 7c 90 01 3f 88 69 8c 3f f1 70 52 bf 16 8c e3 3e
       0.5061109 1.0969706 -0.82203585 0.44442815
000040 d4 35 08 3f db 7d 88 3d 7d cb 38 be bf 15 3d bf
       0.53207135 0.0666463 -0.18046375 -0.73861307
000050 56 34 d3 3e d9 67 f1 bd bd 65 50 be 03 a4 f0 be
       0.41250867 -0.117873855 -0.2035131 -0.4700013
000060 a4 3a da be 30 5b 27 be 7b d8 f3 3c cc d2 71 39
       -0.42622864 -0.16343379 0.029766312 0.00023062079
000070 3d f8 46 bf 2e 14 0e bf b6 72 84 3e e4 75 1d 3d
       -0.7772253 -0.5549954 0.25868767 0.038442507
000080 6d 38 2a be 5c 57 c9 bc d3 1d 35 3c bb 1a 93 bd
       -0.16623087 -0.024577789 0.011054474 -0.07182833
000090 2c 5b ed 3e f2 97 0c bd 52 ac 8e be 12 e5 79 3f
       0.4635862 -0.034324594 -0.27865845 0.9761516
0000a0 96 42 93 3e b6 c7 ed be 7b 9e 3f bd 29 68 11 bd
       0.2876174 -0.4644143 -0.046781998 -0.035499725
0000b0 60 3a 7d bd 09 fa 80 bb fd 36 30 3f 96 62 fd bd
       -0.06182325 -0.0039360565 0.68833905 -0.123723194
0000c0 05 aa 24 3f f4 04 b2 be ec 28 8b bc 3b aa 04 bd
       0.6432193 -0.34769404 -0.016987287 -0.032388907
0000d0 79 d5 e1 bd 35 62 9c bc 9f 0c e6 3e 5a 92 80 3e
       -0.11027045 -0.019089798 0.44931504 0.25111657
0000e0 18 2f 1a 3f 3e 50 e0 be b6 be 19 be 83 4f 35 3e
       0.6022811 -0.4381122 -0.15014157 0.17706113
0000f0 59 26 42 3d c9 0f f2 bd 5d b8 cc 3e 1b 63 47 be
       0.047399852 -0.11819417 0.39984408 -0.194714
000100 42 24 a9 3e 0f de 2b be e5 e7 81 3d c6 1f 20 bf
       0.33035475 -0.16783927 0.063430585 -0.6254848
000110 59 24 2a 3f c4 95 0a be 08 48 87 be f7 84 d5 bd
       0.6646171 -0.13533694 -0.26422143 -0.10425752
000120 9a 7b 0b 3f 29 ec 29 3f fa 2b 02 3f d1 93 f1 3e
       0.54485476 0.66375977 0.5084835 0.47183087
000130 b0 55 00 3d fb 3e 0b 3d 83 b4 37 3e 68 87 ba 3e
       0.031331718 0.03399561 0.17939954 0.36431432
000140 64 5b 03 3d bd 20 12 3f ce 18 c0 3c 5d 88 12 3f
       0.03206958 0.57081205 0.023449328 0.57239324
000150 a6 0c f1 bc 12 a7 e7 bc ff 26 67 bf c0 5c 85 bc
       -0.029424977 -0.028277908 -0.9029388 -0.016279578
000160 d1 01 19 3f 47 d9 5b 3e 51 70 d5 bd 65 e1 93 3d
       0.59768397 0.21469603 -0.10421813 0.07220725
000170 ca 0d 0d be 91 a1 d2 3e 02 94 2a 3e a8 79 6b bc
       -0.13774791 0.4113889 0.16658023 -0.014372267
000180 04 0e c4 bd ad ac d9 be a0 05 a3 3e ac 49 16 be
       -0.09572986 -0.42514554 0.3184023 -0.14676541
000190 f4 11 6e be 81 28 b7 3d 16 97 e9 3b 94 b7 f2 3e
       -0.23249036 0.089432724 0.0071286066 0.47405684
0001a0 81 88 bb 3e 14 12 09 3f a5 d7 7f be f3 0c f4 3d
       0.36627582 0.5354321 -0.24984606 0.11916532
0001b0 16 cf 36 3b e7 14 21 bf a7 03 58 3f 17 e7 65 3d
       0.002789443 -0.6292252 0.84380573 0.056128588
0001c0 4e 67 92 3f 90 bd 01 3f 74 7c 83 3e 13 b2 03 bf
       1.1437776 0.50679874 0.25680888 -0.51443595
0001d0 3d 6e d2 bd 12 29 8b 3b 7b 2a e9 3d d5 f7 0d bf
       -0.102749325 0.0042468393 0.11385056 -0.55456287
0001e0 17 96 63 3c 2a 1a f4 3d 90 45 1f bf 92 22 b7 3e
       0.013890765 0.11919053 -0.6221552 0.35768563
0001f0 29 67 38 bc e7 6c 63 3e 8b 0d 1d 3f 6b 63 90 be
       -0.011255064 0.22209512 0.6134879 -0.2820085
000200 fa e5 95 3e 94 44 3c be 4d f5 1d 3f 69 20 b3 bd
       0.2927702 -0.18385535 0.61702424 -0.08746416
000210 55 64 98 3c b4 96 27 be 8d 72 b3 3e 28 de 85 be
       0.01860253 -0.16366082 0.35048333 -0.26146054
000220 48 fa 22 3f 0d 02 26 bf 79 22 a6 bc ec ad cb bd
       0.6366315 -0.6484688 -0.02028011 -0.09945282
000230 6c a4 8a bd ab 9f 10 3f e0 24 a8 3e 4c 7c e9 3d
       -0.06769642 0.56493634 0.32840633 0.11400661
000240 a6 68 0c be 78 32 54 3e 68 56 2f bf 9e 27 31 3d
       -0.13711795 0.20722377 -0.6849122 0.043250673
000250 80 12 47 bd 9c 0f 87 be 71 7c 23 3e b0 eb e8 be
       -0.048601627 -0.26379097 0.1596544 -0.45492315
000260 02 81 16 3f f7 cb 09 3f c6 f8 21 3f bc 2a c1 be
       0.587906 0.5382685 0.63270223 -0.37727916
000270 86 03 8c 3e 64 dc 57 3c 6e e3 a2 be 8e 17 a0 3e
       0.27346438 0.013175104 -0.3181414 0.3126797
000280 91 cf dc be 1d c1 55 3d 79 c9 b3 3e dd f7 f7 bd
       -0.4312711 0.05218612 0.3511465 -0.12107823
000290 0c f4 0d be 50 25 7f be e6 d1 d8 be 88 45 54 bd
       -0.13862628 -0.24916577 -0.4234764 -0.051824123
0002a0 a2 fa ca be d6 a9 c3 be 2f 9c a9 3c 99 88 9e be
       -0.39644343 -0.38215512 0.020704357 -0.3096359
0002b0 ee e5 a2 3e a9 bd 3d be c1 f7 8f 3e 80 c6 43 3d
       0.31816047 -0.18529381 0.2811871 0.047796726
0002c0 1a dc d5 be 5c 50 1a 3e c0 96 27 bf 5d 2a 7b be
       -0.41769487 0.15069717 -0.654644 -0.24527879
0002d0 fd e2 fa be 7d be 21 bf f7 97 04 3d 43 58 08 be
       -0.49001303 -0.6318129 0.032371487 -0.13314919
0002e0 83 0f ab 3e e6 2d a3 3d e1 c5 e7 be 9f 29 d9 3b
       0.33410272 0.07967739 -0.45268157 0.006627276
0002f0 32 cf 4a 3f 8b 10 ca be 6a 81 6e bd b1 b6 ad 3d
       0.79222405 -0.39465746 -0.058228888 0.08482111
000300 a4 a1 0c bc 77 27 f3 3d ab 1d 20 bd b0 6d 1e 3f
       -0.00858346 0.11872762 -0.039090794 0.6188612
000310 d2 9b 97 bd ee 37 52 3e 39 d6 16 bf d9 ed d9 3e
       -0.07402767 0.20529148 -0.5892063 0.42564276
000320 bc 03 0a 3d f6 96 b3 be f8 45 87 3e 32 5d 84 bd
       0.033694968 -0.35076112 0.2642057 -0.06463088
000330 cc f7 87 bd 37 a1 09 3f 01 a2 53 3f 2b ee 90 be
       -0.066390604 0.5376162 0.82669073 -0.28306708
000340 54 a5 14 bf a4 f5 80 3e fa 30 71 3d 50 0b 9d 3e
       -0.5806477 0.2518741 0.0588846 0.30672693
000350 62 27 e6 bd 36 32 14 be 08 30 78 3d ac 9f 80 3c
       -0.112379804 -0.14472279 0.06059268 0.015701137
000360 ab b7 6b be 06 37 c0 bc 82 b1 c5 3e b1 2e 5e bf
       -0.23019283 -0.023463737 0.3861199 -0.86789995
000370 a7 0e 57 3e 5d 51 2e 3f 58 0c 1f be 0f ea 20 bf
       0.21001683 0.680929 -0.15532053 -0.62857145
000380 b7 f6 9b 3d af 2f 87 bc 9b b2 80 bf a5 d6 9e bd
       0.076154165 -0.01650223 -1.0054506 -0.07755784
000390 37 25 48 bf e1 fc 8c 3e b2 45 69 be 2b 43 2e 3f
       -0.78181785 0.2753668 -0.22780493 0.6807124
0003a0 4b 08 a2 be 5e d1 be bd ef 76 54 3f 59 de a3 3d
       -0.31646952 -0.09317277 0.8299398 0.08001394
0003b0 cd 75 aa 3e 76 07 9b bd 19 45 4a 3f fc cf 52 bd
       0.33293 -0.075697824 0.79011685 -0.05146788
0003c0 99 6b 56 bf 60 4b 91 3e 2f 7e 3c 3f a7 1e be 3e
       -0.8375793 0.2837782 0.7363004 0.3713276
0003d0 51 44 5b 3e d7 70 7a bd 95 eb ee 3e 10 ac 33 ba
       0.2141278 -0.06114277 0.4666411 -0.00068539474
0003e0 75 4f 44 3e 9d 9e bd 3d 40 92 2b 3d ea 5b 48 bc
       0.19170935 0.09258769 0.04188752 -0.012228945
0003f0 ce 96 4f 3f 34 14 98 bf 3d c1 87 3c 78 83 1c bf
       0.81089485 -1.1881166 0.016571635 -0.61138105

network_body._body_endoder.seq_layers.0.bias f4 [128]
000000 8a 16 d9 3c 84 f7 a7 3c ea 2c 9c 3c 6b 7b e5 bc
       0.026500005 0.020503767 0.019064385 -0.028012952
000010 e3 31 32 bc d0 62 20 3a 9b b3 a6 3c e7 f5 f7 3a
       -0.010876152 0.000611824 0.020349314 0.0018917889
000020 c7 32 07 bb ed 60 b9 3c 30 60 de 3c 8a 52 0b bc
       -0.002062963 0.022629226 0.027145475 -0.008503566
000030 ce 27 7f 3c 51 8e 93 3c 88 c5 de 3c 9a ce 78 3b
       0.015573455 0.018012198 0.0271938 0.003796494
000040 db dc bf 3c 78 59 8a 3c 6f c4 c0 3c 1c 20 70 bc
       0.023420742 0.016888365 0.023531167 -0.014656093
000050 15 39 f7 3b 03 1f b7 bc e8 69 d5 3c 6c 3f e3 3b
       0.0075446465 -0.022353655 0.026051477 0.0069350507
000060 79 b8 b0 3a c5 73 93 3b 55 b4 2a 3c 7d 8e eb 3c
       0.0013482712 0.004499885 0.010418971 0.028754467
000070 34 64 7e bb c9 00 86 3c 84 54 6a 3b a6 f7 c0 3b
       -0.003881705 0.016357796 0.0035755942 0.005888897
000080 5d c2 88 3c 63 c4 d8 3c 2f 74 de 3c ba 2f 5d bb
       0.016694242 0.026460832 0.02715501 -0.003375037
000090 92 3b f3 3b 9c 73 d9 bc 70 5f fd 3c 51 08 8a 3b
       0.007422873 -0.026544385 0.030929297 0.004212417
0000a0 dd 46 86 3c 98 df af bc ac f9 9d bc 06 a0 81 ba
       0.016391212 -0.021468922 -0.019284092 -0.000988961
0000b0 f3 aa 85 3c 4d 60 b4 3c e4 19 b5 3b d4 af 9a 3c
       0.016316867 0.022018576 0.005526768 0.01888267
0000c0 81 d1 37 39 35 7c 53 3c e0 8c 87 3b 10 7f db 3c
       0.00017530286 0.012908031 0.0041366667 0.026793987
0000d0 3c 92 55 bb 89 f0 bd 3c 1a 1d a8 3c 2b 31 97 3c
       -0.0032588383 0.023185985 0.02052169 0.018456062
0000e0 69 e8 bf bc c0 8e e0 3c 75 8b 48 3c 90 16 b3 3c
       -0.023426251 0.027411819 0.01224028 0.021861345
0000f0 ee a1 54 3c 2b 42 82 3c 77 43 8b 3c bf 47 33 3c
       0.01297806 0.015900692 0.016999943 0.010942399
000100 d5 25 ad 3c 0d 7d c5 3c a7 c1 9c 3c 6c 94 dd 3b
       0.021136204 0.02410748 0.01913531 0.006762078
000110 ba 83 86 bc e2 95 33 bc 9d 77 44 3c 4e b4 20 3c
       -0.016420234 -0.010961028 0.011991409 0.009808613
000120 a0 73 91 3c 4c be c1 bc 23 cf 27 bc 5b 08 a2 3c
       0.01775533 -0.023650311 -0.010242256 0.019779375
000130 33 0c 8f 3c cb 9d 87 3c 8f 87 e7 3c 26 e8 af 3c
       0.017461872 0.016554734 0.028262882 0.021473002
000140 4a 11 d2 3b 86 44 1c 3c b0 2b c4 3c bd 33 58 3c
       0.0064107524 0.009537822 0.023946613 0.013195929
000150 e3 1b 97 3c ad 51 91 bc b5 10 c0 bb 50 e9 82 3b
       0.018445915 -0.017739141 -0.0058613666 0.003995098
000160 9a 00 df 3c 1f 1e 85 39 87 41 8d 3c 57 7c 4c bc
       0.027221967 0.0002539018 0.01724316 -0.012480817
000170 13 c5 8b 3c bf 2f 48 bc b7 81 93 3c 4b 16 1d 3c
       0.017061746 -0.012218415 0.018006189 0.009587835
000180 a9 c6 01 3d 33 0a a1 3c 10 48 ae bc 4a 15 75 bc
       0.031683598 0.019658184 -0.021274596 -0.014958689
000190 fc ae 61 bc de fa c5 3c 84 8b 0a 3b e2 4d d4 3c
       -0.01377463 0.024167474 0.0021140287 0.025916044
0001a0 6b 4d 51 bc 04 55 38 3c ba e4 9b 3c 27 5b 65 3c
       -0.012774806 0.011250738 0.019029964 0.013998783
0001b0 8c 36 ca 3c 30 83 87 bb 29 2d bc 3b 09 f6 c1 bc
       0.024684213 -0.004135512 0.005742688 -0.023676889
0001c0 c8 12 b1 bb dd 18 97 3c 1b b9 b6 3c 7c 1c a6 3b
       -0.00540385 0.018444473 0.022305062 0.0050693136
0001d0 a1 3b ac 3c d0 0d a6 3c d9 18 86 bc 27 ed ca 3c
       0.021024527 0.020270258 -0.01636927 0.024771286
0001e0 3e 32 a8 3c 63 e7 93 3b 82 38 05 3d c3 10 cd 3c
       0.02053177 0.0045136674 0.032524593 0.025032407
0001f0 22 95 29 3c 17 c6 8d 3c 94 bc 19 bb 8d 1b 80 3c
       0.010350497 0.01730637 -0.0023458349 0.015638137

network_body._body_endoder.seq_layers.2.weight f4 [128, 128]
000000 1b c7 a4 3d 90 e6 30 bd f5 42 1a 3d 73 20 a6 bd
       0.08045789 -0.04318863 0.03766151 -0.08111658
000010 3d 85 e4 bc 44 73 90 3d ec 99 66 bc 0d ce 31 3e
       -0.027895564 0.07053235 -0.014074784 0.17363758
000020 82 47 aa bd 5a 34 b2 3d de 74 46 3e cf 88 91 3d
       -0.0831442 0.087013915 0.19380519 0.07106172
000030 9c 09 67 bd 3c eb c9 bc 00 83 f2 3d e5 57 49 be
       -0.05640565 -0.024648301 0.118413925 -0.19662435
000040 6c f3 18 3d 6a a5 ed bd 18 59 49 bd f5 bb 60 3d
       0.03734152 -0.11603816 -0.049157232 0.05486675
000050 c7 1a 16 bd 30 e0 4b bc 20 80 5f 3d fb 16 ac ba
       -0.03664663 -0.012443587 0.05456555 -0.0013129407
000060 6e 3b f6 3c c6 a5 99 3c de e6 c6 3c 14 4a 35 3d
       0.030057635 0.018755805 0.024280008 0.0442601
000070 ec 5f 6e 3e 37 b5 8e 3d 4c 7c 41 bd e3 9b fb 3d
       0.23278779 0.06968158 -0.04723768 0.122855924
000080 95 5b 84 bd f9 01 88 3d 1f 7e 8e 3d a5 e9 34 bd
       -0.064627804 0.06641001 0.069576494 -0.044168133
000090 ba 21 b1 bd 9a f9 9a 3d 39 31 a4 bd f9 6a 1e be
       -0.08649011 0.07567139 -0.08017201 -0.15470494
0000a0 3d ea b1 3c f3 f9 08 be 9d 21 a5 3d 3e 06 59 3d
       0.021718139 -0.13376598 0.08063052 0.05298447
0000b0 d5 1c d9 3c c9 fe d8 bd 32 e0 a3 bd d4 3a 6e 3c
       0.026503006 -0.105954714 -0.08001746 0.014540393
0000c0 11 fe a0 3d b8 8a 51 be ed 4a c7 3d 4b f7 92 3a
       0.07860959 -0.20463073 0.09731088 0.0011212615
0000d0 8c a1 8b 3c b3 cb 61 3d c8 5d 91 bd be 26 07 be
       0.017044805 0.055125903 -0.070979655 -0.13198373
0000e0 4b b0 9c 3d 08 2e 13 3e bb 09 b0 3d ca cf 5e 3d
       0.07650813 0.14373028 0.08595606 0.05439738
0000f0 d9 02 02 bc fc 50 8e 3b 72 e6 39 3d df 69 93 ba
       -0.007935249 0.00434315 0.045385785 -0.0011246762
000100 cc ba 98 bd 5d 4f c8 bd ca e4 ec 3d b4 b2 26 be
       -0.07457504 -0.09780762 0.115670756 -0.16279107
000110 4a dd 68 3d 09 a4 10 be 31 5b 57 bb 9e f0 e4 bd
       0.056851663 -0.14125074 -0.003286075 -0.111787066
000120 74 fa 8f 3d 61 04 e1 3d 8d ea 69 be 9f 48 19 be
       0.07030192 0.10987163 -0.2284338 -0.14969109
000130 32 f4 ed bd da 74 8b bd 36 3a 6b 3d 35 2c 68 be
       -0.11618842 -0.06809397 0.05742856 -0.22673114
000140 c0 ef bd bd 2e e0 20 3c 50 80 34 3d 16 6a 0b bd
       -0.09274244 0.009819074 0.04406768 -0.03403672
000150 1c c3 21 bd c6 9f e7 bd e9 d9 22 3d 58 93 32 be
       -0.03949271 -0.11309771 0.039758597 -0.1743902
000160 74 c3 7f bd d3 61 e5 3d 95 19 52 3e 33 d2 00 be
       -0.062442258 0.11200299 0.20517571 -0.12580185
000170 91 78 3d be 0e e2 48 3e 3b 10 8b 3d d4 fb db ba
       -0.18503024 0.19617483 0.06790205 -0.0016783425
000180 35 ed b3 3d 4c 84 92 3c 5e fc 82 bd 84 46 8b bd
       0.08785478 0.01788535 -0.063957915 -0.06800559
000190 22 38 0b be 65 8c 5b bd 8f b5 ad bc 41 f5 a6 3c
       -0.13595632 -0.053600688 -0.021204738 0.020380618
0001a0 af 17 b7 bd b1 d3 27 3d ea 18 58 be 40 77 d0 bd
       -0.08940064 0.04097337 -0.21103254 -0.10178995
0001b0 15 dd 26 3d 49 7b e8 3d 34 9e e6 3b cd f2 fb ba
       0.040738184 0.1135164 0.0070379023 -0.001922214
0001c0 1d f9 0f 3e 3e 2f ff 3d 53 ad 22 bd 78 58 4c bc
       0.14059873 0.124601826 -0.039716076 -0.0124722645
0001d0 a7 4b af bd 66 d5 0c 3d 5d aa c7 bd 28 c0 10 be
       -0.085593514 0.0343832 -0.09749291 -0.14135802
0001e0 d0 86 3b 3d 95 c4 67 3e fa 32 40 bd a4 cc e2 bd
       0.045782864 0.22633584 -0.046923615 -0.11074188
0001f0 50 5a a9 bd 12 db 03 3d 29 3f b9 bd dd 3b 1e bd
       -0.08269179 0.032191344 -0.0904525 -0.03863131
000200 54 b4 8a 3c cc c1 a8 bd 39 61 f4 3d 6d 83 d4 3c
       0.01693169 -0.08240089 0.11932606 0.025941575
000210 fe c5 f9 bd d3 eb 07 bd cd 56 a4 3b 26 c7 5c bd
       -0.12195967 -0.033183884 0.0050152303 -0.05390086
000220 65 7b 06 3e 5d 6a 4f 3d bb c7 9d bd 1d c8 16 be
       0.13133009 0.050638545 -0.07704111 -0.14724775
000230 4e c3 b1 3d bf 42 1a bd 06 1d 0b 3d 93 fb cd 3d
       0.086798295 -0.03766131 0.033963226 0.100577496
000240 f4 89 74 bb 3f 5e 08 be a6 70 20 3e a5 96 54 bd
       -0.0037313672 -0.13317202 0.15667972 -0.05190148
000250 52 a1 1e 3e 4b 84 0e be 59 61 82 3c b1 3f a5 bb
       0.15491226 -0.13917653 0.01591556 -0.005042993
000260 97 74 4b 3d 1f c1 0f 3d 81 1e f1 3c 59 1e c0 bc
       0.049671736 0.035096284 0.02943349 -0.02345197
000270 34 7b 17 bd d9 0b a1 bd 95 81 22 3d d4 5b b6 3c
       -0.03698273 -0.07863588 0.03967436 0.022260584
000280 7f 9c 7e 3c a6 f5 97 3d ef 5c 45 3d da 88 05 bd
       0.015540241 0.074199006 0.04818433 -0.032601215
000290 84 08 a8 bd 3a b8 82 3b da 54 62 bb 40 e6 ea 3c
       -0.08204749 0.0039892467 -0.0034535439 0.028674245
0002a0 82 89 5a bd 60 84 4a 3d a5 c6 9d bd 20 f3 96 3c
       -0.053353794 0.04944265 -0.07703904 0.018426478
0002b0 11 93 d4 bc c5 c7 29 be ac 3f 02 bc 7e ea 3f bd
       -0.025949033 -0.16580112 -0.007949751 -0.04685449
0002c0 dd b5 83 3d 93 5f bc bd 90 28 92 3c db ea 0a 3d
       0.06431172 -0.09197917 0.017841607 0.033915382
0002d0 86 14 07 bd 82 8a 61 3d 23 87 82 bd cd d6 54 bd
       -0.032978557 0.055063732 -0.063734315 -0.051962662
0002e0 97 31 d9 bd cd f6 e1 bc d9 c9 31 bd 85 cd 8d bd
       -0.10605162 -0.027583504 -0.043405388 -0.06923965
0002f0 f9 74 46 bc ba 63 3b 3d 7d 91 6b bc 8e d5 0c be
       -0.012112849 0.045749404 -0.014377949 -0.1375334
000300 d3 fd ff 3d b8 fb 9f 3d 0d 9c d9 bd 65 8e cf bd
       0.12499585 0.078116834 -0.106254674 -0.101345815
000310 a5 1e 15 3e 88 d1 b3 3c a2 ff 8d bd b2 a5 2f 3e
       0.14562471 0.021950498 -0.06933524 0.17153051
000320 1a 1c 0d 3e 40 c6 3e 3d 91 cb d3 3d 3c b8 46 be
       0.13780251 0.046575785 0.103415616 -0.19406217
000330 d0 4e 67 bd c2 93 80 3e f5 80 0e be ad 5a 1f 3d
       -0.056471646 0.2511273 -0.1391638 0.038904835
000340 89 cc f9 3d bb 41 c3 bb e2 de 35 3d 22 17 07 3e
       0.12197215 -0.0059587634 0.04440201 0.13192418
000350 fa f9 84 3c 29 bd 11 be a3 5c 9d 3d b8 5a 03 be
       0.01623248 -0.14232315 0.07683685 -0.12827575
000360 0b c5 d7 bd fd 33 2e bc f4 e5 ee 3d 44 3b 96 3d
       -0.1053563 -0.010632512 0.11664954 0.07335523
000370 6c 7c 01 3e 0c a5 e2 3d 93 3d b3 3d 59 65 f1 bd
       0.1264512 0.110666364 0.08751979 -0.11786909
000380 b5 3b 1d 3e d9 e2 08 3d cd 19 9b bd f3 d5 ab 3d
       0.15354808 0.033419464 -0.075732805 0.08390417
000390 d9 52 0e bc 09 4e d2 3d 76 8e ba 3d b6 ce fc 3c
       -0.008686745 0.1026879 0.091092035 0.030860286
0003a0 18 25 f9 3b dd 83 26 bd 75 e5 60 bd e9 1f ba 3c
       0.007603299 -0.0406531 -0.054906327 0.022720294
0003b0 3f 18 0e be e6 78 3c 3c 3a 60 7f 3e 84 11 ae bd
       -0.13876437 0.011503434 0.24939051 -0.084994346
0003c0 68 ac 25 bd 85 06 78 3d f8 ac 22 be ea 9b bc 3d
       -0.040447623 0.060553093 -0.15886295 0.09209426
0003d0 00 dc dd 3d 14 c7 c1 3d 91 08 e2 bd 4e 1d 8a bb
       0.10832977 0.09461799 -0.1103679 -0.004214919
0003e0 e7 e5 19 3e ce 7f 96 bd 5a 6c eb bc a2 c5 d4 bc
       0.15029107 -0.073485956 -0.02873819 -0.025973145
0003f0 30 77 53 bb d4 10 21 3e 9f fd 3e 3e 77 54 0d 3e
       -0.0032267086 0.15729076 0.18651436 0.13801752

network_body._body_endoder.seq_layers.2.bias f4 [128]
000000 5b 23 9f 3c 00 e9 e7 bb 31 ee 5a bc 13 f9 92 3c
       0.019426038 -0.0070773363 -0.013362453 0.017941033
000010 1b bb 9d bb 81 e9 87 bc 6b 74 f4 bb 60 52 5f bc
       -0.0048135645 -0.016590836 -0.007460167 -0.01363048
000020 11 30 f1 3c b8 7c 27 3c d7 aa 98 3c 23 7d b3 3c
       0.029441865 0.010222606 0.01863615 0.021910256
000030 4e 4b 6b bc cc f4 0f 3b 47 05 21 3c 38 aa 87 3c
       -0.014361216 0.0021965979 0.009827918 0.016560659
000040 31 f5 ae 3c 4b 90 74 bc 0f 2c 50 3c a4 a8 65 bb
       0.02135715 -0.01492698 0.012705817 -0.0035043145
000050 c3 64 9f bc 9f 0a 8d 3c 58 6d d7 3c 62 27 df 3c
       -0.019457227 0.017216979 0.026297256 0.027240459
000060 27 07 81 3c 40 b0 82 3c 26 c2 b9 bc 1d 14 cc 3c
       0.01575048 0.015953183 -0.022675585 0.024911935
000070 ea aa ce 3c f3 3b c4 3c 4d a4 cd bb 1a 86 80 3c
       0.025227983 0.023954367 -0.0062756897 0.015688945
000080 30 da 99 3c 71 ad 36 bc 9d 4e 93 3c 64 21 40 3c
       0.018780798 -0.01114975 0.017981822 0.011726711
000090 dc 75 3e bc dc 32 a3 3c 32 72 9c 3c 5a f6 e1 3c
       -0.01162478 0.019921713 0.019097421 0.02758329
0000a0 c4 b3 af 3c 36 ca bf bb 63 45 9b 3c 43 85 9b bc
       0.021448024 -0.005852963 0.018953985 -0.018984443
0000b0 39 58 af 3c 6f 97 aa 3c 73 4e c8 3c 26 32 b1 3b
       0.021404373 0.020824162 0.02445147 0.0054075895
0000c0 aa 40 aa 3b 6e c7 91 3b b5 e6 7f 3b 72 83 b2 3a
       0.005195697 0.0044488227 0.0039047424 0.0013619496
0000d0 af f2 c9 3c 69 a0 9f bc fe 87 a3 3c ae 7d c0 ba
       0.024651853 -0.01948567 0.019962307 -0.0014685893
0000e0 0d 58 dd 3c 9e 31 a9 3c dd fb de 3c 93 89 a6 3c
       0.027019525 0.020653542 0.027219707 0.020329272
0000f0 15 3d 9a 3c 9f 82 fb 3b fe 5e b6 bc c7 5a 95 3c
       0.018827954 0.0076754834 -0.022262093 0.018231763
000100 68 bf 82 3b cc 3a dd 3c 56 fb e2 3c e5 d5 9a bb
       0.0039901026 0.027005576 0.027707737 -0.0047252052
000110 5f ab 4e bc 39 4f c7 39 6e ec d6 3c 42 87 c7 3c
       -0.0126141 0.00038015263 0.026235785 0.024356488
000120 cd 58 c8 3c 8b a5 07 3c d4 c0 dc 3c 61 1a 9c 3b
       0.024456406 0.008279215 0.026947416 0.004763887
000130 38 6c 4a 3c 8c 77 14 3c a5 80 c4 bc f9 46 6d bc
       0.012354903 0.009061705 -0.023987124 -0.014482253
000140 f8 7e 57 3c 02 34 4b 3c 35 2a 41 3c fe 94 a5 3c
       0.01315283 0.012402536 0.011789848 0.020212647
000150 5d d7 2d bc fd 48 31 3c 5b 20 03 3c 09 c7 d2 3b
       -0.010610429 0.010820624 0.00800332 0.0064324182
000160 90 cc 2e 3b a3 19 1a bc 85 b7 0f ba 75 59 7b bc
       0.0026672222 -0.009405526 -0.00054823636 -0.015341152
000170 62 0a 91 3c 42 4e 69 bc 38 4b e1 3c 29 d9 90 3c
       0.017705146 -0.0142398495 0.027501687 0.017681675
000180 68 5b e1 3c 55 40 e2 3c 5a da 82 3c 7b fa a3 3c
       0.027509406 0.027618567 0.015973259 0.0200169
000190 f3 d4 ad 3c 03 45 4f bc 92 f5 64 3c f8 d2 a6 bc
       0.021219706 -0.012650731 0.013974564 -0.02036427
0001a0 55 c1 9b 3c ac 94 93 bc b4 53 9e 3c ee 86 b8 3c
       0.019013086 -0.018015228 0.019327022 0.022525277
0001b0 4a 0a 88 3a c7 08 5c 3b 2c bd d6 3c 1c 14 d7 3c
       0.0010379043 0.0033574568 0.026213251 0.026254706
0001c0 0d 5f d6 3a bf 1c aa 3c da 87 b7 3c 1f 6e 9b 3c
       0.0016355232 0.02076566 0.022403646 0.018973408
0001d0 f2 13 de 3b 03 4f f2 bb 9b 51 95 3a ae 0b 97 bc
       0.00677728 -0.007394673 0.0011392118 -0.018438186
0001e0 34 79 80 3c 2f 84 e2 3c 80 cb 5f 3c a4 a3 d0 bb
       0.015682794 0.02765092 0.013659358 -0.0063671637
0001f0 37 1d 6c 3c 76 24 99 3c 40 da d9 3b 61 d1 5f 3c
       0.014411262 0.018694144 0.006648332 0.01366076

action_model._continuous_distribution.mu.weight f4 [1, 128]
000000 63 bb 4d bd ca 61 07 3d bd d7 07 bd 9f 0c d9 bc
       -0.050227534 0.033052243 -0.03316473 -0.026495276
000010 10 c0 a1 3a 1d c5 ba 3c a1 64 a6 3c 35 1a 47 3d
       0.0012340564 0.022799069 0.020311655 0.048608977
000020 23 52 15 bd 5e 60 60 bc ff a5 11 3d 81 f4 cc bc
       -0.036455285 -0.013694851 0.035558697 -0.025018932
000030 a3 6e 63 ba 42 6b 51 bc 05 60 a6 3c da de 4d bd
       -0.0008675849 -0.01278192 0.020309458 -0.050261356
000040 56 0a 03 3d b0 79 b8 3a 1d 92 a1 3c 90 7e bd 3c
       0.03199228 0.0014074352 0.019722993 0.023131639
000050 41 f0 dd 3c 0b 3c c3 3c 19 cf 71 bd 0b 73 2e bd
       0.027092101 0.023832342 -0.059035394 -0.042590182
000060 2b 15 bd 3c 98 39 15 3d 38 7a 34 bb 22 be cb bc
       0.023081383 0.03643188 -0.0027538668 -0.024870936
000070 5c cc ec bc 5a 89 ce bc a4 2c a5 3c 04 75 a9 bc
       -0.02890604 -0.025211979 0.020162888 -0.02068568
000080 69 27 d5 bc 37 e3 aa 3c 08 cd eb 3c 81 8d 18 3d
       -0.026019769 0.020860298 0.02878429 0.037244324
000090 90 49 0a 3c c8 22 16 3d f3 5e e5 3c 67 6c 3c bd
       0.00844039 0.036654264 0.027999377 -0.046001818
0000a0 17 37 c5 3c 93 c7 03 3d 48 58 24 bd 93 5e d9 b8
       0.02407412 0.03217275 -0.040123254 -0.00010364982
0000b0 75 61 0e bd 5b 2d 1f 3d 07 1f 4f bd 53 fe 51 bc
       -0.03476091 0.038861614 -0.0505667 -0.012816983
0000c0 bf 5d 7e bc e5 35 0a 3c 7b c0 92 bc e5 55 03 3d
       -0.0155252805 0.008435701 -0.017914047 0.032064337
0000d0 ae 27 cf bc e6 2e e1 3a d6 bb 0e 3d b0 04 25 3c
       -0.025287475 0.0017180115 0.034847103 0.010071918
0000e0 53 89 59 bd 8e 79 2a 3d 88 1b 26 bd 7d 02 16 3d
       -0.05310948 0.04161983 -0.0405536 0.036623467
0000f0 5a 34 55 3d e6 85 60 3c 06 69 a1 3c f9 9c 32 3d
       0.05205188 0.013703799 0.0197034 0.043606732
000100 ba a3 c8 3c 7b ef 42 bd 0b c2 33 bd 7b 42 1c 3d
       0.024492133 -0.047591668 -0.043886226 0.03814934
000110 a6 70 01 3d dd f6 46 3d 79 63 56 bd f2 b3 34 bd
       0.03160157 0.04857527 -0.05234096 -0.04411692
000120 58 32 75 bd 1e da 74 bc 6d c9 1b bd cb ce 9f 3c
       -0.059862465 -0.014944581 -0.03803389 0.019507786
000130 d8 2b 1f 3d 91 7f 9f 3c aa 5d 71 bb 9b 5a 3f bb
       0.038860172 0.019470008 -0.003682951 -0.0029198292
000140 72 09 a5 3c 3b de 3e 3d 68 bc a0 bc 0b 5e 59 3d
       0.020146105 0.046598654 -0.01962109 0.053068202
000150 c4 db f0 3c 6e 89 af bc 4e 42 34 3d 05 2b 89 bc
       0.029401667 -0.021427836 0.044008546 -0.016744146
000160 bd 79 65 bc d1 29 3b bb ac 67 63 3c ca 6b 13 3d
       -0.014006075 -0.002855886 0.013879698 0.035991468
000170 11 5a 6e bd 2f ad 25 3c d9 8b 13 bd b2 63 3e bc
       -0.058191363 0.010112091 -0.03602204 -0.011620449
000180 8b 7d 23 bd b2 0a 6d bd 6c a3 eb 3c 8d d5 17 3d
       -0.03991465 -0.057871528 0.028764449 0.037068892
000190 52 9f b7 3c 54 84 cd 3c 50 59 0e 3d 74 2f ff 3b
       0.022414837 0.025087513 0.034753144 0.0077876393
0001a0 e5 ea 3e 3d 2b 88 af 3c ad 32 1b 3d f3 62 44 bd
       0.04661073 0.021427235 0.037890125 -0.047945928
0001b0 db 16 5e bc 9e c2 b8 3c 6a a0 2b bc c5 42 21 bd
       -0.013555254 0.022553738 -0.010475257 -0.039370317
0001c0 c4 a8 31 bc 15 74 2d 3d 3c 40 d3 bc c2 08 03 3d
       -0.0108434595 0.042347033 -0.025787465 0.031990774
0001d0 4a a5 fc 3c c3 38 da 3c ef af 81 3c 06 02 27 bc
       0.030840535 0.026638394 0.015830962 -0.0101933535
0001e0 5f 1e f9 bc 10 16 f9 bc 31 9f c6 bc ee 14 a5 3c
       -0.03040999 -0.030406028 -0.02424583 0.020151582
0001f0 65 6d 4b 3d c3 83 d5 bc 8e 29 95 3c 05 03 a9 3c
       0.049664874 -0.026063805 0.018208291 0.020631323

action_model._discrete_distribution.branches.0.weight f4 [1, 128]
000000 20 eb 01 bc ad a4 cd 3c 89 a5 15 3c f7 22 3f 3c
       -0.007929593 0.025102938 0.009133705 0.011666051
000010 d2 23 c0 3b b3 67 e9 bb e7 99 31 bc 30 5d aa 3a
       0.005863645 -0.0071229576 -0.010839916 0.0012997743
000020 ef 2f 2e 3b b5 b3 7b 3c 0f 32 bc 3a 2d 8f 1f 3b
       0.0026578864 0.01536267 0.001435818 0.0024346814
000030 23 a4 65 ba 9f b5 58 bb 4d 43 47 bc 5b ce 93 bc
       -0.0008760115 -0.003306724 -0.012162042 -0.018042734
000040 eb 32 ea 3a 4a 28 fc ba 5c dc 00 bc ed 60 2b 3b
       0.0017867958 -0.0019238081 -0.007865038 0.0026150302
000050 63 13 8a 3c a1 b4 47 3b 6b e7 50 bb f3 7d ab 39
       0.016854947 0.0030472653 -0.0031876217 0.000327095
000060 38 eb 88 3b e5 76 21 3c 93 85 94 ba 8d bc fc 3a
       0.004178431 0.009855007 -0.0011331312 0.0019282267
000070 a5 5e e0 bb 48 4c dc bb 27 f6 07 3c 1f 01 10 3c
       -0.00684722 -0.0067229606 0.008298433 0.00878933
000080 89 43 0b bc bb 93 bb ba d3 4e f8 bb d7 09 bb bb
       -0.008499988 -0.0014310995 -0.007577756 -0.00570796
000090 67 b8 e1 3c 97 d1 fd ba 2d a4 d2 3b a2 55 f0 3b
       0.02755375 -0.0019364831 0.0064282627 0.007334427
0000a0 79 b7 cb bb 73 6e d3 bb 96 3c 2a b9 73 96 9a bb
       -0.00621694 -0.0064523756 -0.00016235033 -0.004717642
0000b0 5c f4 9f bc 9b 49 93 ba e5 41 ec 3b 7f 78 eb 3a
       -0.0195257 -0.0011237146 0.0072100037 0.0017964988
0000c0 7a 8b 20 bc 8d 81 ba 3b a5 9f d0 bb 95 76 21 bc
       -0.009798879 0.005691713 -0.0063666874 -0.009854932
0000d0 bf 6a b8 3b 73 3c 7d 3b ea d2 c9 3b 36 2d 2d 3c
       0.0056279595 0.0038640767 0.006159176 0.010569861
0000e0 d4 25 c5 3b a7 80 1f bc 85 34 59 3c cc 89 96 bc
       0.0060164724 -0.009735263 0.013257151 -0.018376254
0000f0 8c 37 11 3c ae c5 12 bc c0 1c 53 3c 2e d7 c4 3a
       0.008863341 -0.008958263 0.0128852725 0.0015017742
000100 0b e5 8d 3b 45 78 62 bb 4a 2f 3e b9 18 8e e7 bb
       0.0043302826 -0.003455655 -0.00018137429 -0.0070664994
000110 92 b6 63 3c de eb a3 3b 73 aa 51 3b de 7a 03 bc
       0.013898509 0.005002483 0.0031992465 -0.008024899
000120 4e 01 07 3c aa 80 14 3a e2 24 bc bb 45 67 93 3b
       0.008240057 0.00056649244 -0.0057417015 0.0044983947
000130 97 91 3d bb b3 d7 c1 3b 93 84 10 bc ff 55 92 bb
       -0.002892589 0.005915606 -0.008820671 -0.004465818
000140 dd bf 0e bc df a6 4d bc 98 d3 6d bb a2 6b 23 bc
       -0.008712736 -0.012551992 -0.003628945 -0.009974392
000150 57 51 ed 3b 17 15 1f 3c 83 f8 a0 3b 1a 96 8c 3c
       0.0072423625 0.009709618 0.0049124374 0.017161418
000160 97 9a 99 3c b1 01 82 bc b4 71 33 bb 9a 9f 90 3a
       0.018750472 -0.015869947 -0.0027381005 0.0011033893
000170 57 0a f7 bb b5 4d 43 3c 6b 96 b0 3c 77 32 98 3b
       -0.0075390744 0.011920382 0.0215561 0.0046446878
000180 0f 28 e1 3b 40 19 49 3b b7 71 64 3b 9c 51 be 3b
       0.0068712304 0.0030685216 0.0034857818 0.0058080684
000190 a9 72 bc bb a1 c4 b5 3c aa 44 9e bb b9 d3 8c bb
       -0.0057509732 0.022188487 -0.0048299627 -0.0042977002
0001a0 32 7e 7a 3b 0e 6d 86 3a 32 7b 72 bb 9a d8 c6 bc
       0.003822219 0.001025589 -0.00369997 -0.024273206
0001b0 f5 2f 66 3b cf b7 8b 3a 6b b9 b3 bb f8 b8 25 bb
       0.00351238 0.0010659638 -0.00548475 -0.0025287252
0001c0 6a fd 02 bb d2 e9 e0 b9 1a d6 ea 3b c5 63 d5 3b
       -0.0019987472 -0.0004289882 0.007166636 0.0065121376
0001d0 62 dc d2 bb f9 c3 b2 3c 7c 62 ae 3b bf 84 9b 3b
       -0.006434963 0.021821963 0.005321799 0.004746049
0001e0 23 3e 42 3c ed 7e 27 3c d3 a7 e5 bb 4d c1 2a 38
       0.011855635 0.010223133 -0.0070085316 4.0711184e-05
0001f0 79 df 3f 3c 68 56 1d bc 70 4b 91 bc ad 1f 4d 3c
       0.011710995 -0.00960312 -0.017736167 0.012519759

exp_avg f4 [128, 6]
000000 cf 88 94 b7 5f 0d 71 b8 78 5e 02 2f e3 9b 32 3a
       -1.7706681e-05 -5.747133e-05 1.1856993e-10 0.000681339
000010 3a 93 66 b8 00 00 00 00 61 2f 1b ba c2 ca 1a b9
       -5.497339e-05 0.0 -0.0005919841 -0.00014762118
000020 26 7e af ae 5d 22 14 bb 4b d2 37 b9 00 00 00 00
       -7.980487e-11 -0.002260349 -0.0001753058 0.0
000030 9f 9e d3 b9 f9 7b c5 b8 7b af 9c ae e1 8f bd ba
       -0.00040363238 -9.416784e-05 -7.12523e-11 -0.0014462435
000040 54 90 eb b8 00 00 00 00 4c 97 9f 37 f1 ed 06 37
       -0.000112325564 0.0 1.902473e-05 8.042422e-06
000050 f4 44 9c ac d2 19 c8 38 82 1d 1b 37 00 00 00 00
       -4.441442e-12 9.5415526e-05 9.24559e-06 0.0
000060 0e 90 53 38 4e f0 a1 37 25 5d d4 ac 38 92 c0 39
       5.044048e-05 1.9304596e-05 -6.0357435e-12 0.00036730035
000070 00 79 c3 37 00 00 00 00 81 12 8f 37 87 be 23 37
       2.3302156e-05 0.0 1.7055545e-05 9.759918e-06
000080 7b 7c d2 ac 0e 74 3c 38 db fe 31 37 00 00 00 00
       -5.982379e-12 4.4930777e-05 1.060936e-05 0.0
000090 52 1a ed b9 38 6c e8 b8 ae 71 88 ae 41 8f e6 ba
       -0.00045223773 -0.000110827794 -6.2047575e-11 -0.00175903
0000a0 d2 82 0a b9 00 00 00 00 52 d4 22 b9 bb a2 4c b8
       -0.0001320944 0.0 -0.0001552862 -4.8788945e-05
0000b0 2a 03 de 2b e4 cd dd b9 4d 02 68 b8 00 00 00 00
       1.5774927e-12 -0.00042305805 -5.5315253e-05 0.0
0000c0 a7 61 c6 b8 fa 2d 0e b6 85 95 6c ae f9 b1 aa b9
       -9.459565e-05 -2.118641e-06 -5.3792987e-11 -0.00032557527
0000d0 3c 7c d3 b6 00 00 00 00 ed 0f b0 38 b3 9a e3 b7
       -6.302753e-06 0.0 8.3953004e-05 -2.7132546e-05
0000e0 5f 8a a3 2e 05 99 e7 39 5e 43 d8 b7 00 00 00 00
       7.4369615e-11 0.00044173762 -2.5780577e-05 0.0
0000f0 1d b0 09 38 51 29 f4 b7 29 a2 af 2e 6e be 15 3a
       3.2827364e-05 -2.9106306e-05 7.986884e-11 0.0005712275
000100 f1 4f db b7 00 00 00 00 2f dd 63 38 b7 95 5a b5
       -2.614406e-05 0.0 5.432701e-05 -8.142919e-07
000110 48 38 17 2e de 2b a2 39 cd 70 f1 35 00 00 00 00
       3.4383413e-11 0.0003093173 1.7988729e-06 0.0
000120 3b a7 3b b9 a8 5c 46 b8 a0 97 c8 ad 8f 00 2c ba
       -0.00017896008 -4.729317e-05 -2.2804703e-11 -0.00065613625
000130 c9 75 6a b8 00 00 00 00 a3 ac 2f ba 5d b7 26 b9
       -5.5899643e-05 0.0 -0.0006701445 -0.00015899302
000140 a5 15 e2 ae 21 98 25 bb b0 c8 46 b9 00 00 00 00
       -1.0281135e-10 -0.0025267678 -0.00018957513 0.0
000150 03 eb 4c b9 1c b7 95 b8 48 b4 dc 2d c8 b2 b1 b9
       -0.00019542505 -7.1389804e-05 2.5091165e-11 -0.00033893273
000160 0b e8 a4 b8 00 00 00 00 cf 95 45 b9 cf 49 44 b8
       -7.863351e-05 0.0 -0.00018843192 -4.679878e-05
000170 f5 8a e9 ad 74 53 3f ba e8 82 69 b8 00 00 00 00
       -2.6550743e-11 -0.0007298507 -5.5673445e-05 0.0
000180 2b 80 92 37 84 2f b2 b5 2f 47 19 2e 4a 35 c4 39
       1.746424e-05 -1.3275862e-06 3.4851396e-11 0.00037423737
000190 19 64 08 36 00 00 00 00 67 08 1f ba 6e f3 15 b9
       2.0323844e-06 0.0 -0.00060666207 -0.00014300432
0001a0 88 95 d2 ae 8f 97 12 bb 97 7a 32 b9 00 00 00 00
       -9.5762565e-11 -0.0022368168 -0.00017021071 0.0
0001b0 4f 65 98 b8 7b 54 a5 b7 2e 3b a7 ac a8 5e 85 b9
       -7.266795e-05 -1.9708872e-05 -4.7529957e-12 -0.0002543826
0001c0 72 48 c1 b7 00 00 00 00 6c 38 0f 39 b1 bf 24 38
       -2.3041128e-05 0.0 0.00013658562 3.9279174e-05
0001d0 ef 04 8d 2d 71 c7 ea 39 69 b3 3e 38 00 00 00 00
       1.6032035e-11 0.00044780553 4.546662e-05 0.0
0001e0 94 05 a2 b9 fe 44 9d b8 ce a4 3d ae 9d ed 99 ba
       -0.00030903204 -7.499194e-05 -4.312e-11 -0.0011743788
0001f0 35 2a bb b8 00 00 00 00 dc 24 b6 38 b6 cb 2b 38
       -8.9247165e-05 0.0 8.685302e-05 4.0959298e-05
000200 72 ea b8 ac 30 d7 56 39 ec a6 3c 38 00 00 00 00
       -5.255623e-12 0.00020488794 4.497815e-05 0.0
000210 0f d3 37 b7 29 64 1a b8 c9 b3 bf 2e b7 97 1b 3a
       -1.0956791e-05 -3.6809743e-05 8.717611e-11 0.0005935388
000220 d3 b1 0e b8 00 00 00 00 17 62 39 b9 e4 ed 3d b8
       -3.402105e-05 0.0 -0.00017679516 -4.5282664e-05
000230 e2 9f bb ad 93 9f 2c ba 78 50 60 b8 00 00 00 00
       -2.1330441e-11 -0.00065850577 -5.3480704e-05 0.0
000240 d7 e6 34 b9 10 83 43 b8 1c b0 76 ad b3 fa 2a ba
       -0.00017252132 -4.6613684e-05 -1.4022585e-11 -0.00065223424
000250 1e a1 66 b8 00 00 00 00 43 12 ae b9 d5 f2 a8 b8
       -5.4986325e-05 0.0 -0.00033201472 -8.056095e-05
000260 41 4d 49 ae 5f cb a2 ba a7 c3 c8 b8 00 00 00 00
       -4.5770724e-11 -0.0012420228 -9.573186e-05 0.0
000270 ba 98 7d b9 a1 72 69 b8 2f 85 26 ae e1 b4 5e ba
       -0.00024184855 -5.5658285e-05 -3.786232e-11 -0.0008495581
000280 81 ef 8a b8 00 00 00 00 0c 32 f7 38 43 13 9c b7
       -6.624964e-05 0.0 0.000117872 -1.8605619e-05
000290 f0 5d ad 2e 51 4a 0b 3a ae e1 82 b7 00 00 00 00
       7.883816e-11 0.0005313503 -1.5602298e-05 0.0
0002a0 3b 85 31 b8 97 d4 95 b7 d9 f0 60 2d 5a 5b 82 38
       -4.232417e-05 -1.7861179e-05 1.2786405e-11 6.2158986e-05
0002b0 96 f0 9c b7 00 00 00 00 b0 3e fe b8 0c cf c6 b7
       -1.870868e-05 0.0 -0.0001212334 -2.3699853e-05
0002c0 0b 16 ec ad 4e 42 de b9 09 a4 f1 b7 00 00 00 00
       -2.6839883e-11 -0.0004239254 -2.8805824e-05 0.0
0002d0 25 53 c4 37 e2 f3 b3 b7 eb d3 12 2e 9d 72 91 39
       2.3403738e-05 -2.145203e-05 3.3384778e-11 0.0002774195
0002e0 58 5d b3 b7 00 00 00 00 01 9a fc 36 5a a2 4c b8
       -2.138193e-05 0.0 7.5281137e-06 -4.878859e-05
0002f0 1a de b5 2e 29 b9 fe 39 81 49 4a b8 00 00 00 00
       8.27038e-11 0.0004858461 -4.822901e-05 0.0
000300 2d 76 1b b9 09 2f 1d b8 59 f4 b0 ad 7d f2 02 ba
       -0.00014825976 -3.7475522e-05 -2.0117396e-11 -0.000499524
000310 eb 39 38 b8 00 00 00 00 b6 5d 5f b8 8f f3 4e b8
       -4.392296e-05 0.0 -5.325462e-05 -4.934106e-05
000320 2b 89 a7 2e cc de d0 39 52 7f 4d b8 00 00 00 00
       7.618647e-11 0.00039838848 -4.8994385e-05 0.0
000330 f0 16 ef b7 a4 6c 5a b8 23 60 e5 2e 32 6c 31 3a
       -2.8501701e-05 -5.207643e-05 1.04307916e-10 0.00067681365
000340 37 3a 50 b8 00 00 00 00 d1 8d e2 38 f4 0a 25 37
       -4.964528e-05 0.0 0.00010802935 9.837317e-06
000350 33 53 76 2e 48 d3 29 3a 3d 4d 86 37 00 00 00 00
       5.600782e-11 0.0006478322 1.6010012e-05 0.0
000360 3c 51 9f b6 d5 48 10 b8 0e 78 95 2e be 98 be 39
       -4.748026e-06 -3.4400106e-05 6.7970615e-11 0.00036353426
000370 c7 cc 0a b8 00 00 00 00 83 c8 92 38 c6 24 b2 37
       -3.3092478e-05 0.0 6.999171e-05 2.1236378e-05
000380 3b c6 fb ac b0 a3 40 39 ac c5 c8 37 00 00 00 00
       -7.155857e-12 0.00018371525 2.3933906e-05 0.0
000390 9d b2 cb b9 e7 f6 27 b9 83 6a 9e ae 42 7f 05 bb
       -0.00038852255 -0.0001601834 -7.2039284e-11 -0.002037004
0003a0 b0 15 47 b9 00 00 00 00 11 30 c0 b9 3e 4a 68 b8
       -0.00018986198 0.0 -0.00036656906 -5.5382254e-05
0003b0 2e ac f7 ae d3 35 a6 ba 5a 48 94 b8 00 00 00 00
       -1.1262845e-10 -0.0012680836 -7.0706665e-05 0.0
0003c0 78 c1 37 b9 36 ec b5 b8 ca 9b 91 2d 39 dc a7 ba
       -0.00017524313 -8.67475e-05 1.6553776e-11 -0.001280672
0003d0 1d 61 d8 b8 00 00 00 00 6e 1c 82 38 81 60 b8 37
       -0.000103177714 0.0 6.2041785e-05 2.1979447e-05
0003e0 06 25 5d ac 16 0e 72 39 19 24 d0 37 00 00 00 00
       -3.142654e-12 0.00023084166 2.4812342e-05 0.0
0003f0 56 d3 a4 b5 49 d2 c5 35 43 c0 2a ad f1 ba 3b b9
       -1.2280459e-06 1.4738845e-06 -9.706072e-12 -0.00017903351

exp_avg_sq f4 [128, 6]
000000 3a 35 36 37 bb d7 6f 34 e8 07 14 22 6f 6c 68 38
       1.0860438e-05 2.2337092e-07 2.0061926e-18 5.5414097e-05
000010 5c 64 a8 34 00 00 00 00 55 77 91 36 ab a2 d0 33
       3.136546e-07 0.0 4.335229e-06 9.715344e-08
000020 7d 9f a5 21 69 b6 b7 37 6c cc 13 34 00 00 00 00
       1.1223051e-18 2.1900241e-05 1.376481e-07 0.0
000030 89 1d 25 36 54 36 54 33 01 b8 78 21 69 ea 2d 37
       2.4604108e-06 4.9409508e-08 8.4269196e-19 1.0366181e-05
000040 63 fa 96 33 00 00 00 00 1e bb 04 33 1a 0b 8a 30
       7.0304644e-08 0.0 3.0903827e-08 1.0043977e-09
000050 73 42 9c 1f 55 e8 0f 34 e2 25 c3 30 00 00 00 00
       6.61785e-20 1.3402435e-07 1.4198884e-09 0.0
000060 31 e5 08 34 60 31 ed 30 15 77 b9 1f ef 06 8e 35
       1.2749366e-07 1.7258053e-09 7.854755e-20 1.0581842e-06
000070 72 98 27 31 00 00 00 00 16 03 b2 32 bb b3 38 30
       2.4388354e-09 0.0 2.072333e-08 6.719422e-10
000080 f0 ea a0 1e 57 05 49 34 b6 42 7e 30 00 00 00 00
       1.7037827e-20 1.8721526e-07 9.2499464e-10 0.0
000090 7a 60 28 36 eb f1 65 33 bd 77 11 21 b5 b0 60 37
       2.5090108e-06 5.353824e-08 4.9286383e-19 1.3392583e-05
0000a0 6d e7 a2 33 00 00 00 00 ba 77 02 35 a5 68 8a 32
       7.585809e-08 0.0 4.8603e-07 1.6112901e-08
0000b0 71 4c 6f 20 17 e6 06 36 6c fb c2 32 00 00 00 00
       2.026938e-19 2.0101486e-06 2.2698906e-08 0.0
0000c0 66 fc 6c 34 5c ff 87 31 a0 29 08 20 c4 f7 00 36
       2.2071035e-07 3.958048e-09 1.153342e-19 1.9217705e-06
0000d0 28 e9 b7 31 00 00 00 00 f1 c7 cf 35 4a 69 c8 32
       5.3525078e-09 0.0 1.5480892e-06 2.3330944e-08
0000e0 35 0b 9e 20 d1 51 f2 36 63 e1 0a 33 00 00 00 00
       2.6773657e-19 7.2216867e-06 3.2335617e-08 0.0
0000f0 c3 49 7f 36 56 7a 97 33 43 ec 41 21 79 6c a3 37
       3.8040896e-06 7.053738e-08 6.5703633e-19 1.9481626e-05
000100 ae 2a d4 33 00 00 00 00 16 44 82 34 4c ad 66 31
       9.879783e-08 0.0 2.4263926e-07 3.3567913e-09
000110 b6 53 85 1f 5d c9 a7 35 b6 9a 9f 31 00 00 00 00
       5.646618e-20 1.2501074e-06 4.6450976e-09 0.0
000120 0d 9f 9d 34 da e0 0b 32 92 2d 1b 1f c7 34 ae 35
       2.9359254e-07 8.14199e-09 3.286022e-20 1.297937e-06
000130 e3 a5 46 32 00 00 00 00 cc db c1 36 62 3d e8 33
       1.1562835e-08 0.0 5.777436e-06 1.0814507e-07
000140 79 c8 93 21 e0 84 e7 37 2a e3 24 34 00 00 00 00
       1.0014172e-18 2.759922e-05 1.5356332e-07 0.0
000150 b1 f0 24 36 b7 bf 97 33 36 8a 0a 21 b7 de 35 37
       2.4578005e-06 7.066358e-08 4.693914e-19 1.08402955e-05
000160 c2 ba d5 33 00 00 00 00 cd 83 bf 34 00 5b f0 31
       9.9525565e-08 0.0 3.567242e-07 6.995265e-09
000170 cb f8 65 1f 87 1d e5 35 52 43 2a 32 00 00 00 00
       4.8698433e-20 1.7070423e-06 9.910609e-09 0.0
000180 3e b0 a4 35 a7 0d 89 32 5d bf a8 20 a3 47 b6 36
       1.2270245e-06 1.5955107e-08 2.858694e-19 5.4323623e-06
000190 93 42 c1 32 00 00 00 00 e2 05 8f 36 20 fe aa 33
       2.2498432e-08 0.0 4.262417e-06 7.962467e-08
0001a0 ee 9e 41 21 53 40 9e 37 ae e2 f2 33 00 00 00 00
       6.5601285e-19 1.8865021e-05 1.1310236e-07 0.0
0001b0 6b c8 8c 33 b7 9b 12 31 d5 24 55 1f 00 af b1 34
       6.555714e-08 2.133431e-09 4.513497e-20 3.3096148e-07
0001c0 6c 6b 4f 31 00 00 00 00 ff fb be 34 1b bd 09 32
       3.0183527e-09 0.0 3.557361e-07 8.017447e-09
0001d0 ed 30 1d 20 50 5b af 35 15 1b 43 32 00 00 00 00
       1.3314605e-19 1.3065091e-06 1.1356652e-08 0.0
0001e0 4c da 90 35 03 17 c5 32 78 d1 f9 1f c5 ec b6 36
       1.0792369e-06 2.2944283e-08 1.0580214e-19 5.4515863e-06
0001f0 ba a5 0b 33 00 00 00 00 58 29 fa 34 4b cd ef 32
       3.2514187e-08 0.0 4.659621e-07 2.7916618e-08
000200 a3 f5 82 20 cd 15 a2 36 d7 29 27 33 00 00 00 00
       2.2185405e-19 4.830514e-06 3.892077e-08 0.0
000210 6c 2c e4 36 ff 5a fc 33 69 c8 ba 21 ca 22 ff 37
       6.800101e-06 1.17512165e-07 1.2656898e-18 3.0414569e-05
000220 ce 86 31 34 00 00 00 00 d0 ae 82 34 0c 40 e9 31
       1.6533451e-07 0.0 2.434158e-07 6.788474e-09
000230 ae 2c eb 1e 86 be a3 35 2e e1 24 32 00 00 00 00
       2.4900072e-20 1.2199896e-06 9.597256e-09 0.0
000240 61 32 78 34 f3 42 03 32 24 ea c7 1f 63 16 8d 35
       2.3115128e-07 7.640426e-09 8.466713e-20 1.0511834e-06
000250 74 da 39 32 00 00 00 00 e6 91 9c 35 9e e0 d5 32
       1.0818088e-08 0.0 1.1665368e-06 2.4898608e-08
000260 f2 83 3d 20 8b f8 c1 36 cf 91 17 33 00 00 00 00
       1.605258e-19 5.7807824e-06 3.529004e-08 0.0
000270 24 1b 55 35 44 fe 95 32 3f 43 07 20 83 28 69 36
       7.938818e-07 1.746151e-08 1.1457195e-19 3.4743287e-06
000280 62 61 d5 32 00 00 00 00 62 f0 6e 35 24 d5 8e 32
       2.4840748e-08 0.0 8.901171e-07 1.66279e-08
000290 50 0d 95 20 05 a4 b7 36 fd c4 c3 32 00 00 00 00
       2.5250391e-19 5.4729194e-06 2.2790568e-08 0.0
0002a0 db ce 35 35 d6 25 63 32 95 52 15 21 eb a0 39 36
       6.772877e-07 1.3221742e-08 5.059246e-19 2.7660815e-06
0002b0 99 db a0 32 00 00 00 00 37 be ba 34 36 7c c5 31
       1.8726313e-08 0.0 3.47836e-07 5.7475757e-09
0002c0 6a a9 b1 1f 89 27 cf 35 1a b6 0c 32 00 00 00 00
       7.524269e-20 1.5434208e-06 8.190478e-09 0.0
0002d0 d3 c1 a0 35 dc 3a df 32 52 6b 4b 21 68 7e d7 36
       1.1977339e-06 2.5987383e-08 6.892111e-19 6.422215e-06
0002e0 0b 36 1d 33 00 00 00 00 93 75 8f 36 af e3 db 33
       3.6603563e-08 0.0 4.2754195e-06 1.02393976e-07
0002f0 2f d6 a2 21 40 d5 c9 37 11 ef 19 34 00 00 00 00
       1.1034241e-18 2.406037e-05 1.4336207e-07 0.0
000300 13 65 81 34 0c 75 cc 31 cc 46 12 1f e5 40 6f 35
       2.4101664e-07 5.950488e-09 3.0975264e-20 8.912887e-07
000310 1c de 10 32 00 00 00 00 3f f3 c1 36 e8 ff 0c 34
       8.432405e-09 0.0 5.780166e-06 1.3131614e-07
000320 20 6e 97 21 83 7d fa 37 19 47 46 34 00 00 00 00
       1.0261308e-18 2.9860768e-05 1.8466052e-07 0.0
000330 4d ce 33 37 34 d6 55 34 56 d5 0a 22 d6 6e 51 38
       1.0717265e-05 1.9915097e-07 1.8815427e-18 4.9932707e-05
000340 9b 6d 96 34 00 00 00 00 83 84 9a 35 a5 c3 55 32
       2.8019426e-07 0.0 1.151246e-06 1.2442716e-08
000350 e8 a1 2d 20 69 16 bf 36 ac 6f 95 32 00 00 00 00
       1.470724e-19 5.6948525e-06 1.7396665e-08 0.0
000360 03 4e 18 36 59 ac 68 33 52 79 dc 20 9d 1d 57 37
       2.2695174e-06 5.417346e-08 3.7349733e-19 1.28218935e-05
000370 f2 3e a2 33 00 00 00 00 2a c4 17 34 c1 e2 89 31
       7.5551625e-08 0.0 1.4134335e-07 4.0130037e-09
000380 ce d0 16 1f b3 0d 0d 35 2c ee c1 31 00 00 00 00
       3.1936455e-20 5.254653e-07 5.6441163e-09 0.0
000390 02 82 71 36 02 eb 81 33 35 db 43 21 8c f4 91 37
       3.5987473e-06 6.049778e-08 6.635869e-19 1.7399223e-05
0003a0 68 53 b7 33 00 00 00 00 0f a7 f0 35 42 7c d7 32
       8.536773e-08 0.0 1.7930014e-06 2.50858e-08
0003b0 b5 d0 b0 20 bc a8 2d 37 18 b1 18 33 00 00 00 00
       2.995367e-19 1.035089e-05 3.5551324e-08 0.0
0003c0 a9 09 a7 35 07 13 52 32 e5 08 29 21 a0 a0 af 36
       1.2445281e-06 1.2227935e-08 5.72712e-19 5.2341056e-06
0003d0 28 5e 94 32 00 00 00 00 e7 27 04 34 41 c3 33 31
       1.7272285e-08 0.0 1.2307974e-07 2.6158917e-09
0003e0 44 2a 97 20 fa 63 08 35 fe 13 7c 31 00 00 00 00
       2.5608364e-19 5.0809433e-07 3.668219e-09 0.0
0003f0 84 92 f1 34 9d cf b4 32 06 cb d8 20 ef a1 9d 36
       4.4996352e-07 2.104917e-08 3.6726173e-19 4.697816e-06

exp_avg f4 [128]
000000 61 25 40 b9 3d 2f 19 ba 9b 4d c4 b9 44 43 01 38
       -0.00018324472 -0.0005843526 -0.00037441854 3.0818643e-05
000010 d6 e4 a2 38 61 54 14 38 09 da e6 b9 41 57 41 b9
       7.767386e-05 3.5364534e-05 -0.00044031467 -0.00018438419
000020 e2 3c b0 b7 25 38 b4 b8 9b c2 b6 b8 39 33 c9 36
       -2.1009186e-05 -8.5935266e-05 -8.7146844e-05 5.99623e-06
000030 26 62 43 b9 3d a7 25 ba 05 6c 89 b9 c2 97 42 b9
       -0.00018633212 -0.0006319171 -0.00026211157 -0.00018557816
000040 1c 51 e3 36 7d bb 14 ba b4 11 a1 b8 d6 ea 1e 39
       6.7745696e-06 -0.000567369 -7.680376e-05 0.00015155537
000050 80 f8 9b b9 c5 35 1d 39 0c d3 ed b8 b8 ed 3a b9
       -0.0002974905 0.00014992717 -0.00011340351 -0.000178269
000060 ef 30 40 b9 b6 4d a7 b9 2d 8f 67 b9 b8 22 5a b8
       -0.00018328776 -0.0003191062 -0.00022083214 -5.2007585e-05
000070 7c c8 82 b8 06 5e c9 b8 74 78 95 b8 8b 92 28 b9
       -6.236226e-05 -9.60194e-05 -7.12731e-05 -0.0001607632
000080 99 85 19 b9 71 3f 2b b9 da 85 2d b9 11 d6 5f 38
       -0.00014640986 -0.00016331465 -0.00016548429 5.3366708e-05
000090 4e 55 e7 b8 60 4f a7 38 6a e7 25 ba 3f 23 77 b9
       -0.000110308276 7.977965e-05 -0.0006328734 -0.00023568886
0000a0 ed 50 b4 b9 67 73 ad 38 26 ae eb b5 8b 0f 11 b9
       -0.0003439257 8.270778e-05 -1.7559548e-06 -0.00013834068
0000b0 da 46 41 b9 9c 23 5f b8 62 7b 3b 39 e6 bc 55 b9
       -0.00018432309 -5.3200507e-05 0.00017879673 -0.00020383633
0000c0 53 3c 27 b9 4d 2e 28 b9 45 52 ac b9 8d f7 19 b9
       -0.00015948834 -0.00016038977 -0.00032867692 -0.00014683437
0000d0 dd c1 d3 b8 72 f1 bd b9 69 b4 d7 b9 ea 52 0b ba
       -0.00010097374 -0.0003622878 -0.00041142412 -0.00053147844
0000e0 dd bb d9 38 89 c9 26 b9 c2 b2 5a b9 9f 77 a0 36
       0.000103823586 -0.00015906071 -0.00020856693 4.7822973e-06
0000f0 47 92 81 b5 00 88 91 b9 ed 08 a6 b9 18 d9 1f b9
       -9.653821e-07 -0.00027757883 -0.00031668638 -0.00015244295
000100 20 15 12 ba 61 be be b8 68 59 0b b9 ec f4 59 b9
       -0.0005572606 -9.095367e-05 -0.0001328938 -0.00020785973
000110 b1 69 09 39 76 8a 05 39 51 10 1f b8 08 0f 13 b9
       0.00013104711 0.00012735449 -3.792375e-05 -0.00014024612
000120 03 2e 12 b9 0d 15 b9 38 93 7b c9 38 6f 65 75 37
       -0.00013940786 8.8254084e-05 9.6074444e-05 1.4626755e-05
000130 74 66 6f b9 bc e8 b0 b9 14 84 45 b9 74 ad 3e b9
       -0.00022830983 -0.00033742737 -0.00018836587 -0.00018184428
000140 b7 0c 9f b9 e0 8c 3b b9 08 28 00 b9 93 d0 d1 b8
       -0.00030336317 -0.0001788619 -0.00012221944 -0.000100047466
000150 83 d9 95 b9 8d b6 9f 36 eb 14 2d b8 68 7a be b8
       -0.00028581553 4.759821e-06 -4.1265896e-05 -9.082706e-05
000160 bb bc 3f b9 82 93 a7 36 de 46 91 b9 81 1a 4b b8
       -0.00018285487 4.99416e-06 -0.00027709355 -4.8423655e-05
000170 bb d2 95 b9 dd f7 ce 38 fa a7 bf b9 24 b3 77 b8
       -0.000285765 9.8690136e-05 -0.0003655551 -5.9056227e-05
000180 66 c6 04 b9 14 02 10 ba 0f 49 22 39 58 a4 68 39
       -0.0001266241 -0.0005493474 0.0001547674 0.00022186467
000190 8c ad d6 38 e7 5d 16 b9 ac bc 59 b9 6d d7 81 b8
       0.00010236641 -0.00014340096 -0.00020765018 -6.1913255e-05
0001a0 11 65 ee b8 07 b0 cf b9 8b 9a df b9 47 4c 94 b9
       -0.000113675495 -0.00039613267 -0.00042649018 -0.0002828559
0001b0 3f 87 ee b7 01 fd 6a b9 85 3a 61 b9 e6 3a 93 39
       -2.843479e-05 -0.0002241023 -0.00021479472 0.00028081908
0001c0 a3 d8 44 b8 43 e7 f1 b9 14 2f d0 b9 24 36 b5 b8
       -4.69318e-05 -0.00046139405 -0.00039707927 -8.640837e-05
0001d0 87 96 c0 b9 cc ea 06 b9 41 cc 3c 39 d9 9f ea b8
       -0.00036733245 -0.00012866704 0.00018005168 -0.000111877634
0001e0 74 d8 9c b9 18 c5 f9 b8 4b 50 94 b9 d1 43 12 b8
       -0.0002991591 -0.00011909957 -0.00028288583 -3.487227e-05
0001f0 2b ad fc b8 0b f1 25 b9 1b 1f 76 b9 a8 c1 cc b8
       -0.000120485514 -0.00015825422 -0.00023471976 -9.763549e-05

exp_avg_sq f4 [128]
000000 bb e0 69 36 a1 46 cd 35 0e b1 51 35 ff 84 87 32
       3.4850516e-06 1.5294246e-06 7.8116216e-07 1.5776548e-08
000010 69 c5 e8 32 d7 91 30 32 6a 41 62 35 8b 67 87 34
       2.7098126e-08 1.02777085e-08 8.428675e-07 2.5221047e-07
000020 7e 6e 7f 33 ab e3 c0 34 8a 56 93 35 37 ac 5d 33
       5.9472306e-08 3.5928437e-07 1.097754e-06 5.16122e-08
000030 2b f3 09 34 9b 02 e5 35 4b 6c 94 35 ea 79 ec 33
       1.2847583e-07 1.7062588e-06 1.1058377e-06 1.10117824e-07
000040 53 35 86 34 92 ab a8 35 96 0a 10 33 88 7d 07 34
       2.4998243e-07 1.2566909e-06 3.353724e-08 1.2618523e-07
000050 71 f4 c1 34 dc 2b e8 34 8b 90 f6 35 e0 ff e4 33
       3.6126906e-07 4.324528e-07 1.8370496e-06 1.0663621e-07
000060 97 10 01 34 61 83 d2 34 50 2e 94 34 73 f3 87 34
       1.2020097e-07 3.921114e-07 2.7600845e-07 2.5322842e-07
000070 e6 69 5f 34 bf 6e c3 33 3f 59 da 34 01 cc d5 35
       2.0807019e-07 9.10054e-08 4.06706e-07 1.592911e-06
000080 74 34 c9 33 64 b1 09 36 85 ed 50 36 d8 8c 4f 34
       9.369333e-08 2.0517846e-06 3.113267e-06 1.9329616e-07
000090 54 57 61 35 80 ac 86 33 63 9e 7e 35 64 12 d4 34
       8.394611e-07 6.271239e-08 9.4852857e-07 3.9501458e-07
0000a0 fd 10 4e 34 d2 0d 2f 33 31 9b b0 34 3a 5d 84 33
       1.9191425e-07 4.0757932e-08 3.289547e-07 6.163687e-08
0000b0 88 3f 54 34 0f de 3a 33 f3 a5 18 34 da 46 a3 34
       1.9767151e-07 4.350846e-08 1.4216475e-07 3.0412667e-07
0000c0 ed 97 da 33 f7 00 95 34 22 ea be 34 82 44 1a 36
       1.0179051e-07 2.7754115e-07 3.5560612e-07 2.2987665e-06
0000d0 42 e5 ba 32 ab cc cd 34 3d d4 81 35 a0 fd 9e 35
       2.1757504e-08 3.833314e-07 9.673018e-07 1.1845732e-06
0000e0 de 1e ac 33 a5 a7 45 36 a8 b4 09 34 31 3b 03 35
       8.014989e-08 2.945287e-06 1.2824842e-07 4.888744e-07
0000f0 80 ed 06 34 db 4d b7 34 2c a2 b1 34 f2 5a 04 34
       1.2566124e-07 3.4143054e-07 3.3086815e-07 1.2326544e-07
000100 fb bf ac 35 a4 da 26 35 6c df 95 35 4e b0 60 34
       1.2870872e-06 6.2157983e-07 1.1166389e-06 2.0925765e-07
000110 f8 33 47 34 10 58 6e 33 37 e0 1d 33 59 e2 e9 33
       1.8552225e-07 5.5493786e-08 3.6758333e-08 1.08910804e-07
000120 ce f2 4f 35 d0 eb 3c 33 d8 fe a6 33 68 ab 9f 34
       7.7466837e-07 4.398663e-08 7.776333e-08 2.9740772e-07
000130 94 11 e6 34 94 e0 12 35 7a b3 42 36 3a 04 1f 34
       4.2853628e-07 5.471604e-07 2.9012722e-06 1.4809567e-07
000140 ef b4 af 34 85 65 98 33 4a 17 20 33 37 2e 47 35
       3.2727937e-07 7.096518e-08 3.7274084e-08 7.420053e-07
000150 99 2c 9b 34 a1 d2 f5 31 fc d6 34 34 55 a8 98 33
       2.890345e-07 7.154384e-09 1.6842017e-07 7.108671e-08
000160 f3 ef 6a 36 14 30 17 34 be b2 e4 34 6c 98 03 33
       3.5008386e-06 1.4080462e-07 4.2598361e-07 3.063944e-08
000170 84 d6 97 34 c7 c0 b7 33 9c 25 4f 35 24 c2 14 35
       2.8282022e-07 8.5566676e-08 7.716824e-07 5.541681e-07
000180 76 fa 3a 35 2c c2 bf 35 a0 a6 ea 34 6d a9 d4 34
       6.965487e-07 1.428712e-06 4.3707132e-07 3.961135e-07
000190 b9 eb b9 33 95 d8 18 36 74 ae 35 34 10 b9 06 35
       8.6576115e-08 2.2775832e-06 1.6920404e-07 5.018819e-07
0001a0 06 0e 44 33 07 ec 14 35 05 7f 03 35 49 a4 c3 34
       4.564756e-08 5.547776e-07 4.898614e-07 3.6441114e-07
0001b0 b4 1d af 34 51 6a 28 34 a5 0f 5d 34 c2 73 37 35
       3.2617902e-07 1.5684897e-07 2.058792e-07 6.834126e-07
0001c0 51 4b 01 34 0b 90 84 35 1e f9 47 35 79 46 19 35
       1.2041461e-07 9.876688e-07 7.449579e-07 5.709949e-07
0001d0 0e 2f b8 34 71 6f 43 33 08 ce 35 34 12 30 90 35
       3.4306908e-07 4.550333e-08 1.6931892e-07 1.0742826e-06
0001e0 f6 2b d1 34 77 6a 75 35 cd a8 27 34 fc 8a 94 35
       3.896127e-07 9.142454e-07 1.5614496e-07 1.1067309e-06
0001f0 1e 0e 80 35 69 ae 52 36 cc 4b 74 34 cc 90 f2 34
       9.540852e-07 3.1393959e-06 2.2751846e-07 4.5181366e-07
