mlagents-env/results/=PelletGrabberRun12/Agent Controller/checkpoint.pt (torch, 445237 bytes, 33 tensors)

network_body._body_endoder.seq_layers.0.weight f4 [128, 6]
000000 51 fa ff 3e 5c 5e 53 3e cf c2 af be 05 7e c5 bc
       0.49995664 0.20641464 -0.34328315 -0.024107942
000010 1d 33 9a 3e 47 45 5a 3f 38 f1 b3 be 01 20 d1 3e
       0.3011712 0.8526196 -0.35144973 0.4084473
000020 17 f6 32 3e 8e d8 ab be 14 5e c4 be f3 d9 ef be
       0.17476688 -0.33563656 -0.38353026 -0.4684597
000030 76 32 8c 3e e1 10 53 bf 01 4b d9 bc 90 7b 31 3e
       0.2738225 -0.8244763 -0.026525022 0.17332292
000040 22 8f b7 3e 05 6d c5 bd da e7 36 3f c7 d9 cc be
       0.3585139 -0.096399345 0.7144753 -0.400099
000050 b3 fd 25 3f ce a6 f4 3e ae 97 3f bf 59 c0 9d bc
       0.6484024 0.47783512 -0.7484082 -0.019256758
000060 60 c6 72 bd ab 7f 9d be 00 db 3c 3b 5b d2 ce bd
       -0.059271216 -0.30761465 0.0028817058 -0.10098716
000070 7d 05 19 3e 4a 84 ad 3e fb 9f bd be 8f b3 f1 3c
       0.149435 0.3388999 -0.37036118 0.029504566
000080 02 d1 30 3e dd 67 45 3e 38 09 85 3b df a4 1b bf
       0.1726723 0.19277902 0.004059937 -0.6079845
000090 ef ad 61 bf 19 66 a3 be 00 70 b3 3e 7d bb d1 3d
       -0.88156027 -0.31913832 0.35046387 0.10240839
0000a0 33 9b 2f 3d 65 4d c1 be ed 19 50 be ac 54 e6 3e
       0.04287262 -0.3775436 -0.2032239 0.44986475
0000b0 c7 a0 34 be 0c c3 27 3f 01 4d 9f be d3 40 5d 3d
       -0.17639457 0.6553199 -0.31113437 0.0540169
0000c0 20 06 12 3f 7c f2 f4 be 94 f5 62 3f d4 5d 13 bb
       0.57040596 -0.4784125 0.8865597 -0.0022486346
0000d0 cd 0d 82 3e 5f bc 8b be 50 3c 27 be 6d bc 55 be
       0.25401154 -0.27292153 -0.16331601 -0.2087266
0000e0 db 7e a3 3e 00 b7 d7 3e 9e 1b 26 3e 98 45 ba bd
       0.3193272 0.42131805 0.16221473 -0.09095305
0000f0 db a9 c0 be 02 15 2a be ef fa 59 be 8a 68 3d be
       -0.3762959 -0.16609576 -0.2128713 -0.1849691
000100 02 26 17 3e f5 5c 0c 3f 27 3f 00 bc 4c c1 86 be
       0.14760593 0.5482934 -0.007827557 -0.2631935
000110 ae 6e c7 3d 45 09 19 3e 64 ff 8f 3e 8d 55 b0 3e
       0.09737907 0.14944942 0.28124535 0.3444027
000120 d9 56 61 3e cd 34 5f bd 33 d3 e9 be 21 cc b5 3e
       0.22005786 -0.054493714 -0.45668945 0.355073
000130 7e 44 65 3e 74 04 05 bf cb c6 97 be a5 51 20 bd
       0.22389409 -0.5195992 -0.29643854 -0.039140362
000140 d0 48 c7 3e 83 04 81 be f1 c9 1c bf 76 91 73 3e
       0.3892274 -0.25198755 -0.6124564 0.23785958
000150 f2 4d 4d be 21 52 ff 3e e2 e3 e6 3d 7d 3a d8 3e
       -0.20049265 0.49867347 0.11273934 0.42232123
000160 7c 50 3d 3d 32 47 2e 3f 52 a0 19 be 08 64 73 3e
       0.046219334 0.68077385 -0.15002564 0.23768628
000170 f4 44 2e be d0 5b 8b be 5c b9 9a 3d cf a7 16 be
       -0.17018491 -0.27218485 0.07554886 -0.14712451
000180 88 da 15 3f 4b ae a9 3e d3 63 98 3e 0d 20 c7 be
       0.5853658 0.33140787 0.2976366 -0.3889164
000190 f5 02 44 3d 3d cb 61 be 67 43 4a 3f 0d f9 af 3e
       0.047854383 -0.22050186 0.790091 0.34369698
0001a0 f3 55 af 3d 6d 6b db bd 7e 2d a7 bf cf b2 9e be
       0.085613154 -0.10713849 -1.3060758 -0.30995795
0001b0 ad 6c 91 3e 62 18 38 3e 0d 0b 3d bf 01 9a 69 3d
       0.28403226 0.17978051 -0.7384499 0.057031635
0001c0 03 62 1d bf 07 b5 97 bd 92 4f f4 bc 0e 64 3a be
       -0.6147768 -0.07407575 -0.029823098 -0.1820223
0001d0 d9 2b 5b 3e 73 5d d6 bb ed 26 23 3e 53 10 88 be
       0.21403445 -0.0065419017 0.15932818 -0.26574954
0001e0 b5 a2 a3 3e bc dc 6a 3e 6b d8 e0 3d 58 01 a4 be
       0.31960073 0.22935766 0.109787785 -0.32032275
0001f0 70 fc 21 be 90 fb 67 bf 60 6c da be 79 ff 45 3e
       -0.15818954 -0.9061823 -0.4266081 0.19335736
000200 02 a6 c7 3e 30 02 9a 3e 14 04 ba 3e 3a b4 63 3f
       0.3899384 0.30079794 0.36331236 0.8894688
000210 13 78 8a be fa 12 f4 3d fa 86 33 bf 3c ea c1 3d
       -0.27044734 0.11917682 -0.7012783 0.09468505
000220 45 1f ee bb 32 eb e9 3d 37 bd 9e 3e f2 a1 c1 be
       -0.007266911 0.11421813 0.31003734 -0.37818867
000230 28 25 a5 bd 74 1b a2 3e 73 9e 35 3f d2 81 0a bf
       -0.080637276 0.3166157 0.709449 -0.5410434
000240 b2 c1 c3 3d 19 c3 81 be 92 6b a7 bc 16 13 cb 3e
       0.09558429 -0.2534416 -0.020437036 0.39663
000250 be 9d 0a bf 47 9e a3 be fb 87 6d be 36 ab f2 3d
       -0.54146945 -0.31956694 -0.23196404 0.11849062
000260 45 11 98 3e 1d 6b 1e bf c4 07 9c 3c 55 51 cf 3b
       0.29700676 -0.6188219 0.019046672 0.006326834
000270 60 85 b4 3d 03 90 10 be 88 6f c3 be 50 27 01 3f
       0.08814502 -0.14117436 -0.3817103 0.5045061
000280 a3 55 9a bd 21 2d 87 bd 49 ca 5c 3e 6f 10 d2 3e
       -0.07535865 -0.066004045 0.2156154 0.41028163
000290 da 45 a7 be 36 bf 95 be af 68 ce be 17 3a 95 be
       -0.3267048 -0.29247445 -0.40314242 -0.29145882
0002a0 54 db 07 bf 88 f3 8d be 0a f4 f0 3e af fe 44 bf
       -0.53069043 -0.27724862 0.47061187 -0.76951116
0002b0 c4 55 f8 3d 75 4e 02 bf 33 75 9b 3d a8 dc b0 be
       0.121257335 -0.50900966 0.07590713 -0.34543347
0002c0 2d 61 7c 3e a3 f2 d2 3e a4 23 60 3e 50 f8 2c 3f
       0.24646445 0.41200742 0.21888596 0.67566395
0002d0 82 26 89 be a5 a1 22 bf 12 2e d9 be f4 c4 8a 3d
       -0.26787192 -0.635279 -0.4241796 0.06775847
0002e0 c3 4a 0d be dc 9c 3d bd 59 1a ac 3e 1a 2e b5 bd
       -0.1379805 -0.04629217 0.33613852 -0.08846684
0002f0 9d f0 b3 3d 61 1e cd be a8 38 8a 3e 69 9a 96 be
       0.08786128 -0.4006224 0.2699635 -0.2941468
000300 15 4d 82 bf af 50 99 3d 2b 7f 86 3e 99 a9 5d bd
       -1.0179774 0.07486092 0.26268896 -0.05411682
000310 0f c3 f5 be f1 f3 08 3e e5 4e 59 be 5a a3 10 3e
       -0.4800038 0.13374306 -0.21221502 0.14124814
000320 fb 90 0a 3f f7 06 44 be 79 32 48 3e f7 e4 19 be
       0.5412747 -0.19143282 0.19550504 -0.1502875
000330 18 ed 7d be 31 f2 c0 bc 4d 00 29 3f 74 b7 46 be
       -0.24797475 -0.023552986 0.66016084 -0.1940592
000340 9f 89 b9 be 8e d6 d1 bd c1 aa 01 3f 7c ef 16 3f
       -0.3623781 -0.10246001 0.50651175 0.58959174
000350 53 e7 26 3e 5d 72 cf 3e f7 42 fc bc 66 5f 95 3e
       0.1629918 0.4051694 -0.03079365 0.29174346
000360 e8 e5 0f bf 5b 4e 20 3f 90 89 99 3e 20 10 4e 3e
       -0.56210184 0.6261956 0.29987764 0.20123339
000370 bf 6b e6 3e ed 92 32 be 4b 05 63 3e f8 b6 bc be
       0.4500408 -0.1743886 0.22169988 -0.36858344
000380 90 ee 19 be 34 50 fe 3c 20 29 09 be 60 02 0c bf
       -0.1503241 0.031044103 -0.13394594 -0.54691124
000390 ec f0 93 be ab 17 ac bd 00 b6 3d 3e c2 79 3c bf
       -0.28894746 -0.08402952 0.18526459 -0.7362329
0003a0 0c b9 29 be 4b 9f 9d be e3 9c 09 3d d3 4b 01 be
       -0.16574496 -0.30785593 0.033596884 -0.12626581
0003b0 fb 80 b3 3e b5 a7 f2 bd b5 8f 92 be c9 97 34 bf
       0.35059342 -0.11848394 -0.28625265 -0.70544106
0003c0 72 fc d9 3d e6 5c e0 3e 58 00 26 be c2 46 cd 3c
       0.10643853 0.43820876 -0.16211069 0.025058154
0003d0 8f 46 42 3f 97 4a f1 bc 75 a7 a3 3c 45 35 27 bf
       0.75888914 -0.029454513 0.01997731 -0.6531566
0003e0 ee 85 ca be 22 ac 56 be f4 55 95 be a5 9c 12 bf
       -0.39555305 -0.20964101 -0.2916714 -0.5727027
0003f0 bd 0e bd 3e 1f 68 ac 3e 61 f0 50 bd 5e bf 10 3f
       0.36925307 0.33673188 -0.051010493 0.56542003

network_body._body_endoder.seq_layers.0.bias f4 [128]
000000 c7 37 ed 3b 33 20 aa 3c c0 57 cb 3c 1c e0 27 3d
       0.007239315 0.020767307 0.024822116 0.04098521
000010 10 53 a4 3c 6a 92 f3 3b 1e 74 f9 bb f1 d6 79 bc
       0.020059139 0.0074332254 -0.007612719 -0.015249
000020 f7 29 ae 3c d9 f8 7f 3c 8b 3a da 3c 2c db 02 bc
       0.021260245 0.015623295 0.026639244 -0.007986825
000030 31 46 49 bc f0 37 f5 3c 5b 4e 8b 3c 0c e6 b6 3c
       -0.012284801 0.0299339 0.017005136 0.022326492
000040 e2 46 e3 bb de f8 68 ba 0f 5f 16 bc fe 46 15 3c
       -0.00693594 -0.0008887182 -0.009177937 0.009111164
000050 a0 e5 b3 3b bc 0d 9d bc 9d 94 9e 3b 47 e8 8d 3c
       0.00549002 -0.019171588 0.0048394934 0.017322673
000060 b2 d6 81 3c aa 9d 60 3c bd 6f 3f 3c cf c6 5f 3c
       0.015849445 0.013709465 0.011684355 0.0136582395
000070 48 b9 01 ba 82 b4 53 3c ff a1 39 bd 03 b5 cb bb
       -0.00049485685 0.012921454 -0.045320507 -0.0062166466
000080 2f be 87 bd 83 11 44 3c de 9b 98 3c 1c a4 89 3c
       -0.066280715 0.011967066 0.01862901 0.016801886
000090 65 25 d5 bc e8 18 df ba 81 ff 82 b9 e9 1c 6d 3c
       -0.026018808 -0.0017020972 -0.00024985897 0.014472225
0000a0 63 e9 05 3a ab 4a 1f b9 37 77 02 bc bf 46 7a 3c
       0.00051083247 -0.00015191238 -0.007962993 0.015275656
0000b0 fb 47 e7 3c 8f db 8c bd 66 4e ec 3b 84 74 ec 3b
       0.028232565 -0.06877815 0.0072114943 0.007216038
0000c0 76 61 6f bd 31 0c 1e 3d c0 d6 3d 3c 7e 6f 89 3c
       -0.058442555 0.038585845 0.011586845 0.016776796
0000d0 10 6f 4d 3d 5b 24 17 3c eb 35 09 3c 35 92 a4 bc
       0.050154746 0.009224976 0.008374671 -0.020089248
0000e0 4c 5b 15 3c ad ba 99 3c 45 47 20 3d 5b 53 75 3c
       0.009116005 0.018765772 0.039130468 0.014973487
0000f0 90 77 d3 3b 97 6e bc 3c c4 7c 14 3c 43 49 9d 3b
       0.006453462 0.023001952 0.00906295 0.0047999932
000100 6e ba 98 3c e8 a5 93 3c 8c c2 86 3c 24 93 ab 3c
       0.018643584 0.018023446 0.016450189 0.020944186
000110 ab d0 0c bc 6e e2 f2 3c 4e 54 6f 3c 3a 1b 26 bc
       -0.008594672 0.029648986 0.014607502 -0.010138327
000120 9c 17 76 3c b6 08 51 3c 4c 18 9b bc 8f 9b 17 bb
       0.015020277 0.0127584245 -0.018932484 -0.0023133492
000130 a8 d8 bc bc f1 f4 1b 3d 1d a9 02 3c 98 7c 8a 3c
       -0.023052529 0.03807539 0.00797489 0.016905114
000140 76 0d eb bb 7e 68 e3 3a 92 f4 84 3c e6 1a a6 bc
       -0.0071732355 0.0017349867 0.016229901 -0.020276498
000150 a5 63 c6 bc ba cd f1 3b bf 72 ab 3b 80 7e 01 3d
       -0.024217436 0.007379261 0.0052321847 0.03161478
000160 9a 38 a8 ba 98 be 4d 3c e8 72 2b 3d 3d 30 80 bb
       -0.0012834251 0.012557648 0.04185763 -0.0039120005
000170 4f b7 f6 3b f4 1b 99 3c c3 a5 22 bc 8b af ad ba
       0.0075291763 0.018690087 -0.009927216 -0.0013251168
000180 a8 70 c7 bc 90 7c 45 3c 9c 63 9f 3b 2e ee 2a 3c
       -0.02434571 0.012053624 0.0048641693 0.010432763
000190 ce 21 dc bc 10 b0 54 3d 4d 6f 00 3c 85 3f e7 3b
       -0.026871588 0.05192572 0.007839036 0.0070571327
0001a0 2a ec cf 3b 78 77 8e 3b b5 1f f4 3c c1 c0 42 3d
       0.0063452916 0.004347738 0.029800275 0.047547106
0001b0 a2 cf db 3b f0 34 e9 3c 74 c5 bc 3a 44 74 09 bd
       0.0067081014 0.028467625 0.0014402107 -0.033558145
0001c0 b9 91 ed bc 49 a3 6e bc f1 23 60 3c 05 9b c3 3b
       -0.02900015 -0.014565297 0.013680444 0.0059694075
0001d0 c3 1e 53 bc 99 25 5d 3c d4 db 99 3d 19 b0 dd 3b
       -0.012885752 0.0134977335 0.07512632 0.0067653772
0001e0 26 9d 18 3c a4 02 f4 3b 5b 9f 1e 3b 5b 39 dd bb
       0.009314811 0.007446604 0.002420387 -0.006751222
0001f0 ea df 15 bc 55 d5 bc bc c1 04 54 3c 44 10 36 3c
       -0.009147624 -0.023050943 0.012940587 0.011112276

network_body._body_endoder.seq_layers.2.weight f4 [128, 128]
000000 15 d7 42 bd 30 71 18 3e 7c e2 3b be 95 4a ea bc
       -0.0475684 0.14886928 -0.18348116 -0.028600017
000010 87 d0 83 3b 69 0c 19 bd 63 50 e5 3d 21 44 01 be
       0.004022661 -0.03736535 0.11196973 -0.12623645
000020 5f bc 95 3c ab 38 bd 3d 51 77 cc 3d 6c 69 9a 3c
       0.018278299 0.09239324 0.09983695 0.018849097
000030 17 a4 4e 3c 29 21 a0 3d 77 ce 1c be fb 86 5f bc
       0.012612364 0.07818825 -0.15313135 -0.013643022
000040 6f 2f 8a 3d 27 bf 0c be fe ba 5a 3d b8 63 8d bc
       0.067473285 -0.13744794 0.053400986 -0.017259464
000050 14 4b 29 3d d1 59 1b 3d 14 43 9f 3d bf 2f f5 3c
       0.041331366 0.037927452 0.07776466 0.029929994
000060 ee b7 f9 bc 95 42 84 bd 04 64 16 bd f1 68 ae 3b
       -0.030483212 -0.06458012 -0.036716476 0.0053225686
000070 29 a1 42 3d ba f0 80 3d 53 46 45 3e e4 f9 1b be
       0.047516976 0.06295915 0.19265108 -0.15232044
000080 f6 17 e2 3d 54 e5 ee bd 44 2f 4e bd 58 fc 25 3d
       0.110397264 -0.116648346 -0.050338045 0.040523857
000090 fb 6a ce bd b1 38 e2 3a e7 f5 f1 3d 1e bc 88 bd
       -0.10078999 0.0017259327 0.1181448 -0.066765055
0000a0 fa 44 a9 3c b7 10 4d bd 41 23 f1 bc 21 c8 71 bd
       0.020662773 -0.05006477 -0.029435756 -0.05902875
0000b0 01 2f 83 bd 16 b3 56 3d 5e 11 53 bd f1 d7 fa bc
       -0.0640545 0.052416883 -0.051530235 -0.030620547
0000c0 75 e9 43 3d 5a 54 9d 3d 82 3b 0a 3e b6 47 2a 3d
       0.047830064 0.076821044 0.13499263 0.041572295
0000d0 a1 78 9e bc 96 c0 6e 3e 3e db 6c bd 02 be f8 3c
       -0.01934463 0.23315653 -0.057826273 0.03036404
0000e0 a1 6c 01 bd 5d 85 1c bc f8 e7 a4 bc 7b 3e 14 be
       -0.031597737 -0.009553281 -0.020130143 -0.1447696
0000f0 f5 f9 00 3e 86 09 0a 3d 4c ed b6 bd ae cd 83 3d
       0.12595351 0.03370049 -0.089319795 0.06435715
000100 90 8a 68 3d 27 58 84 3c b2 e6 4d bd bb 03 8d 3d
       0.05677277 0.016155316 -0.050268836 0.06885477
000110 41 fe d3 3d 81 e6 a3 bd 58 1e 4d bc 8a 74 25 bd
       0.103512295 -0.080029495 -0.012519442 -0.040394343
000120 7c 86 4b bb 21 82 d9 3c cc c4 e8 3d 8a c0 1f 3e
       -0.00310555 0.026551308 0.11365661 0.15600792
000130 7f 3b 36 3d b4 e5 bd 3d 15 61 b6 3c 82 80 02 3e
       0.044490334 0.09272328 0.02226309 0.12744334
000140 24 6d 5d 3d 4a df 9e 3d 3d 90 e9 bd d1 3f ad bb
       0.054059163 0.07757433 -0.114044644 -0.0052871485
000150 bd a2 1c 3d 2b a7 97 3c dc ff a5 3d ae 08 05 bd
       0.038241137 0.01851233 0.08105442 -0.03247898
000160 8d 8f b0 bd fb 58 2f 3d e1 35 fb 3d b2 d7 8b bc
       -0.0862113 0.042809468 0.12266136 -0.017070625
000170 a8 31 04 bc eb 6e 54 bc ac 6e ab 3c 2b 4b 57 bd
       -0.00806848 -0.012965898 0.020926796 -0.05256192
000180 e3 3f 61 be cd d2 56 bd 3e 50 aa 3c 49 09 80 3c
       -0.21997027 -0.05244713 0.020790216 0.015629428
000190 24 2a 88 bc 4a cd 09 3d 2b 81 dd 3d ff ba c1 3c
       -0.016621657 0.033643045 0.108156525 0.023648737
0001a0 d3 1e d8 3c 53 e6 80 bc 5f be d6 3c 4a b4 25 3e
       0.026381886 -0.015734827 0.026213823 0.16182056
0001b0 78 1e d7 3d 60 71 af 3c bc 24 27 3d fc 1f 53 3d
       0.10503858 0.021416366 0.040806517 0.051544175
0001c0 d2 58 0b be c6 07 b1 bc 70 c2 58 3e 95 11 f2 3d
       -0.13608101 -0.021610152 0.21167922 0.1181976
0001d0 ce a5 d2 bd 0a d5 8a 3c 72 51 b5 3d 80 6c e2 3d
       -0.10285531 0.016947288 0.08853425 0.11055851
0001e0 e2 bc 96 bc 59 11 ea bd 58 dc b5 bb 7d 78 7b 3c
       -0.018400613 -0.1142909 -0.0055499487 0.015348551
0001f0 78 02 e3 bc cf 0c 98 3d bb 1c 3e 3d 46 99 fc bd
       -0.027711138 0.07424318 0.04641412 -0.12333922
000200 fc 77 90 bd 7a 32 c0 bd 52 12 45 3e fc c8 f4 bc
       -0.07054135 -0.09384628 0.1924527 -0.029880993
000210 a9 17 84 bd 61 75 e3 bd 22 4f 46 3d 26 75 46 3d
       -0.06449825 -0.111063726 0.04841531 0.048451565
000220 c8 40 82 3d 10 6f 0f be f3 01 45 be 7f 24 85 3d
       0.06360012 -0.1400721 -0.19239025 0.06501102
000230 b1 a8 a9 b8 5b bb 52 3d 73 94 d1 bc c8 79 f4 3d
       -8.089969e-05 0.051448207 -0.025583481 0.119372904
000240 36 0c 73 3e a3 e6 6a 3d 56 99 c4 3d 9b 7e a1 3c
       0.23735127 0.05734886 0.09599559 0.01971369
000250 2a f9 1a be 40 7f 15 be b0 4e 32 bd 7b b9 00 be
       -0.15134111 -0.14599323 -0.043532073 -0.12570755
000260 d4 3e 6a 3d b5 5c 99 bd 41 68 48 bb 31 ca f2 bd
       0.057188824 -0.074883856 -0.0030579718 -0.11854971
000270 ad 31 2a bd 8c 23 d1 3d 3f 7c 89 3c ee b2 aa bd
       -0.04155128 0.10211858 0.016782878 -0.083349094
000280 2b 7d 35 bc 80 f9 ce 3d b0 8f 13 bc 03 34 44 bd
       -0.011077206 0.10106182 -0.009006426 -0.047901165
000290 98 e6 3a bd e5 3c 0b bd f1 2e a3 3c 53 f6 de bd
       -0.045630068 -0.03399362 0.019919844 -0.10886826
0002a0 ba 27 67 3d 7b 06 97 3d e7 f6 e3 bc fe d5 79 be
       0.05643437 0.07374283 -0.027827693 -0.24398038
0002b0 1e e6 90 bd b4 8e 97 3c 78 9b 2f bd d2 c1 5f 3b
       -0.07075141 0.018500663 -0.042872876 0.0034142626
0002c0 98 3b 0d 3c 3a 0f 9a bc 1f bf 34 bd 00 a6 29 3e
       0.008620165 -0.018806089 -0.04412758 0.1656723
0002d0 4d 1a 8f 3c 84 96 05 be a1 9e 03 bd 45 e6 1d bd
       0.017468596 -0.13045698 -0.032133702 -0.03854968
0002e0 6c 45 70 bd bf 06 d9 3d 44 6a a6 3d 74 2e 17 3d
       -0.058659956 0.1059699 0.08125737 0.036909536
0002f0 1f 3e ec ba e3 82 73 bd b2 5b a3 3d bc 41 1b 3d
       -0.0018023885 -0.059450995 0.07976474 0.037904486
000300 46 39 3c bd 8f 35 5f 3d 6b f2 62 3d 29 41 1f be
       -0.045953058 0.054494437 0.05540697 -0.155522
000310 4e 6c 06 3d 44 7f 67 3e d7 f8 88 bd e6 5d 0f bd
       0.03281813 0.22607142 -0.066880874 -0.035001658
000320 b4 93 95 bc d7 21 dd 3c 52 e5 10 3e 7a 12 11 3e
       -0.018258907 0.026993675 0.14149979 0.14167204
000330 18 95 90 3d c4 fc a4 3d 94 53 e1 3d ce 88 82 3d
       0.070596874 0.08056024 0.110022694 0.0637375
000340 8a 14 18 bb 9d 61 a2 3d 38 e3 92 3d 86 05 0b 3c
       -0.0023205602 0.079287745 0.07172245 0.008485204
000350 e9 7d bd 3c 5b 54 27 3d 59 a6 92 bd f5 1a 0e be
       0.023131328 0.040851932 -0.071606345 -0.13877471
000360 87 64 e0 bd d8 8c bd 3c 66 98 f9 3d d1 a6 86 bd
       -0.10956674 0.023138449 0.12187271 -0.065747865
000370 58 2c a7 bd 6f 5b bb bc a4 a2 61 bc e9 19 a4 bd
       -0.08162755 -0.022870747 -0.013771687 -0.080127545
000380 e7 48 b9 ba 01 18 fb 3c b2 a9 72 3d f2 12 ab bc
       -0.0014136106 0.030651094 0.059243865 -0.020883057
000390 da f2 85 3c da a5 b5 3d f2 53 f4 3d af d4 b8 bc
       0.016351152 0.08869524 0.11930074 -0.022562353
0003a0 35 fd 94 3d 43 67 0a 3e a3 f6 4a 3d e6 46 4a bd
       0.07274858 0.13515954 0.049551617 -0.04938402
0003b0 30 2b de bd 67 0b fd bc 5f d2 72 bd 72 8c 83 3d
       -0.10848081 -0.030889226 -0.059282657 0.06423272
0003c0 60 59 c6 bd ca c2 1f be e8 a7 f1 bd 6e 21 f7 3c
       -0.09685016 -0.1560165 -0.11799604 0.030167308
0003d0 c6 72 02 be 7b e9 b7 3c 5f 97 ea bc 71 ce 0e 3e
       -0.12739095 0.0224502 -0.028636632 0.13945939
0003e0 0c 59 c1 3d 77 bf 9e 3c 65 c2 cf bd 46 99 f8 bc
       0.094408125 0.019378407 -0.101445 -0.030346524
0003f0 8d 1d 39 3d de bc b7 3d 16 c3 c3 3d 25 9d 03 3c
       0.045194197 0.089715704 0.09558694 0.008033072

network_body._body_endoder.seq_layers.2.bias f4 [128]
000000 35 94 c5 bb e4 67 d7 bb 05 e6 a9 bb 16 18 d5 bb
       -0.0060296305 -0.006573664 -0.005184891 -0.0065031154
000010 0b 01 8a 3c b3 7a 45 3c b5 7b 93 3c e1 1e 45 3c
       0.0168462 0.01205318 0.018003324 0.012031288
000020 15 33 c3 3b 2a 74 d9 3c 42 ef 2c 3c f9 a4 4f 3c
       0.005957017 0.02654465 0.01055509 0.01267361
000030 c6 e7 75 3a 61 13 86 bb 94 80 f1 39 b3 b7 19 bc
       0.0009380545 -0.0040916656 0.000460629 -0.009382176
000040 2d 29 a2 bb 32 a2 ed ba e2 93 c4 3c 1a a0 8e 3c
       -0.004948756 -0.0018130003 0.023996297 0.017410327
000050 f3 35 aa 3c 80 c5 96 3b 95 b3 d1 3a 62 6b 9e bb
       0.020777678 0.0046011806 0.0015998954 -0.0048345784
000060 14 43 34 3c 50 21 30 3c 58 a2 7a 3c 66 cc f6 3b
       0.011002321 0.01075013 0.015297495 0.0075316904
000070 3f a8 1c bc 5a f8 85 bc 75 46 eb 3c c8 09 61 bc
       -0.009561597 -0.016353775 0.02872012 -0.013735242
000080 ee a7 6f bc 45 a5 02 3c 00 39 e5 3b 0b 4d f3 3c
       -0.01462744 0.007973974 0.0069953203 0.029699823
000090 10 e8 b0 ba 4c b8 a4 3b ab 81 91 bb 93 7c 55 3c
       -0.0013496894 0.0050268527 -0.0044405065 0.013030189
0000a0 c9 7b 83 3c 4c 39 5c 3b ed 36 a2 3c aa ac e6 3c
       0.016050236 0.0033603488 0.019801581 0.028158505
0000b0 32 76 89 3c d7 ca fe bb 89 5d 69 bc df 87 53 3c
       0.016779993 -0.0077756452 -0.014243492 0.012910812
0000c0 fc 6e 83 3c 78 cb 9c bc b9 b7 93 bb 30 d2 0b bc
       0.016044132 -0.01913999 -0.0045079854 -0.008533999
0000d0 3f 4f 6b 3b 5c ad 05 3b 9b 9b 46 bb b4 82 7d bc
       0.0035905389 0.002039752 -0.003030515 -0.015473057
0000e0 44 59 6c 3c b0 ff e4 b9 1c 4d a3 3c 61 17 f1 3c
       0.014425579 -0.0004367805 0.01993423 0.029430093
0000f0 af 89 4b 3c 17 09 c9 3b 53 35 0f bc 9f 0f d0 bb
       0.012422963 0.006135117 -0.008740741 -0.0063495184
000100 1c d3 18 3c e2 c0 17 3c 7f 83 3c 3c 4b b6 2a bc
       0.009327676 0.009262295 0.0115059605 -0.010419439
000110 ce c0 de 3b fb 3f c1 bc 6d 3d f5 ba ec 66 18 3a
       0.0067978865 -0.023590079 -0.0018710323 0.00058136764
000120 60 4a 96 bc 30 10 5b bc 48 a7 32 3b cc bc 4d bc
       -0.018346012 -0.013370559 0.0027260352 -0.01255722
000130 16 7a 89 3c 28 79 09 3a 66 1c 7d bb 03 37 d1 3b
       0.016781848 0.0005244189 -0.0038621663 0.0063847317
000140 77 6c 2a 3c de fa 48 3c bf f0 ad 3c d4 b4 cf bb
       0.010401837 0.012266843 0.02123296 -0.006338695
000150 07 c6 38 bb 6d c6 c0 3c 7b 97 9a 3c f2 6d e0 38
       -0.0028194205 0.023532117 0.01887106 0.00010701631
000160 29 da 8c 3c db 59 bc bc 39 09 06 bb e6 e7 48 3c
       0.01719387 -0.022992065 -0.0020452274 0.01226232
000170 31 75 61 bc 57 07 4e 3a 97 12 4a bc 6c fd 8c 3b
       -0.013760851 0.000785937 -0.012333534 0.004302671
000180 7c ea ad 3b 04 85 84 ba d1 d7 34 bc 2f 1a 0a 3c
       0.0053074937 -0.0010110443 -0.011037783 0.008429094
000190 96 24 a6 bc 01 b3 16 3c 19 14 60 3b 95 a7 ea bb
       -0.020281117 0.009197951 0.0034191667 -0.0071610906
0001a0 a2 6a 17 3b d0 6d f3 bb 7f 97 6d 3b 18 17 21 3c
       0.002310433 -0.007428862 0.0036253629 0.009832166
0001b0 13 19 a5 3c 3d c7 80 3c 14 40 6f bb 35 3a 39 3a
       0.020153558 0.015720004 -0.00365067 0.00070658635
0001c0 ff 74 97 3c 58 e5 39 bc 5b e9 2d bc 91 7c 93 3c
       0.018488405 -0.011346184 -0.010614718 0.018003734
0001d0 fe 1f ba bc 36 fd af bc 7a 23 23 3a 0f c3 31 3c
       -0.022720333 -0.021483045 0.0006223243 0.010849728
0001e0 76 04 19 3b 2a 32 9b 3c 46 56 cd ba 65 13 49 3c
       0.0023348606 0.018944819 -0.001566597 0.01227269
0001f0 bb b9 e0 3a 9f 26 99 3c 91 f4 18 3b 98 47 4d bb
       0.0017145196 0.018695174 0.0023339132 -0.003132319

action_model._continuous_distribution.mu.weight f4 [1, 128]
000000 61 09 cb 3b 07 e7 09 bc fc 5c ef 3b a4 5d 69 3b
       0.0061961864 -0.008416898 0.007304786 0.0035608793
000010 64 d4 81 3d 70 f1 8d 3c c5 40 19 3c 3c 06 31 bd
       0.063393384 0.01732704 0.009353821 -0.043218836
000020 fe 3a d0 bb 38 0c 19 3d 6c 77 91 3c 54 8b ff 3c
       -0.0063546887 0.03736517 0.01775714 0.031194367
000030 58 12 90 3c 21 90 a9 bc 59 07 d2 3c 95 32 b5 bc
       0.017586872 -0.020698609 0.02563827 -0.022118846
000040 74 61 1d bd c4 3d 2b bd d9 31 3f 3d 56 a8 0c 3d
       -0.038423017 -0.04180695 0.046678398 0.034340225
000050 d4 76 5f 3d 18 df d4 3c 18 af fc 3c 44 c4 23 bd
       0.054556683 0.025985286 0.03084521 -0.039982095
000060 d8 63 7b 3c e6 37 73 3c bd ac 00 3d 34 bd 45 bd
       0.015343629 0.01484487 0.031414736 -0.04827614
000070 65 20 89 bc 42 a4 c8 bc 42 bd 9e 3d dc 16 ff bb
       -0.01673908 -0.024492387 0.07750942 -0.0077847075
000080 80 b9 62 bc 4d c1 61 bd 69 43 10 bd 98 fa 43 3d
       -0.013838172 -0.055115987 -0.035220537 0.047846407
000090 4a da c9 bb 08 da 57 3d 94 ed 19 bd cd ad 85 3d
       -0.0061600553 0.052698165 -0.037580088 0.065272905
0000a0 15 17 c2 3c 57 53 91 3c f0 c1 46 3d 9e f8 3d 3d
       0.023692647 0.017739935 0.048524797 0.046379678
0000b0 11 2d 2d 3d 7e 85 d7 bc bb 9f 88 bc cc c2 05 3d
       0.042279307 -0.026308771 -0.016677728 0.032656476
0000c0 a6 87 8a 3d 25 36 b9 bc 71 89 32 bd e5 11 94 ba
       0.06764154 -0.022608826 -0.043588106 -0.0011296837
0000d0 c6 91 e9 bc 7f df 5e 3c a1 2f 26 bd c9 65 6d bc
       -0.028511893 0.01360309 -0.040572766 -0.0144895995
0000e0 bb 6a 1f 3d 31 1f 15 bd 85 71 d1 3c eb 56 4f 3d
       0.038920145 -0.0364067 0.025566826 0.05062
0000f0 37 6a 21 bd af a5 54 bd 19 c7 ac bb 6d c1 14 bd
       -0.039407935 -0.05191582 -0.0052727577 -0.036317278
000100 35 e5 98 bd 62 7d ed 3c aa f6 bc 3c d5 16 64 bc
       -0.07465593 0.028990451 0.023066837 -0.013921459
000110 00 61 f1 bc a3 c3 10 bd cb b1 e7 bc b3 91 f3 bc
       -0.029465199 -0.035342824 -0.02828302 -0.02973256
000120 6d 2c ec bb 61 b5 a8 bc 4d 4d 80 bd df 5d f4 ba
       -0.0072074444 -0.0205943 -0.06264744 -0.0018643698
000130 68 e2 7f 3d fa d0 19 3b dd 79 d5 bc 13 75 77 3c
       0.062471777 0.0023470507 -0.026059086 0.015103596
000140 b5 37 09 3d 23 0c 3c 3d 13 06 6f 3d c1 8a d2 bc
       0.033500392 0.045910012 0.058355402 -0.025700929
000150 e5 4c 13 3c ec 3e 68 bd 08 7a 3d 3d 15 30 60 bd
       0.008990501 -0.056700632 0.046258956 -0.054733355
000160 55 c7 b7 3c 45 3e 56 bd 06 e2 11 bd c1 74 3a bd
       0.022433916 -0.05230548 -0.035615943 -0.0455215
000170 2a c5 bc bc 91 d1 38 3c 2d 4e 03 bc 4f 6c 4e 3d
       -0.023043234 0.011280433 -0.008014244 0.05039626
000180 a2 d2 54 bd 81 8b 22 bd ba 6c 6e bc f0 33 a6 bd
       -0.051958688 -0.039683823 -0.01455229 -0.08115375
000190 0b c9 ac bc ab 20 7d bd 2f 99 50 bd f3 87 a1 bc
       -0.021091959 -0.061798733 -0.050927337 -0.019718146
0001a0 fa a1 31 bd b5 88 dd ba b1 48 96 3b 2c 22 62 3c
       -0.043367364 -0.0016901704 0.004586302 0.0138020925
0001b0 fe f5 17 3d fc d2 49 3d 64 55 24 bd d7 13 32 bd
       0.03709983 0.049273476 -0.040120497 -0.043475952
0001c0 a0 79 74 3d 29 fc 02 bd 5b 36 7d bc 01 9b 34 3d
       0.059686303 -0.03197876 -0.015454854 0.044093136
0001d0 07 e0 b6 bc 4f da 92 bc 07 83 e2 3c 1b bf a9 3c
       -0.022323621 -0.017926363 0.02765037 0.020721009
0001e0 4e ce 3e bd 96 b9 d4 3c 1a 1c 70 bd 20 ff 96 3c
       -0.046583466 0.0259674 -0.05862055 0.0184322
0001f0 c8 27 c8 3b 81 97 4f 3d 35 36 00 3c 23 41 17 bd
       0.006108258 0.050681595 0.007825424 -0.036927354

action_model._discrete_distribution.branches.0.weight f4 [1, 128]
000000 aa 76 ae bb 33 3b 1e b9 c2 37 42 bb 8f ce 78 bb
       -0.0053242045 -0.00015090108 -0.0029635285 -0.0037964915
000010 4b 99 31 bc 3f c7 06 bc d0 1c f2 3b 60 0a 7f bc
       -0.010839771 -0.008226215 0.0073886886 -0.015566438
000020 d4 e8 a3 3a d8 32 ea bb 22 01 76 3c 7d bd a0 ba
       0.0012505301 -0.0071471743 0.0150149185 -0.0012263503
000030 3f 0e 3d bb 74 6d 34 3c 6a 38 74 bb fd ca dc 3b
       -0.0028847603 0.011012424 -0.003726507 0.0067380653
000040 47 14 f4 bb 4f 4e 6e 3a f7 a2 78 bc 84 d9 19 bc
       -0.0074487063 0.00090906484 -0.015175573 -0.009390239
000050 fd be 3d 3b bb 7d c1 bb 0d a5 b7 b7 03 2f bb 3b
       0.002895295 -0.005904881 -2.1892158e-05 0.0057123913
000060 d7 3a d9 bb a5 27 27 bc f5 26 73 38 ad eb 13 bc
       -0.0066293287 -0.010202323 5.7971996e-05 -0.009028357
000070 55 74 f7 bb 25 17 a4 3c 0c 4e 2b bc 67 ff 25 bb
       -0.0075517097 0.020030567 -0.01045562 -0.0025329234
000080 67 c1 b2 3b 9a 1a 72 bc ec 70 97 bb ef f0 b9 bb
       0.0054551843 -0.01477685 -0.0046216156 -0.0056744735
000090 4f 6b dd ba fa 77 72 bb 93 00 52 3c 0e ad 2c 3c
       -0.0016892942 -0.003699778 0.01281752 0.010539306
0000a0 0b 92 2f bc 02 13 d7 ba 14 01 3e 3b b7 6b 2e bb
       -0.010715972 -0.0016408863 0.0028992342 -0.0026614496
0000b0 e6 33 c4 bb 07 13 6c 3c 25 d9 af 3c 6d 16 d2 bb
       -0.005987632 0.014408833 0.021465847 -0.006411365
0000c0 0b 9f 8e 3b 01 2d 1e bc 06 fa 48 bc 9d 2e 4d bc
       0.0043524555 -0.009654284 -0.0122666415 -0.0125233205
0000d0 6e 6c 47 3c a9 e2 12 bc 7c 98 33 bc df c8 69 bb
       0.012171848 -0.008965173 -0.010961648 -0.0035672707
0000e0 0b 68 0c bc 4f 98 8f ba d5 9d 12 bc f5 a8 df ba
       -0.008569728 -0.0010955426 -0.008948763 -0.0017063903
0000f0 b6 fe 93 3b d9 8c 9a bb b5 ec 84 3b e3 80 2b bc
       0.004516448 -0.0047164974 0.004056538 -0.010467741
000100 88 8e f5 3b 55 17 d1 bb 9f 28 10 bb d7 60 f7 3a
       0.0074937977 -0.006380955 -0.0021996868 0.0018873465
000110 73 16 50 bc 7f cf e3 ba d6 4f 92 3b 92 43 77 bb
       -0.012700665 -0.0017380564 0.0044650836 -0.0037729484
000120 03 81 be 3c 17 15 cf 3b 2f a7 7c ba 8a ba d9 b8
       0.023254877 0.006319653 -0.00096379494 -0.00010382112
000130 51 30 41 3c 21 04 19 3b 5e 2a 25 3b 8b 5a c0 3a
       0.011791305 0.0023348408 0.0025202255 0.0014675421
000140 d2 e9 56 3b 9f 8a 14 3b b4 12 19 bc f9 ed 8f 3b
       0.0032793176 0.0022665632 -0.009342838 0.004392382
000150 08 ac e1 3b 84 d7 8b 39 e4 ae 25 3c ea df a6 39
       0.006886963 0.00026672718 0.010112498 0.00031828816
000160 63 1a 0f bc 93 74 c5 bb 7e 1d 1e bc 75 2c 13 bb
       -0.008734318 -0.0060258596 -0.009650586 -0.0022456918
000170 32 ac 91 3c b5 8b 43 bc dd 2e 68 39 99 0b 80 3b
       0.017782304 -0.011935164 0.00022142702 0.0039076325
000180 89 f3 bb 3a 55 82 86 bb 8f 7b d2 bb 6a 24 00 bc
       0.0014339547 -0.0041048923 -0.0064234207 -0.007821182
000190 87 7c ab bb 47 0a 80 3c 89 3c bc 3b cb 8a 70 bc
       -0.0052333507 0.0156299 0.005744521 -0.014681528
0001a0 6e 88 47 3a b1 cd a2 3b 93 3c 0f bc 8a d7 d7 bb
       0.0007611577 0.004968368 -0.008742469 -0.0065869736
0001b0 8f aa 94 3c b3 f6 9b bb 08 d9 93 3c 3b 8e 10 3a
       0.018147735 -0.0047596334 0.018047825 0.0005514358
0001c0 e4 9d 16 ba 1f ea 48 bc 28 c7 9a bc 74 4d 93 ba
       -0.00057455734 -0.01226285 -0.018893793 -0.0011238293
0001d0 5a 0d f2 3b 79 5a 2b bc 3a 47 23 3c 9a 3c 2f 3c
       0.0073868455 -0.010458582 0.009965712 0.010695601
0001e0 80 6e b1 3b 85 02 9a bc 87 47 10 3c b2 e7 7c 38
       0.005414784 -0.01880003 0.008806116 6.0297265e-05
0001f0 61 2e 1f 3c b3 f2 cf 39 1f 7a fd 3b b3 4f e1 bb
       0.009715647 0.00039662942 0.0077355052 -0.006875956

exp_avg f4 [128, 6]
000000 30 4b b2 b9 7a 3a 0f 38 7c 9d 4c 33 70 3a 0f ba
       -0.00034006825 3.4148317e-05 4.7640683e-08 -0.0005463725
000010 af df 2b 38 00 00 00 00 78 69 8d b8 3b 77 a3 b8
       4.09779e-05 0.0 -6.743049e-05 -7.794654e-05
000020 ac 35 88 33 35 77 a3 3a ac 28 c4 b8 00 00 00 00
       6.3427564e-08 0.001247144 -9.353584e-05 0.0
000030 a1 62 25 b9 78 a4 34 36 97 5e 03 33 4e a4 34 b8
       -0.00015772368 2.6917824e-06 3.0586843e-08 -4.3068365e-05
000040 83 c5 58 36 00 00 00 00 b4 ea 3f b9 86 88 9b b7
       3.2301475e-06 0.0 -0.00018302613 -1.8541014e-05
000050 7b 08 55 33 89 88 9b 39 d8 a3 ba b7 00 00 00 00
       4.960064e-08 0.0002966563 -2.2249224e-05 0.0
000060 d3 76 82 36 92 98 ff b7 3c 53 a0 32 84 98 ff 39
       3.888135e-06 -3.0469415e-05 1.8664302e-08 0.00048751023
000070 87 5b 19 b8 00 00 00 00 41 eb dd 35 7f b1 77 33
       -3.6563284e-05 0.0 1.6534251e-06 5.76706e-08
000080 16 07 a4 af ab b1 77 b5 bd 9d 94 33 00 00 00 00
       -2.983646e-10 -9.227321e-07 6.9204795e-08 0.0
000090 7f 24 2e 38 43 3e 98 b5 96 a7 fc b1 1c 3e 98 37
       4.1518822e-05 -1.1343003e-06 -7.3532176e-09 1.8148734e-05
0000a0 d5 b0 b6 b5 00 00 00 00 5f f4 af b5 c2 96 a0 b5
       -1.3611522e-06 0.0 -1.3109637e-06 -1.1964805e-06
0000b0 49 0e 8c 30 be 96 a0 37 e1 b4 c0 b5 00 00 00 00
       1.0190401e-09 1.9143681e-05 -1.4357757e-06 0.0
0000c0 1c 6c c6 b9 95 67 7c 37 24 83 91 33 62 67 7c b9
       -0.0003784605 1.5044488e-05 6.775943e-08 -0.00024071106
0000d0 53 71 97 37 00 00 00 00 32 6f 66 b5 34 1f a7 b5
       1.8053373e-05 0.0 -8.584349e-07 -1.2451551e-06
0000e0 48 03 88 30 30 1f a7 37 cd 8b c8 b5 00 00 00 00
       9.896235e-10 1.9922474e-05 -1.4941849e-06 0.0
0000f0 0f 00 6f b9 4e dd 03 b9 10 88 08 34 48 dd 03 3b
       -0.00022792838 -0.00012575576 1.2715486e-07 0.0020120908
000100 be 3c 1e b9 00 00 00 00 3b 50 8b 37 9f 53 7f 33
       -0.00015090682 0.0 1.6607451e-05 5.9447867e-08
000110 c8 29 6c b1 45 56 7f b5 0f 35 99 33 00 00 00 00
       -3.436627e-09 -9.512044e-07 7.134269e-08 0.0
000120 6f 4e 2a 38 1c dc 4d 36 ce 16 32 b2 23 dc 4d b8
       4.0604205e-05 3.06755e-06 -1.0366149e-08 -4.9080827e-05
000130 20 08 77 36 00 00 00 00 18 b9 fa b8 6b cd 02 b9
       3.6810598e-06 0.0 -0.00011955405 -0.0001247429
000140 31 84 df 33 64 cd 02 3b 77 f6 1c b9 00 00 00 00
       1.0408292e-07 0.0019958848 -0.00014969135 0.0
000150 94 14 b6 36 ba 94 03 b4 8e 24 8c b0 94 94 03 36
       5.4264183e-06 -1.2254432e-07 -1.019673e-09 1.9607005e-06
000160 9f e5 1d b4 00 00 00 00 82 98 d3 b8 52 92 82 b8
       -1.47053e-07 0.0 -0.00010089671 -6.226137e-05
000170 d7 d9 81 33 50 92 82 3a 8b af 9c b8 00 00 00 00
       6.0466554e-08 0.0009961817 -7.471357e-05 0.0
000180 43 30 96 b9 6b be 6a 38 2f 2f c6 32 59 be 6a ba
       -0.00028646187 5.5967288e-05 2.307169e-08 -0.00089547556
000190 97 d8 8c 38 00 00 00 00 52 4f f9 b9 9a f8 72 38
       6.716063e-05 0.0 -0.0004755208 5.7928824e-05
0001a0 b8 38 80 33 87 f8 72 ba 62 c8 91 38 00 00 00 00
       5.9707816e-08 -0.0009268601 6.951463e-05 0.0
0001b0 53 6f ac b9 02 f2 98 37 7a c2 6e 33 f2 f1 98 b9
       -0.0003288934 1.8232506e-05 5.559057e-08 -0.00029171963
0001c0 b0 88 b7 37 00 00 00 00 0b f9 08 39 88 6e 33 b8
       2.187895e-05 0.0 0.00013062746 -4.2779866e-05
0001d0 1c c2 02 30 7b 6e 33 3a 6f 51 57 b8 00 00 00 00
       4.756957e-10 0.0006844771 -5.1335835e-05 0.0
0001e0 29 9b bd b9 9c ab d2 37 33 83 7a 33 80 ab d2 b9
       -0.00036164492 2.5113863e-05 5.8326986e-08 -0.000401821
0001f0 bd cd fc 37 00 00 00 00 7d 38 19 38 49 34 0f b5
       3.0136545e-05 0.0 3.653065e-05 -5.3347736e-07
000200 3c c5 f0 b1 fc 33 0f 37 00 d8 2b b5 00 00 00 00
       -7.0073423e-09 8.535568e-06 -6.4016785e-07 0.0
000210 75 58 91 36 29 19 f0 33 ec 5f 7a b0 51 19 f0 b5
       4.3316345e-06 1.11804475e-07 -9.1085783e-10 -1.7888761e-06
000220 27 0f 10 34 00 00 00 00 8e 0b 81 b8 17 75 96 34
       1.3416557e-07 0.0 -6.1533516e-05 2.802487e-07
000230 10 51 53 32 27 74 96 b6 98 8d b4 34 00 00 00 00
       1.2300248e-08 -4.4838703e-06 3.3630636e-07 0.0
000240 51 e4 cd b6 5d 0a ac b5 52 9d 0f 31 5b 0a ac 37
       -6.1360556e-06 -1.2818015e-06 2.0898665e-09 2.050882e-05
000250 d5 72 ce b5 00 00 00 00 30 79 15 b8 4d 61 93 b7
       -1.5381617e-06 0.0 -3.5637233e-05 -1.7569075e-05
000260 dd 62 a1 32 46 61 93 39 1f db b0 b7 00 00 00 00
       1.8787825e-08 0.000281105 -2.1082871e-05 0.0
000270 c9 80 09 b7 42 2d cd 34 ae 9e c7 30 24 2d cd b6
       -8.1958215e-06 3.8217155e-07 1.4524255e-09 -6.114731e-06
000280 2f 36 f6 34 00 00 00 00 a3 db 79 b8 17 1a 05 b7
       4.5860494e-07 0.0 -5.957078e-05 -7.933492e-06
000290 9f 6b 94 32 18 1a 05 39 e8 b8 1f b7 00 00 00 00
       1.7278408e-08 0.00012693589 -9.52019e-06 0.0
0002a0 19 5b a0 39 70 67 e0 b8 47 7f ce 31 66 67 e0 3a
       0.0003058545 -0.00010700419 6.009859e-09 0.0017120659
0002b0 74 a4 06 b9 00 00 00 00 27 dc 34 b6 85 2c d1 35
       -0.000128405 0.0 -2.6950236e-06 1.558467e-06
0002c0 b7 e0 f7 af 75 2c d1 b7 26 02 fb 35 00 00 00 00
       -4.5088708e-10 -2.4935443e-05 1.8701583e-06 0.0
0002d0 5e ec ea 37 41 f5 ba 36 af bd 1e b2 3f f5 ba b8
       2.800504e-05 5.5717833e-06 -9.2399395e-09 -8.914852e-05
0002e0 7f 59 e0 36 00 00 00 00 2e 83 59 b9 30 30 0d 38
       6.686139e-06 0.0 -0.00020743601 3.3661898e-05
0002f0 bb 9c b5 32 25 30 0d ba fa 6c 29 38 00 00 00 00
       2.1142446e-08 -0.0005385897 4.0394232e-05 0.0
000300 37 47 19 39 6d 99 26 37 2b dd 15 b3 6c 99 26 b9
       0.00014617747 9.930093e-06 -3.4892917e-08 -0.00015888148
000310 51 eb 47 37 00 00 00 00 80 0b 1f 38 ee da 83 b8
       1.1916113e-05 0.0 3.7919264e-05 -6.2873456e-05
000320 3e bb 0b 33 ea da 83 3a eb 39 9e b8 00 00 00 00
       3.2533755e-08 0.0010059748 -7.544815e-05 0.0
000330 e5 ac 09 b8 3f 65 b2 b8 86 2d 83 33 39 65 b2 3a
       -3.2824366e-05 -8.50656e-05 6.1084435e-08 0.0013610489
000340 07 13 d6 b8 00 00 00 00 ac 8a ff b8 bf 9c fb b6
       -0.00010207859 0.0 -0.00012185177 -7.4986306e-06
000350 ee ec ff 32 c4 9c fb 38 a7 f7 16 b7 00 00 00 00
       2.979365e-08 0.000119978125 -8.998358e-06 0.0
000360 85 ae 2b 38 b8 1c 6a 36 bf 6c 32 b2 bf 1c 6a b8
       4.093211e-05 3.4885434e-06 -1.038569e-08 -5.581672e-05
000370 aa 77 8c 36 00 00 00 00 e4 f8 c1 b9 a1 49 af 37
       4.186256e-06 0.0 -0.00036997267 2.0895912e-05
000380 f6 10 86 33 8e 49 af b9 19 58 d2 37 00 00 00 00
       6.2429464e-08 -0.00033433404 2.5074974e-05 0.0
000390 5a b2 0c 39 4f 9c 68 b8 2b a3 04 32 41 9c 68 3a
       0.00013417882 -5.5458684e-05 7.720511e-09 0.00088733813
0003a0 ef 90 8b b8 00 00 00 00 a5 13 8a b8 8f 37 fa b5
       -6.6550325e-05 0.0 -6.584012e-05 -1.8642621e-06
0003b0 96 08 7f 32 bf 37 fa 37 40 21 16 b6 00 00 00 00
       1.4844906e-08 2.9828281e-05 -2.2371096e-06 0.0
0003c0 ae f1 16 b9 22 76 da 34 7d 9e fc 32 95 73 da b6
       -0.00014395147 4.0691617e-07 2.9408733e-08 -6.510362e-06
0003d0 d2 13 03 35 00 00 00 00 70 db 9c 38 be 64 c4 b7
       4.8830145e-07 0.0 7.479533e-05 -2.3411932e-05
0003e0 de fa e0 ae b4 64 c4 39 24 ac eb b7 00 00 00 00
       -1.02309036e-10 0.00037459063 -2.8094342e-05 0.0
0003f0 1c 04 1f 38 56 ab 18 37 9e ab 6b b2 55 ab 18 b9
       3.791238e-05 9.099798e-06 -1.37178215e-08 -0.00014559676

exp_avg_sq f4 [128, 6]
000000 c2 62 07 37 b4 11 0d 34 d2 63 30 2b 38 1b 0d 38
       8.069621e-06 1.3138089e-07 6.266629e-13 3.364237e-05
000010 b8 23 4b 34 00 00 00 00 02 74 ae 36 06 3e c2 33
       1.8918843e-07 0.0 5.199109e-06 9.045111e-08
000020 22 8f f6 2a fc 3b c2 37 ae da 0b 34 00 00 00 00
       4.3797697e-13 2.3154535e-05 1.3024939e-07 0.0
000030 63 ba 53 35 2f 13 4b 32 c2 7e 73 29 01 77 4a 36
       7.8874854e-07 1.1820517e-08 5.4066784e-14 3.0169615e-06
000040 09 32 92 32 00 00 00 00 86 58 40 34 b4 83 26 31
       1.701939e-08 0.0 1.7913598e-07 2.4231044e-09
000050 9b 5f c3 27 99 cb 24 35 8b 88 6f 31 00 00 00 00
       5.422703e-15 6.1391034e-07 3.4856693e-09 0.0
000060 7c f0 8c 35 8b 17 9b 32 2c ae c7 29 dc 17 9b 36
       1.0500803e-06 1.8055081e-08 8.867589e-14 4.6221376e-06
000070 18 55 df 32 00 00 00 00 cd 96 d4 30 ad ee 2e 2e
       2.5999313e-08 0.0 1.546789e-09 3.9775006e-11
000080 92 ee 76 22 01 5b 2f 32 63 42 7b 2e 00 00 00 00
       3.3465515e-18 1.02070326e-08 5.7129756e-11 0.0
000090 23 19 77 33 30 a1 83 30 5a e1 9e 27 6d ad 83 34
       5.753203e-08 9.577317e-10 4.4098136e-15 2.4526835e-07
0000a0 f0 84 bd 30 00 00 00 00 18 63 96 33 23 cc 5a 30
       1.3789343e-09 0.0 7.0029444e-08 7.9598034e-10
0000b0 57 35 e5 24 3e 98 5a 34 6b 4a 9d 30 00 00 00 00
       9.940328e-17 2.0358218e-07 1.1444404e-09 0.0
0000c0 f4 f1 ac 36 bb b0 b1 33 ed bc e9 2a ba ab b1 37
       5.1541665e-06 8.274352e-08 4.1520208e-13 2.118001e-05
0000d0 a4 df ff 33 00 00 00 00 d7 52 c4 32 23 60 90 2f
       1.1915043e-07 0.0 2.2855074e-08 2.6261757e-10
0000e0 e6 67 0b 25 74 42 90 33 07 a2 cf 2f 00 00 00 00
       1.209153e-16 6.71761e-08 3.7768208e-10 0.0
0000f0 a6 53 09 37 dc ca 1c 34 fe fd 57 2b a4 cb 1c 38
       8.185312e-06 1.4602432e-07 7.673583e-13 3.7382953e-05
000100 ff c7 61 34 00 00 00 00 5b 61 2c 32 ac ba 28 2f
       2.1027516e-07 0.0 1.0033854e-08 1.534583e-10
000110 d7 7c 1a 26 33 c6 29 33 0e e8 72 2f 00 00 00 00
       5.359867e-16 3.952864e-08 2.2092214e-10 0.0
000120 15 ce 05 33 16 9f 00 30 d0 db 66 26 8a ad 01 34
       3.1153906e-08 4.6792203e-10 8.009518e-16 1.2077194e-07
000130 66 f6 38 30 00 00 00 00 d3 9f 53 37 67 79 6c 34
       6.7288963e-10 0.0 1.2613792e-05 2.2023379e-07
000140 cd ad 97 2b 9c 78 6c 38 ed 42 aa 34 00 00 00 00
       1.0777435e-12 5.637911e-05 3.1713662e-07 0.0
000150 50 f7 f1 31 5f e5 86 2e b3 04 b2 24 6f 9d 87 32
       7.0421393e-09 6.134359e-11 7.7203155e-17 1.5787661e-08
000160 44 3d c2 2e 00 00 00 00 29 93 37 36 f1 e3 4e 33
       8.8329816e-11 0.0 2.7354783e-06 4.8170424e-08
000170 56 d2 7c 2a 80 e2 4e 37 02 f6 94 33 00 00 00 00
       2.2455071e-13 1.2331293e-05 6.9365356e-08 0.0
000180 0a 24 43 37 2d fd 4d 34 d0 95 78 2b ad 09 4e 38
       1.1631297e-05 1.9184218e-07 8.8315206e-13 4.912324e-05
000190 e8 4f 94 34 00 00 00 00 fc 18 9d 37 84 f9 a3 34
       2.7625288e-07 0.0 1.8727493e-05 3.0542662e-07
0001a0 16 4a cc 2b 8c 0f a4 38 9c 1f ec 34 00 00 00 00
       1.4515635e-12 7.823025e-05 4.3981424e-07 0.0
0001b0 2f 7d 89 36 8c 8c 8e 33 25 60 c7 2a d9 8d 8e 37
       4.0974915e-06 6.6379556e-08 3.5416215e-13 1.6993772e-05
0001c0 41 45 cd 33 00 00 00 00 51 e3 7c 36 bb 1f 87 33
       9.5586536e-08 0.0 3.7683242e-06 6.292199e-08
0001d0 43 97 b7 2a f7 2b 87 37 10 94 c2 33 00 00 00 00
       3.261229e-13 1.6113727e-05 9.0607614e-08 0.0
0001e0 0f 34 f0 36 9e 57 f7 33 61 27 18 2b f7 71 f7 37
       7.158618e-06 1.1517771e-07 5.4055897e-13 2.9497764e-05
0001f0 17 16 32 34 00 00 00 00 ff fc a7 33 10 54 a4 30
       1.6585578e-07 0.0 7.822563e-08 1.1956462e-09
000200 dc 3a 5e 27 77 24 a3 34 54 63 ec 30 00 00 00 00
       3.0840597e-15 3.0387648e-07 1.7199491e-09 0.0
000210 ae f3 cb 31 ae d4 02 2f 91 a0 d3 23 95 8e 00 33
       5.9357808e-09 1.189899e-10 2.2944668e-17 2.9932e-08
000220 84 c3 3b 2f 00 00 00 00 d2 9f 69 34 90 d0 4d 31
       1.7077012e-10 0.0 2.1757958e-07 2.994998e-09
000230 db 00 03 28 25 92 4d 35 2b 0a 94 31 00 00 00 00
       7.272146e-15 7.658112e-07 4.308523e-09 0.0
000240 23 4a 7e 33 3d 83 36 30 77 76 11 24 75 24 36 34
       5.920641e-08 6.6397715e-10 3.1542207e-17 1.6963334e-07
000250 da 32 83 30 00 00 00 00 c5 0e 50 34 bf 1e 5c 31
       9.545957e-10 0.0 1.9376883e-07 3.203169e-09
000260 69 c3 84 28 c2 58 5b 35 af 78 9e 31 00 00 00 00
       1.473969e-14 8.1713017e-07 4.6121253e-09 0.0
000270 fe 9f fb 32 4d d6 d5 2f 1e b8 8d 25 a9 a4 d3 33
       2.9293002e-08 3.8896744e-10 2.4584364e-16 9.855405e-08
000280 dc ba 19 30 00 00 00 00 15 7d 68 33 82 22 3c 30
       5.592662e-10 0.0 5.413047e-08 6.844304e-10
000290 07 8c 19 26 38 bc 3a 34 3c 69 87 30 00 00 00 00
       5.327231e-16 1.7391073e-07 9.852452e-10 0.0
0002a0 62 88 eb 37 64 ed fb 34 b2 83 18 2c 6a ed fb 38
       2.8077691e-05 4.6925118e-07 2.1673605e-12 0.000120128345
0002b0 44 63 35 35 00 00 00 00 65 ac ef 32 7b 2b 96 2f
       6.7572205e-07 0.0 2.7901658e-08 2.7315736e-10
0002c0 83 08 d4 25 d5 62 95 33 54 1d d8 2f 00 00 00 00
       3.6781905e-16 6.9563306e-08 3.931101e-10 0.0
0002d0 fc f6 d0 31 bd 32 09 2f 13 bf e0 25 1f c1 08 33
       6.0816756e-09 1.2478103e-10 3.8987283e-16 3.184061e-08
0002e0 c7 85 45 2f 00 00 00 00 c1 6f a9 36 7e 5c b2 33
       1.7964573e-10 0.0 5.0496024e-06 8.305595e-08
0002f0 b2 62 d5 2a 7c 63 b2 37 90 6b 00 34 00 00 00 00
       3.7904884e-13 2.126558e-05 1.196006e-07 0.0
000300 34 5d 28 34 dc b8 1f 31 61 72 41 28 3f ce 1f 35
       1.5680126e-07 2.3242626e-09 1.0738454e-14 5.9532243e-07
000310 6e fe 65 31 00 00 00 00 8d 61 b7 36 4e d9 c7 33
       3.3468512e-09 0.0 5.4651814e-06 9.306187e-08
000320 01 de f7 2a 53 dc c7 37 1a e4 0f 34 00 00 00 00
       4.403006e-13 2.3825245e-05 1.3400896e-07 0.0
000330 ab 25 e9 36 0b fc 00 34 df d8 26 2b a7 fc 00 38
       6.9483262e-06 1.2012622e-07 5.9276016e-13 3.075288e-05
000340 ce bc 39 34 00 00 00 00 f7 87 33 34 7c 31 29 31
       1.7298154e-07 0.0 1.6720138e-07 2.4620865e-09
000350 2e f6 11 28 c9 f1 28 35 67 6f 73 31 00 00 00 00
       8.102499e-15 6.293672e-07 3.542448e-09 0.0
000360 20 dd 20 32 0a 6e 4f 2f 9f 94 0d 26 60 7f 4f 33
       9.363504e-09 1.8865634e-10 4.912062e-16 4.831179e-08
000370 fe 0d 95 2f 00 00 00 00 4c 14 c3 36 a1 ab c9 33
       2.7112884e-10 0.0 5.8138157e-06 9.391011e-08
000380 d2 67 05 2b 52 b2 c9 37 df 33 11 34 00 00 00 00
       4.739517e-13 2.4044104e-05 1.3523048e-07 0.0
000390 1d 2d f3 36 c9 b1 00 34 53 3e 17 2b f4 ae 00 38
       7.247216e-06 1.1985607e-07 5.373247e-13 3.0680516e-05
0003a0 c1 51 39 34 00 00 00 00 5d 02 95 33 73 4f 8d 30
       1.725921e-07 0.0 6.938783e-08 1.0281681e-09
0003b0 27 40 ab 27 36 bf 8d 34 e4 78 cb 30 00 00 00 00
       4.753159e-15 2.640242e-07 1.4804553e-09 0.0
0003c0 3a 85 02 35 5f d4 fd 31 1b 30 26 29 83 5f fe 35
       4.8622644e-07 7.387413e-09 3.690113e-14 1.8952272e-06
0003d0 6d c1 36 32 00 00 00 00 c0 32 c4 35 0a 96 d1 32
       1.0637774e-08 0.0 1.4617908e-06 2.4399032e-08
0003e0 ad 1f fc 29 40 91 d1 36 e1 e6 16 33 00 00 00 00
       1.1196543e-13 6.2455947e-06 3.513458e-08 0.0
0003f0 dc 0d 99 33 df 0e 82 30 db e2 d5 26 74 ac 82 34
       7.127139e-08 9.462972e-10 1.4841333e-15 2.4339863e-07

exp_avg f4 [128]
000000 6b 3a 0f 39 3b 77 a3 b9 29 a4 34 37 89 88 9b b8
       0.00013659305 -0.00031178616 1.0767058e-05 -7.4164076e-05
000010 87 98 ff b8 ad b1 77 34 28 3e 98 b6 bf 96 a0 b6
       -0.00012187758 2.3068306e-07 -4.537189e-06 -4.7859207e-06
000020 99 67 7c 38 2d 1f a7 b6 48 dd 03 ba 72 56 7f 34
       6.0177965e-05 -4.980617e-06 -0.0005030227 2.3780174e-07
000030 20 dc 4d 37 66 cd 02 ba 90 94 03 b5 4c 92 82 b9
       1.2270204e-05 -0.0004989713 -4.901749e-07 -0.00024904532
000040 55 be 6a 39 a4 f8 72 39 f2 f1 98 38 82 6e 33 b9
       0.00022386883 0.00023171544 7.2929906e-05 -0.00017111938
000050 85 ab d2 38 c9 33 0f b6 4c 19 f0 34 ed 74 96 35
       0.00010045528 -2.1338803e-06 4.472189e-07 1.1209901e-06
000060 59 0a ac b6 49 61 93 b8 0e 2d cd 35 17 1a 05 b8
       -5.127204e-06 -7.027627e-05 1.5286803e-06 -3.173397e-05
000070 62 67 e0 b9 70 2c d1 36 3c f5 ba 37 23 30 0d 39
       -0.00042801636 6.2338586e-06 2.2287124e-05 0.0001346474
000080 70 99 26 38 ed da 83 b9 35 65 b2 b9 d2 9c fb b7
       3.9720384e-05 -0.0002514938 -0.0003402621 -2.9994557e-05
000090 bc 1c 6a 37 98 49 af 38 45 9c 68 b9 b1 37 fa b6
       1.3954177e-05 8.358358e-05 -0.00022183459 -7.457064e-06
0000a0 d5 75 da 35 c0 64 c4 b8 54 ab 18 38 8f 5f 85 36
       1.6276559e-06 -9.3647745e-05 3.6399186e-05 3.9748334e-06
0000b0 0c 69 6c b8 58 66 0b 38 a8 3e 04 b9 79 72 46 b9
       -5.6364617e-05 3.3235498e-05 -0.00012611842 -0.00018925396
0000c0 d4 d0 ea 37 eb f5 93 b8 a0 13 e9 b8 23 19 98 36
       2.7992217e-05 -7.055312e-05 -0.00011113961 4.5328793e-06
0000d0 2e e3 3c ba 99 b5 25 b8 4c 5e ce 38 e4 f8 39 b7
       -0.0007205483 -3.950819e-05 9.8404096e-05 -1.1084809e-05
0000e0 8e 82 0e ba d0 9d 38 b9 8b 27 79 b9 63 c1 8f 36
       -0.0005436324 -0.00017606397 -0.00023761221 4.2842453e-06
0000f0 47 f0 be b7 05 50 c9 36 25 d7 b5 b6 71 47 96 36
       -2.2761653e-05 5.9995823e-06 -5.4192665e-06 4.4786652e-06
000100 43 b4 40 b9 a4 69 51 35 54 2e a2 b9 2b 5e cc 37
       -0.000183777 7.8012295e-07 -0.00030933565 2.4362545e-05
000110 6a 3e c0 b8 bf 16 a5 b9 be e0 8f 36 34 a8 d1 38
       -9.166899e-05 -0.000314882 4.2878955e-06 9.997227e-05
000120 68 8f 1a b8 05 4f c5 b9 ac c4 9e 37 f3 59 3c 39
       -3.685002e-05 -0.00037633642 1.892665e-05 0.00017962586
000130 46 22 25 38 0e 7e 7a b8 16 18 39 36 93 2d 59 b7
       3.9370985e-05 -5.9722042e-05 2.7581168e-06 -1.2944819e-05
000140 f1 35 a5 36 2a 7c 7f b6 de 5a 6f b8 87 24 19 37
       4.923663e-06 -3.8070234e-06 -5.7066667e-05 9.128015e-06
000150 8a 79 85 b4 cb 84 2b b9 fa 26 a4 b6 8f 02 06 b7
       -2.4861612e-07 -0.000163573 -4.8921183e-06 -7.987618e-06
000160 cf 0b 95 b7 19 22 f6 38 8f ef 44 ba cc f5 06 39
       -1.7767683e-05 0.00011736545 -0.00075125037 0.00012870802
000170 04 b5 ed b9 ca 1e 2b 38 31 33 ab b6 18 f9 a7 b7
       -0.0004533903 4.079825e-05 -5.1021566e-06 -2.0023945e-05
000180 13 29 62 38 83 6e fc 38 a6 ca e0 b8 4a b2 ad b6
       5.3920852e-05 0.00012036881 -0.000107188986 -5.1765574e-06
000190 c1 61 b7 37 79 64 c2 b8 47 cf 30 b8 1b 5f 0b 39
       2.186082e-05 -9.269355e-05 -4.2154712e-05 0.00013291503
0001a0 23 9d 14 37 72 ee 01 38 fb 72 5a b9 79 72 49 ba
       8.858074e-06 3.0978066e-05 -0.00020832934 -0.0007684599
0001b0 05 13 96 b7 a7 dc 92 38 f2 35 83 38 df 78 8f 37
       -1.789025e-05 7.002922e-05 6.256615e-05 1.7103213e-05
0001c0 df 55 95 37 44 e7 1a b7 ff 9f 0c b9 75 b8 7a b8
       1.7802171e-05 -9.232961e-06 -0.00013411044 -5.9776434e-05
0001d0 69 c8 cb b8 b6 74 66 b5 27 5f d6 b8 75 39 04 39
       -9.7171236e-05 -8.5851514e-07 -0.00010222039 0.00012609905
0001e0 67 08 a9 37 ca 8f 46 39 8e 41 2b b9 f5 9b 8f b5
       2.0150283e-05 0.00018936317 -0.00016332252 -1.069972e-06
0001f0 27 0e 91 b7 7a ae 27 37 8a 99 2a 39 5a b3 82 b5
       -1.7291937e-05 9.994599e-06 0.00016269661 -9.737953e-07
