mlagents-env/results/=PelletGrabberRun4/Agent Controller/Agent Controller-2157.pt (torch, 151337 bytes, 11 tensors)

network_body._body_endoder.seq_layers.0.weight f4 [128, 6]
0	0x3edc01e1	0.42970183
1	0x3f1ba3c1	0.60796744
2	0xbeb6ee31	-0.357286
3	0x3f4e895f	0.8067836
4	0xbe9269fb	-0.28596482
5	0x3d6092f6	0.054827653
6	0x3efb8ee1	0.49132445
7	0x3e08d459	0.13362254
8	0xbdedf8f1	-0.116197474
9	0xbf4a82eb	-0.79106015
10	0x3f6b0186	0.917992
11	0x3f2f395b	0.6844689
12	0x3f4d4f11	0.8019877
13	0xbe9a332d	-0.3011717
14	0x3e1030c6	0.14081106
15	0xbec539ed	-0.38520756
16	0x3d507038	0.05088827
17	0x3cc5abbf	0.024129746
18	0x3f264610	0.64950657
19	0x3e907af0	0.28218794
20	0x3d70e860	0.05881536
21	0x3eebd9f7	0.4606473
22	0x3e83bd1d	0.2573022
23	0x3f62ae68	0.8854737
24	0xbeeea679	-0.46611384
25	0xbf244882	-0.6417314
26	0x3e8f28f0	0.2796092
27	0xbe25fbb5	-0.162093
28	0x3e7bc856	0.24588141
29	0x3eaf1f83	0.3420373
30	0xbdc67514	-0.096903
31	0x3d2eb664	0.04265441
32	0xbf39bf77	-0.7255778
33	0x3ecc8531	0.39945367
34	0x3f2a6f17	0.6657576
35	0x3d427069	0.047470484
36	0xbec6b592	-0.38810402
37	0x3d6a4e2a	0.05720345
38	0x3ed779bd	0.42085066
39	0x3f8257e2	1.018307
40	0xbdc8b59d	-0.09800265
41	0x3db50aa9	0.08839924
42	0x3f98724d	1.1909882
43	0xbe8ba3f8	-0.27273536
44	0x3f1a1c62	0.6019956
45	0x3d583398	0.05278358
46	0x3edae16b	0.42750105
47	0xbec79e91	-0.38988164
48	0xbf1bac6d	-0.60809976
49	0x3eb07f32	0.34472042
50	0xbed16eca	-0.40904838
51	0xbe95a252	-0.29225403
52	0x3d721d94	0.05911024
53	0xbed45742	-0.41472822
54	0x3f237f53	0.63866156
55	0xbec005a7	-0.37504312
56	0xbe91a8f2	-0.28449208
57	0xbe4df4ab	-0.20112865
58	0xbedcaefd	-0.43102255
59	0xbe9c2feb	-0.30505309
60	0x3e2e4314	0.17017776
61	0xbef3d849	-0.4762595
62	0x3f3ffc82	0.7499467
63	0xbbe5843d	-0.0070042894
64	0xbd15dd2a	-0.03658787
65	0x3ee227b8	0.44170928
66	0xbddffb1e	-0.10936569
67	0xbca009c8	-0.019535914
68	0x3d639306	0.055560134
69	0x3ded8c15	0.11598984
70	0xbe900b6e	-0.2813372
71	0xbe625be0	-0.2210536
72	0xbf1b7429	-0.6072412
73	0xbec0cf2e	-0.37658066
74	0xbd037a0b	-0.03209881
75	0x3c352be8	0.011057831
76	0x3e11812f	0.14209436
77	0xbe9c37c1	-0.30511287
78	0xbf56d137	-0.83912987
79	0xbc8b0ab3	-0.016972875
80	0xbe82eaf6	-0.25569886
81	0xbda1231b	-0.07868024
82	0x3dd4130e	0.10355197
83	0xbd3ceeb9	-0.0461261
84	0xbf1614f4	-0.5862572
85	0xbe6180d9	-0.22021808
86	0x3e11cb1a	0.14237633
87	0xbeee052d	-0.46488324
88	0x3e07faae	0.1327922
89	0x3f12c27c	0.5732801
90	0xbe91466a	-0.28374034
91	0xbead0f38	-0.33800673
92	0xbf220c0a	-0.6329962
93	0x3ebd7687	0.37004492
94	0x3d3f45dd	0.046697486
95	0xbd034b9d	-0.032054532
96	0x3d265f2b	0.040618103
97	0xbe0419d2	-0.12900475
98	0xbf038750	-0.51378345
99	0xbe859460	-0.26089764
100	0xbe096c26	-0.13420162
101	0x3dc1c357	0.09461086
102	0xbd0edfa4	-0.03488125
103	0x3ebdaca6	0.37045783
104	0xbeed3de7	-0.4633629
105	0xbf263df6	-0.64938295
106	0xbe5af0fa	-0.21380988
107	0xbd7dd234	-0.061968043
108	0xbc186683	-0.009301784
109	0xbf981a37	-1.1883
110	0x3ece9c32	0.40353543
111	0xbe5d5bd8	-0.21617067
112	0x3cf7224a	0.030167717
113	0x3e98555b	0.2975262
114	0xbef920bf	-0.48657796
115	0x3ef99471	0.48746064
116	0xbeed0d7c	-0.4629935
117	0xbdde07f7	-0.10841363
118	0xbe881afd	-0.2658309
119	0xbf5cf0cb	-0.8630492
120	0x3f1dbaaf	0.6161298
121	0xbc70aa6c	-0.014689069
122	0xbe821582	-0.25407034
123	0xbdc19e8d	-0.09454069
124	0x3e574ca9	0.21025337
125	0xbec8dabf	-0.3922939
126	0xbf328b08	-0.69743395
127	0x3f37c1bc	0.7177999
128	0x3e9aeb91	0.30257848
129	0xbee57880	-0.44818497
130	0xbd4eecb8	-0.05051872
131	0xbe202ba4	-0.15641648
132	0x3e9e42e1	0.309104
133	0xbd988258	-0.07446736
134	0xbdd02492	-0.10163225
135	0x3f05937f	0.52178186
136	0xbe777619	-0.24166144
137	0x3efa24ca	0.48856193
138	0xbed007dd	-0.40631
139	0xbea23c6b	-0.3168672
140	0xbf194293	-0.5986721
141	0x3e5235e3	0.20528369
142	0x3edb7604	0.42863476
143	0x3ecb1d85	0.3967096
144	0xbdc86c99	-0.09786338
145	0x3cbd44fa	0.02310418
146	0xbddc7d2f	-0.107660644
147	0xbe2b5558	-0.16731775
148	0xbe582fd0	-0.21111989
149	0x3eddaa7a	0.43294126
150	0xbdfdde27	-0.12395888
151	0xbee72fe7	-0.45153734
152	0xbdfe55cb	-0.124187075
153	0xbf585843	-0.84509677
154	0xbd691681	-0.056906227
155	0xbeea4199	-0.45753172
156	0x3eb61347	0.35561582
157	0xbdc8f253	-0.09811845
158	0xbe0801d0	-0.13281941
159	0xbee381fc	-0.44435108
160	0x3f0791c6	0.5295681
161	0xbebbe31b	-0.36696705
162	0xbd6ac2a7	-0.05731454
163	0x3cede39b	0.029039195
164	0xbe91c820	-0.28472996
165	0xbf6a464c	-0.91513515
166	0xbf07a2be	-0.529827
167	0x3ebfd4cc	0.3746704
168	0x3ea4e5f8	0.32206702
169	0xbdf3188c	-0.11869916
170	0xbf0ccbe4	-0.5499861
171	0x3ee65d84	0.44993222
172	0x3eb5bc03	0.35495004
173	0x3eb82bf9	0.35971048
174	0x3eb0804f	0.34472892
175	0xbe74cb1f	-0.2390561
176	0x3e3677c1	0.1781912
177	0x3ea73302	0.32656103
178	0x3e316873	0.17325
179	0x3e3b6983	0.18301968
180	0xbe9a8beb	-0.30184874
181	0xbed0b665	-0.40764156
182	0x3f24a26d	0.6431034
183	0x3e51cdb7	0.2048863
184	0x3f21951e	0.6311816
185	0xbda23954	-0.07921091
186	0xbe0bf95c	-0.13669342
187	0x3e3dd99b	0.18540041
188	0xbed53e14	-0.41648924
189	0x3e80228a	0.2502635
190	0xbd8955f4	-0.067058474
191	0xbe1430db	-0.14471762
192	0x3f212c41	0.6295815
193	0xbe8550e8	-0.2603829
194	0x3e99e6dc	0.30058944
195	0x3e753408	0.2394563
196	0x3eddf8c9	0.4335387
197	0xbeb3614c	-0.3503517
198	0xbefcfd5e	-0.49412054
199	0xbe32def8	-0.17467868
200	0xbd466ce3	-0.048443686
201	0xbd51351d	-0.051076043
202	0xbea02141	-0.3127537
203	0xbc12afa5	-0.00895301
204	0x3e1806fd	0.14846416
205	0xbe1b990c	-0.15195101
206	0xbed05834	-0.40692294
207	0xbe0c4444	-0.13697916
208	0x3f4ed4e5	0.807936
209	0xbee978df	-0.4560003
210	0x3e63d87a	0.22250548
211	0x3f007ac3	0.5018732
212	0x3effb4b2	0.49942547
213	0xbf0e472e	-0.5557736
214	0xbe1b1aad	-0.15146895
215	0x3f721788	0.94567156
216	0x3e417b54	0.18894702
217	0x3d918653	0.071056984
218	0xbeed1abf	-0.46309468
219	0xbe4fdef8	-0.202999
220	0xbd8a1c48	-0.067436755
221	0xbd837824	-0.064193994
222	0x3eec73f0	0.46182203
223	0x3d5e69c2	0.054300077
224	0x3edbefb8	0.42956328
225	0xbe98e51a	-0.2986229
226	0x3ecf2f8d	0.40465966
227	0xbe322a6e	-0.17398998
228	0x3ee7ddd3	0.45286426
229	0xbde1b7c1	-0.110213764
230	0xbf1ed5bd	-0.6204489
231	0x3f0968e1	0.5367566
232	0x3e4e2ea8	0.20134985
233	0x3d27ec78	0.040997
234	0xbec536ec	-0.38518465
235	0xbe37e7c7	-0.1795951
236	0x3e912aa1	0.28352836
237	0x3e263307	0.16230403
238	0x3eb92bdb	0.36166272
239	0xbe8067ce	-0.25079197
240	0xbed642ca	-0.4184783
241	0x3da61b58	0.08110684
242	0x3e9b1051	0.30285886
243	0x3db7def3	0.08978071
244	0xbe346b51	-0.17619063
245	0xbf24f6b9	-0.6443897
246	0x3cd63d4a	0.026152272
247	0xbea50663	-0.32231435
248	0xbe48f568	-0.19624865
249	0x3d462ef8	0.048384637
250	0xbf52e4ca	-0.82380354
251	0xbe9d34ca	-0.30704337
252	0x3d622854	0.05521424
253	0xbf3d7756	-0.7401022
254	0xbf163099	-0.58667904
255	0x3ead5d58	0.33860278

network_body._body_endoder.seq_layers.0.bias f4 [128]
0	0x00000000	0.0
1	0x00000000	0.0
2	0x00000000	0.0
3	0x00000000	0.0
4	0x00000000	0.0
5	0x00000000	0.0
6	0x00000000	0.0
7	0x00000000	0.0
8	0x00000000	0.0
9	0x00000000	0.0
10	0x00000000	0.0
11	0x00000000	0.0
12	0x00000000	0.0
13	0x00000000	0.0
14	0x00000000	0.0
15	0x00000000	0.0
16	0x00000000	0.0
17	0x00000000	0.0
18	0x00000000	0.0
19	0x00000000	0.0
20	0x00000000	0.0
21	0x00000000	0.0
22	0x00000000	0.0
23	0x00000000	0.0
24	0x00000000	0.0
25	0x00000000	0.0
26	0x00000000	0.0
27	0x00000000	0.0
28	0x00000000	0.0
29	0x00000000	0.0
30	0x00000000	0.0
31	0x00000000	0.0
32	0x00000000	0.0
33	0x00000000	0.0
34	0x00000000	0.0
35	0x00000000	0.0
36	0x00000000	0.0
37	0x00000000	0.0
38	0x00000000	0.0
39	0x00000000	0.0
40	0x00000000	0.0
41	0x00000000	0.0
42	0x00000000	0.0
43	0x00000000	0.0
44	0x00000000	0.0
45	0x00000000	0.0
46	0x00000000	0.0
47	0x00000000	0.0
48	0x00000000	0.0
49	0x00000000	0.0
50	0x00000000	0.0
51	0x00000000	0.0
52	0x00000000	0.0
53	0x00000000	0.0
54	0x00000000	0.0
55	0x00000000	0.0
56	0x00000000	0.0
57	0x00000000	0.0
58	0x00000000	0.0
59	0x00000000	0.0
60	0x00000000	0.0
61	0x00000000	0.0
62	0x00000000	0.0
63	0x00000000	0.0
64	0x00000000	0.0
65	0x00000000	0.0
66	0x00000000	0.0
67	0x00000000	0.0
68	0x00000000	0.0
69	0x00000000	0.0
70	0x00000000	0.0
71	0x00000000	0.0
72	0x00000000	0.0
73	0x00000000	0.0
74	0x00000000	0.0
75	0x00000000	0.0
76	0x00000000	0.0
77	0x00000000	0.0
78	0x00000000	0.0
79	0x00000000	0.0
80	0x00000000	0.0
81	0x00000000	0.0
82	0x00000000	0.0
83	0x00000000	0.0
84	0x00000000	0.0
85	0x00000000	0.0
86	0x00000000	0.0
87	0x00000000	0.0
88	0x00000000	0.0
89	0x00000000	0.0
90	0x00000000	0.0
91	0x00000000	0.0
92	0x00000000	0.0
93	0x00000000	0.0
94	0x00000000	0.0
95	0x00000000	0.0
96	0x00000000	0.0
97	0x00000000	0.0
98	0x00000000	0.0
99	0x00000000	0.0
100	0x00000000	0.0
101	0x00000000	0.0
102	0x00000000	0.0
103	0x00000000	0.0
104	0x00000000	0.0
105	0x00000000	0.0
106	0x00000000	0.0
107	0x00000000	0.0
108	0x00000000	0.0
109	0x00000000	0.0
110	0x00000000	0.0
111	0x00000000	0.0
112	0x00000000	0.0
113	0x00000000	0.0
114	0x00000000	0.0
115	0x00000000	0.0
116	0x00000000	0.0
117	0x00000000	0.0
118	0x00000000	0.0
119	0x00000000	0.0
120	0x00000000	0.0
121	0x00000000	0.0
122	0x00000000	0.0
123	0x00000000	0.0
124	0x00000000	0.0
125	0x00000000	0.0
126	0x00000000	0.0
127	0x00000000	0.0

network_body._body_endoder.seq_layers.2.weight f4 [128, 128]
0	0x3dec5af6	0.11540787
1	0x3d1e8b14	0.038706854
2	0xbd1d77e9	-0.038444433
3	0x3d5e5e5b	0.054289203
4	0x3e119b25	0.14219339
5	0xbe2327ba	-0.15933123
6	0x3e1d00a6	0.15332279
7	0x3e2057e8	0.15658534
8	0x3dff0399	0.12451858
9	0xbcaea45d	-0.021318609
10	0x3ded6049	0.115906306
11	0xbe15a646	-0.1461421
12	0x3e0934a4	0.13398987
13	0x3dda2bf5	0.106529154
14	0xbde7c609	-0.11317069
15	0xbe2a180f	-0.1661074
16	0x3c82879d	0.015933806
17	0xbd5a8dc0	-0.05335784
18	0x3c27ba2b	0.010237257
19	0xbd506bc9	-0.050884042
20	0xbbdd3dbe	-0.006751745
21	0x3dd1adeb	0.1023825
22	0x3d841a81	0.06450368
23	0xbdae13ef	-0.08499896
24	0x3e040c55	0.1289533
25	0x3dc356f5	0.0953807
26	0xbc85c574	-0.016329505
27	0xbd8b3e6f	-0.06799018
28	0xbd8c59e1	-0.068530805
29	0xbe09106c	-0.1338517
30	0xbdc099dc	-0.09404346
31	0xbddfd519	-0.10929317
32	0xbe67be3a	-0.2263116
33	0x3e475db2	0.19469336
34	0xbb932bfe	-0.0044913283
35	0x3e1329f3	0.14371471
36	0xbd7c6317	-0.061617937
37	0xbe286003	-0.16442876
38	0xbe2f76b2	-0.17135122
39	0xbd8d5a11	-0.069019444
40	0x3d53d27e	0.051714413
41	0x3c946b2b	0.018117508
42	0x3e34b95c	0.17648834
43	0x3d4c4e7f	0.049879547
44	0xbd248bad	-0.040172268
45	0x3d8906db	0.06690761
46	0x3e4e6fd7	0.20159851
47	0x3d8ee330	0.06976926
48	0x3e0d8fb0	0.13824344
49	0x3cb6538a	0.022256631
50	0xbd33c80d	-0.043891955
51	0x3d6ba650	0.057531655
52	0xbe426267	-0.1898285
53	0x3cec8734	0.028873064
54	0x3cdc35a8	0.026881054
55	0xbd9134ab	-0.07090124
56	0xbe0c577e	-0.1370525
57	0xbce1fb77	-0.027585728
58	0xbd42003e	-0.047363512
59	0xbbef47e0	-0.0073022693
60	0x3e02b389	0.127638
61	0xbd3394c4	-0.043843046
62	0x3e1f6f02	0.1556969
63	0xbbeb1ad6	-0.00717483
64	0xbdb19fa6	-0.08673029
65	0x3c9a653b	0.018847099
66	0xbd7fa7e1	-0.06241596
67	0xbdba2877	-0.09089749
68	0x3d937185	0.071993865
69	0xbddeae28	-0.108730614
70	0x3dc6650b	0.09687241
71	0xbbf80c22	-0.0075698057
72	0xbac9397f	-0.0015352218
73	0x3dd30535	0.103037275
74	0x3d4cf0bf	0.05003428
75	0xbc754b67	-0.014971591
76	0x3a8dd8cd	0.0010822058
77	0x3df99086	0.12185769
78	0x3e08bcbe	0.1335325
79	0xbd853341	-0.065039165
80	0x3d757893	0.05992944
81	0xbcb8c07c	-0.022552721
82	0x3db7f644	0.08982518
83	0x3c776699	0.015100145
84	0xbd8f20b3	-0.06988659
85	0x3d33e5a9	0.043920193
86	0xbe0b800f	-0.13623069
87	0xbd2ac2f0	-0.041689813
88	0xbd024b1d	-0.031809915
89	0x3cee9641	0.029124381
90	0xbd2ee978	-0.042703122
91	0x3d4cb81a	0.04998026
92	0x3d3f8f60	0.046767592
93	0x3d4a3d8d	0.049375106
94	0xbd0fd80f	-0.03511816
95	0xbdafd022	-0.0858462
96	0x3d53def2	0.05172629
97	0x3d04cba5	0.032420773
98	0xbd10e877	-0.035377946
99	0xbe410ca0	-0.18852472
100	0xbe14350e	-0.14473364
101	0xbde842f2	-0.11340894
102	0x3df8fc4b	0.12157496
103	0xbd7fa26b	-0.062410753
104	0x3d8f7f2b	0.07006677
105	0xbdb6c60e	-0.08924495
106	0x3e1b982a	0.15194765
107	0x3c7a7de6	0.015288806
108	0x3cb44f9d	0.022010619
109	0xbe423731	-0.18966366
110	0xbdb47147	-0.088106684
111	0x3ca73917	0.020412965
112	0x3dfa54a1	0.12223173
113	0xbd82e048	-0.063904345
114	0xbd66a729	-0.05631176
115	0x3da91c56	0.08257358
116	0x3d8a1076	0.06741421
117	0x3cb7fd48	0.022459641
118	0xbb557fa4	-0.00325773
119	0xbd46c37c	-0.048526272
120	0xbdd42207	-0.10358053
121	0x3b9dbf61	0.004814074
122	0x3dbd77bb	0.092513524
123	0x3b1b5668	0.0023702625
124	0xbd64b430	-0.055835903
125	0xbd5f2a5e	-0.054483764
126	0x3de616f0	0.11234844
127	0x3d74fcd6	0.059811436
128	0xbe1e5128	-0.15460646
129	0xbd9170ed	-0.07101617
130	0xbe03487b	-0.12820618
131	0xbd8c7b2a	-0.06859429
132	0xbcd3f9be	-0.025875922
133	0xbe1ad107	-0.151188
134	0xbc7c7895	-0.015409608
135	0xbd03e578	-0.03220126
136	0xbdde7331	-0.10861815
137	0xbdd49391	-0.103797086
138	0xbd4f9399	-0.05067787
139	0xbdcecb58	-0.100973785
140	0x3dafb91a	0.08580227
141	0x3d74f2dd	0.059801925
142	0xbd6608b2	-0.056160636
143	0x3ca93d04	0.020658977
144	0x3d55e412	0.052219458
145	0xbdf497d6	-0.11943023
146	0x3dcf9a4a	0.1013685
147	0x3d474588	0.048650295
148	0x3d85dfe1	0.06536842
149	0xbc6b6134	-0.014366437
150	0x3cb8d5c7	0.022562874
151	0xbe26674d	-0.16250344
152	0xbdd70373	-0.10498705
153	0xbd8eb437	-0.06967967
154	0xbd57035a	-0.05249343
155	0xbc3c4cbf	-0.011492907
156	0xbc946feb	-0.018119773
157	0xbd2ad895	-0.041710455
158	0x3d4db7fd	0.050224293
159	0xbdf5b8b7	-0.11998122
160	0x3e010a2b	0.12601535
161	0xbdec209a	-0.11529656
162	0xbc9d6ee1	-0.01921791
163	0x3d60b28a	0.054857768
164	0xbc5690a4	-0.013096008
165	0x3d578d01	0.052624706
166	0x3bc5e510	0.0060392693
167	0x3e52643c	0.20546049
168	0x3df4ea98	0.11958808
169	0x3dc1300e	0.09432994
170	0x3d421fc6	0.047393583
171	0x3c20a761	0.009805531
172	0xbd37e9fb	-0.044900876
173	0x3c9435b3	0.018092012
174	0x3bf29d0e	0.0074039763
175	0x3d97038d	0.07373724
176	0x3ce7c55b	0.028292349
177	0x3d90c13d	0.07068107
178	0xbcf28527	-0.029604508
179	0xbe2d4d95	-0.16924126
180	0xbcc39f6b	-0.023879727
181	0x3e29f744	0.1659823
182	0xbc3838b8	-0.011243992
183	0x3da027b9	0.078200765
184	0x3d91124b	0.07083567
185	0x3d37c9aa	0.044870056
186	0xbdf6a9ab	-0.1204408
187	0x3de78818	0.11305255
188	0xbcfd969a	-0.030955601
189	0xbe212e1d	-0.15740247
190	0x3c216d97	0.009852788
191	0xbbc9b32c	-0.006155392
192	0xbc40765b	-0.011746968
193	0x3d4907fe	0.049079888
194	0x3cdd6078	0.027023539
195	0x3da88e00	0.08230209
196	0x3d45f83b	0.048332434
197	0x3cae6e7d	0.02129292
198	0xbd59fdd2	-0.053220578
199	0xbdc778ee	-0.097398624
200	0x3d21745d	0.039417613
201	0xbd911e4f	-0.07085859
202	0xbe01365c	-0.12618393
203	0x3e2263e2	0.15858415
204	0x3d597a7e	0.053095333
205	0x3db7ba10	0.089710355
206	0xbe27eb57	-0.16398369
207	0xbc879ac8	-0.016553298
208	0x3cc2b2c9	0.023766892
209	0x3c9d697b	0.019215336
210	0xbe55515f	-0.20831822
211	0xbe0f7833	-0.14010696
212	0x3c8e06da	0.017337251
213	0xbbd241f2	-0.0064165527
214	0xbe11fe81	-0.14257242
215	0xbe355042	-0.17706397
216	0xbd127864	-0.035759345
217	0xbca453a0	-0.020059407
218	0x3ce8dad9	0.028424667
219	0xbd936522	-0.07197024
220	0xbcc32cab	-0.02382501
221	0x3daaebb6	0.083457395
222	0x3dbf6536	0.09345476
223	0x3dc625f8	0.09675211
224	0xbce6faa3	-0.028195685
225	0x3d5e2958	0.054238647
226	0xbe2487b2	-0.16067389
227	0xbd71e356	-0.059054695
228	0x3d9c7794	0.07639995
229	0xbd90cc91	-0.07070268
230	0xbd855b7d	-0.06511591
231	0xbc190839	-0.009340339
232	0x3e0e5ea4	0.1390329
233	0xbdd045aa	-0.10169537
234	0x3e315b8b	0.17320077
235	0x3da581c9	0.08081395
236	0x3ce8bd78	0.028410658
237	0x3cd0a041	0.02546704
238	0xbd944525	-0.07239751
239	0x3e20d37b	0.15705673
240	0x3c7ecc3f	0.015551626
241	0x3b7e212e	0.00387771
242	0xbd854e06	-0.065090224
243	0xbcf16c59	-0.02947061
244	0xbdf954df	-0.12174391
245	0xbd907c71	-0.07054985
246	0x3e3d152c	0.18465108
247	0xbcffb85c	-0.03121584
248	0x3c45f9fe	0.012083529
249	0xbddc6af3	-0.107625864
250	0xbc7b1eed	-0.0153271975
251	0x3d6f454e	0.058415703
252	0x3c332472	0.010933982
253	0x3d30fb2a	0.04320828
254	0x3e2b6269	0.16736759
255	0xbe063cc3	-0.13109116

network_body._body_endoder.seq_layers.2.bias f4 [128]
0	0x00000000	0.0
1	0x00000000	0.0
2	0x00000000	0.0
3	0x00000000	0.0
4	0x00000000	0.0
5	0x00000000	0.0
6	0x00000000	0.0
7	0x00000000	0.0
8	0x00000000	0.0
9	0x00000000	0.0
10	0x00000000	0.0
11	0x00000000	0.0
12	0x00000000	0.0
13	0x00000000	0.0
14	0x00000000	0.0
15	0x00000000	0.0
16	0x00000000	0.0
17	0x00000000	0.0
18	0x00000000	0.0
19	0x00000000	0.0
20	0x00000000	0.0
21	0x00000000	0.0
22	0x00000000	0.0
23	0x00000000	0.0
24	0x00000000	0.0
25	0x00000000	0.0
26	0x00000000	0.0
27	0x00000000	0.0
28	0x00000000	0.0
29	0x00000000	0.0
30	0x00000000	0.0
31	0x00000000	0.0
32	0x00000000	0.0
33	0x00000000	0.0
34	0x00000000	0.0
35	0x00000000	0.0
36	0x00000000	0.0
37	0x00000000	0.0
38	0x00000000	0.0
39	0x00000000	0.0
40	0x00000000	0.0
41	0x00000000	0.0
42	0x00000000	0.0
43	0x00000000	0.0
44	0x00000000	0.0
45	0x00000000	0.0
46	0x00000000	0.0
47	0x00000000	0.0
48	0x00000000	0.0
49	0x00000000	0.0
50	0x00000000	0.0
51	0x00000000	0.0
52	0x00000000	0.0
53	0x00000000	0.0
54	0x00000000	0.0
55	0x00000000	0.0
56	0x00000000	0.0
57	0x00000000	0.0
58	0x00000000	0.0
59	0x00000000	0.0
60	0x00000000	0.0
61	0x00000000	0.0
62	0x00000000	0.0
63	0x00000000	0.0
64	0x00000000	0.0
65	0x00000000	0.0
66	0x00000000	0.0
67	0x00000000	0.0
68	0x00000000	0.0
69	0x00000000	0.0
70	0x00000000	0.0
71	0x00000000	0.0
72	0x00000000	0.0
73	0x00000000	0.0
74	0x00000000	0.0
75	0x00000000	0.0
76	0x00000000	0.0
77	0x00000000	0.0
78	0x00000000	0.0
79	0x00000000	0.0
80	0x00000000	0.0
81	0x00000000	0.0
82	0x00000000	0.0
83	0x00000000	0.0
84	0x00000000	0.0
85	0x00000000	0.0
86	0x00000000	0.0
87	0x00000000	0.0
88	0x00000000	0.0
89	0x00000000	0.0
90	0x00000000	0.0
91	0x00000000	0.0
92	0x00000000	0.0
93	0x00000000	0.0
94	0x00000000	0.0
95	0x00000000	0.0
96	0x00000000	0.0
97	0x00000000	0.0
98	0x00000000	0.0
99	0x00000000	0.0
100	0x00000000	0.0
101	0x00000000	0.0
102	0x00000000	0.0
103	0x00000000	0.0
104	0x00000000	0.0
105	0x00000000	0.0
106	0x00000000	0.0
107	0x00000000	0.0
108	0x00000000	0.0
109	0x00000000	0.0
110	0x00000000	0.0
111	0x00000000	0.0
112	0x00000000	0.0
113	0x00000000	0.0
114	0x00000000	0.0
115	0x00000000	0.0
116	0x00000000	0.0
117	0x00000000	0.0
118	0x00000000	0.0
119	0x00000000	0.0
120	0x00000000	0.0
121	0x00000000	0.0
122	0x00000000	0.0
123	0x00000000	0.0
124	0x00000000	0.0
125	0x00000000	0.0
126	0x00000000	0.0
127	0x00000000	0.0

action_model._continuous_distribution.mu.weight f4 [1, 128]
0	0xbbdda88a	-0.006764476
1	0xbbb6deb6	-0.0055807484
2	0x3c5ffc6b	0.013671021
3	0xbb2b70db	-0.0026159796
4	0xbb05c263	-0.0020410053
5	0x3d16fdac	0.036863014
6	0x3d0d271f	0.034461137
7	0xbc92989c	-0.017895035
8	0xbba2d15f	-0.0049688066
9	0xbbfc512d	-0.0077001066
10	0xbce867d7	-0.028369827
11	0x3ab2f3ff	0.0013653039
12	0xbb70eaf8	-0.0036761146
13	0xbcb0854b	-0.021547934
14	0x3bc26489	0.005932395
15	0x3cb80663	0.022463983
16	0xbc210c08	-0.009829529
17	0x3b70a01a	0.0036716522
18	0xbcfd67bb	-0.030933252
19	0x3c7b7df2	0.015349852
20	0x3c811436	0.015756708
21	0xbd046f64	-0.032332793
22	0xbc23e21a	-0.010002637
23	0xbc8bd032	-0.017067049
24	0x3cbc713a	0.02300321
25	0x3cc31b9b	0.023816874
26	0x3c1e11cb	0.009647797
27	0x3d1e6cfc	0.038678154
28	0x3c941f1f	0.018081246
29	0x3b7d192d	0.0038619742
30	0x3c377e9c	0.01119962
31	0x3cbbc8cb	0.022922894
32	0x3b7583c3	0.003746257
33	0xbc7da8c0	-0.015482128
34	0xbbea429a	-0.007149053
35	0xbc727e5d	-0.014800635
36	0xbccd0758	-0.025027916
37	0xbc8cd76f	-0.01719257
38	0x3bccae63	0.0062463745
39	0xbc5e6f72	-0.013576375
40	0x3c9e72e3	0.019341892
41	0xbc3e40ed	-0.011612159
42	0x3bb07a0b	0.0053856424
43	0xbc9a3efe	-0.018828865
44	0xbd0fa519	-0.03506956
45	0xbd4fbae7	-0.050715353
46	0x3cfa273d	0.030536288
47	0x3c9bf551	0.019037874
48	0xbc07fde3	-0.008300277
49	0x3c02ebcb	0.007990788
50	0x3cc87d2c	0.02447375
51	0x3bd4081b	0.006470693
52	0xbc4d82ba	-0.012543375
53	0x3d38e0f0	0.045136392
54	0xba2b835f	-0.0006542708
55	0x3d3d7a4b	0.046259206
56	0xbb869ff4	-0.0041084234
57	0xbcfb4955	-0.030674616
58	0xbb5e35f2	-0.0033906666
59	0xbc8a431f	-0.016877709
60	0x3bbf6e7c	0.005842028
61	0x3af6ea9a	0.0018838227
62	0xbc565522	-0.013081821
63	0xbc00a451	-0.007851676
64	0x3cc4471c	0.023959689
65	0x3d08d517	0.033406343
66	0x3c971444	0.01844228
67	0x3b186fb2	0.0023259935
68	0xbcc52c1f	-0.02406889
69	0xbcda89da	-0.02667706
70	0x3b9b34d3	0.0047365217
71	0xba8dba77	-0.0010813017
72	0x3ba0d74a	0.004908477
73	0xbb61867a	-0.003441243
74	0xbbcd87f7	-0.006272312
75	0xbcc19879	-0.023632275
76	0xbc33bee6	-0.010970807
77	0x3c298157	0.010345778
78	0xbc1341e3	-0.008987877
79	0xbce2e470	-0.027696818
80	0x3c80be5a	0.015715767
81	0xbc206a92	-0.009791033
82	0xbc89bfdf	-0.016815124
83	0x3bee17ff	0.007266044
84	0x3c6b6298	0.014366768
85	0xbcc1fedd	-0.023681099
86	0x3cd09027	0.025459362
87	0x3c11a7bf	0.008890091
88	0x3c27e69e	0.0102478545
89	0x3bc71faf	0.006076775
90	0x3c8c40e7	0.017120792
91	0xbd157627	-0.036489632
92	0x3a28abef	0.00064343115
93	0x3c0b0cbb	0.008486922
94	0x3ba0f42b	0.0049119196
95	0xbb821264	-0.0039694775
96	0xbc62c592	-0.01384105
97	0x3c87913a	0.016548742
98	0xbce5994f	-0.028027205
99	0x3c2af6bc	0.010434803
100	0xbb4acce7	-0.0030944885
101	0x3c24fad1	0.010069565
102	0xbc4221f3	-0.011848914
103	0xbc2a1e4b	-0.010383199
104	0x3ccd0bca	0.025030036
105	0x3c8a3da3	0.016875094
106	0xbc3533b7	-0.011059693
107	0x3cda22e3	0.026627963
108	0x3c3a62e0	0.011376113
109	0x3bfafd17	0.007659565
110	0x3c57152b	0.013127605
111	0x3bd2aa7d	0.006429015
112	0xbc58a160	-0.013222069
113	0xbd0591dc	-0.032609805
114	0xbca00517	-0.019533677
115	0xbc14c189	-0.0090793455
116	0x3c9a5d7b	0.018843403
117	0x3c7a979f	0.015294938
118	0xbd06bb19	-0.032893274
119	0x3cc5fff4	0.0241699
120	0xbd1c82e3	-0.03821076
121	0x3c614c45	0.013751094
122	0x3ca03ebe	0.019561168
123	0x3bdfadf7	0.006826158
124	0xbcb0e004	-0.021591194
125	0x39df9605	0.00042645648
126	0x3b6e2f80	0.003634423
127	0x3cbc5d6f	0.022993771

action_model._discrete_distribution.branches.0.weight f4 [1, 128]
0	0x3cd2e898	0.025745675
1	0x3b8be035	0.004268671
2	0x3beaba52	0.0071633244
3	0x3b87e3cf	0.00414703
4	0xbbf85def	-0.007579557
5	0xbbc85646	-0.0061138
6	0x3c8038fc	0.015652172
7	0xbc2567b2	-0.010095524
8	0x3ac11341	0.001473047
9	0xbab670df	-0.0013919136
10	0xbc586c18	-0.013209365
11	0x3bc2dca4	0.0059467126
12	0xbc3914db	-0.011296476
13	0x3ad9dc68	0.0016621472
14	0x38cbcbeb	9.717777e-05
15	0x3c0980b1	0.008392499
16	0x3c3308d0	0.010927394
17	0x3bd3518b	0.0064489297
18	0x3c0ffefb	0.008788819
19	0xbc19ded1	-0.0093915025
20	0x3bbd137a	0.005770144
21	0x38f3f0d8	0.000116320036
22	0xbb879647	-0.0041377875
23	0x3c32b3a8	0.010907091
24	0xbc810e8a	-0.015754003
25	0x3cb5b1fb	0.022179594
26	0x3c85a9b3	0.01631627
27	0x3c7afc9b	0.015319015
28	0xbb6558dd	-0.0034995594
29	0xbc4033d6	-0.011731109
30	0xbc0c9d7f	-0.008582472
31	0xbc060d32	-0.008181857
32	0xbad9c70b	-0.0016615106
33	0x3ba6c489	0.005089347
34	0x3c3b4ffc	0.011432644
35	0x3beecbeb	0.0072874925
36	0xbc45ac6b	-0.012065033
37	0xbb260c5b	-0.0025336954
38	0x3b5e02da	0.0033876211
39	0xba955333	-0.0011392593
40	0xbbf2c5a5	-0.007408815
41	0xbc6048b3	-0.013689208
42	0x3c02740e	0.00796224
43	0xbc2f68eb	-0.010706167
44	0xbc3fd7fc	-0.0117092095
45	0xbcc576b6	-0.024104457
46	0x3c8104d7	0.015749378
47	0x3b0f65f2	0.0021880833
48	0xbb938221	-0.0045015966
49	0x3c2f3ed3	0.010696131
50	0xbbda6a7a	-0.006665525
51	0xbc22632f	-0.0099113425
52	0x3a2b6b59	0.00065391284
53	0xbc6c00d5	-0.014404495
54	0xba8d0448	-0.0010758722
55	0xbc464b2b	-0.012102882
56	0x3c148bcb	0.009066532
57	0x3cc50e8e	0.024054792
58	0x3c35f897	0.011106632
59	0x3bb9ef0f	0.00567425
60	0xbc4edc53	-0.012625772
61	0xbb922942	-0.0044604847
62	0xbc578957	-0.013155303
63	0x3c1b2928	0.009470262
64	0xbc17e9ed	-0.009272081
65	0x3b084332	0.0020792005
66	0xbb1413ff	-0.0022594926
67	0x3a9bf8e7	0.001189974
68	0x3c043a33	0.008070516
69	0xbac48dfc	-0.0014995928
70	0xbb928854	-0.004471818
71	0x3cc8d0a8	0.024513558
72	0x3c2bcbe7	0.010485626
73	0xbaaa2754	-0.0012981691
74	0xb8ec9d97	-0.0001128271
75	0xbc095296	-0.008381506
76	0xbbd0c3d8	-0.0063710026
77	0x3c251b1d	0.010077265
78	0xb91fe529	-0.0001524879
79	0xbb42045a	-0.0029604645
80	0xbc1198da	-0.00888654
81	0x3c404fb5	0.011737754
82	0xbc75e3b7	-0.015007905
83	0xbb02b032	-0.0019941446
84	0x3c92742a	0.017877657
85	0xbb8371e7	-0.004011381
86	0xbbd1ffc2	-0.0064086625
87	0xbc4ac18b	-0.012375246
88	0xbb055eab	-0.0020350616
89	0x3b82c23c	0.0039904397
90	0x39e4a64a	0.00043611444
91	0x3c48eb6e	0.012263162
92	0x39c8b4af	0.00038281592
93	0xbbdcaa43	-0.006734164
94	0x3b80900c	0.0039234217
95	0x3b88e340	0.004177481
96	0xbbb8edd7	-0.005643587
97	0x3b49d1be	0.0030795182
98	0xbbb054ba	-0.005381194
99	0x3b1618df	0.0022903008
100	0xbc139e32	-0.009009885
101	0xbc91850d	-0.017763639
102	0xbb91e4c7	-0.004452321
103	0xbc04fdf9	-0.008117192
104	0xbc61346b	-0.013745408
105	0xbb7679af	-0.003760915
106	0x3be8f2ab	0.0071090064
107	0x3c1dbdfd	0.009627816
108	0xbc17b82c	-0.009260219
109	0xba0ec46d	-0.000544614
110	0x395d2a4d	0.0002109196
111	0xbb5e6e4d	-0.0033940256
112	0xbc75ec17	-0.0150099015
113	0xba7b096b	-0.00095762935
114	0xbc12cb31	-0.008959577
115	0x3c47b4b3	0.012189078
116	0x3c1b3161	0.009472222
117	0xbb4c4ab4	-0.0031172456
118	0x3967c0e7	0.00022101738
119	0xbc8b87c0	-0.017032504
120	0xbb5ae4a7	-0.0033400448
121	0x3bd6d28f	0.0065558623
122	0xbb5547b5	-0.0032543961
123	0x3c149617	0.009068987
124	0x3b98f77d	0.004668175
125	0x3b599335	0.0033199314
126	0xbbeb167b	-0.0071743107
127	0xbc85b378	-0.016320929

network_body._body_endoder.seq_layers.0.weight f4 [128, 6]
0	0xbe00571e	-0.12533233
1	0x3e89704a	0.26843482
2	0xbe91c188	-0.28467965
3	0xbe0bbbd1	-0.13645865
4	0x3ecf2751	0.40459684
5	0x3ea09c8d	0.3136944
6	0x3e481d21	0.19542362
7	0xbeb6d5e2	-0.35710055
8	0xbea801ee	-0.32813972
9	0xbf37fb1a	-0.71867526
10	0x3e5509b2	0.2080448
11	0xbe94aacc	-0.29036558
12	0xbc8dd5da	-0.017313886
13	0xbf525e00	-0.8217468
14	0xbe61659d	-0.22011419
15	0xbee1953b	-0.44059166
16	0x3e3c81f6	0.18408951
17	0x3eab5c23	0.33468732
18	0xbc476369	-0.012169697
19	0xbe315a9c	-0.17319721
20	0x3f2ebe61	0.68259245
21	0x3e80178d	0.25017968
22	0x3e653c3a	0.22386256
23	0x3d8507aa	0.064956024
24	0x3e5ab3b4	0.21357614
25	0x3ef9c48d	0.4878277
26	0xbec2e69f	-0.38066575
27	0xbe2c1309	-0.16804136
28	0x3dcfcd6b	0.10146602
29	0x3eefeaf9	0.46858957
30	0xbe88ce5d	-0.26719943
31	0xbf1379d5	-0.57607776
32	0x3d13123d	0.035906065
33	0x3e02f318	0.12788045
34	0x3db04b82	0.08608152
35	0x3d40359a	0.04692612
36	0x3e89f3f9	0.2694395
37	0x3f656967	0.89613956
38	0x3f0ff285	0.5622943
39	0x3e24daa9	0.16099037
40	0x3e950828	0.29107785
41	0x3e03ee44	0.1288386
42	0x3e721992	0.23642567
43	0x3ea9d191	0.331677
44	0x3e9da1ec	0.307876
45	0x3e9d12b1	0.30678323
46	0xbe08f7a9	-0.13375725
47	0x3ea558ba	0.32294255
48	0x3debf115	0.11520592
49	0x3f1a3e3b	0.60251206
50	0x3ea2ba12	0.31782585
51	0xbef64e2e	-0.4810652
52	0xbc3f42f3	-0.011673677
53	0xbf70e7a1	-0.9410344
54	0xbee5fc5d	-0.449191
55	0xbd7343c1	-0.059390787
56	0xbea5728c	-0.32313955
57	0x3f5a0e10	0.8517771
58	0xbf72a817	-0.94787735
59	0x3f10d000	0.5656738
60	0x3ea5066a	0.32231456
61	0x3f0eb679	0.5574718
62	0x3f27ea07	0.6559147
63	0xbe88989a	-0.26678926
64	0xbf3ad48c	-0.7298057
65	0xbf00f271	-0.50369936
66	0x3f0b2189	0.54348046
67	0xbd757a72	-0.059931226
68	0x3f15c5d1	0.5850497
69	0x3e06758e	0.13130781
70	0xbec9f19d	-0.3944215
71	0xbef6da1d	-0.48213282
72	0x3e5de88d	0.21670742
73	0xbefd0e95	-0.49425188
74	0x3ee50041	0.44726756
75	0x3eb683bf	0.3564739
76	0xbf08c2ef	-0.53422445
77	0xbed3f9c1	-0.41401485
78	0x3e4fffb6	0.2031239
79	0xbde803ce	-0.11328851
80	0xbe09ace4	-0.13444859
81	0x3d413cb7	0.047177043
82	0x3e926292	0.28590828
83	0xbd81c532	-0.0633644
84	0xbe955915	-0.29169527
85	0x3e6a2334	0.22864991
86	0x3f1a10ce	0.6018189
87	0xbeccaf6e	-0.39977592
88	0x3d96fa56	0.073719665
89	0xbdf79cd4	-0.120904595
90	0x3d7afb9e	0.061275117
91	0x3ea2fd65	0.3183395
92	0xbd5f255d	-0.05447899
93	0x3d417197	0.04722747
94	0x3e8dd376	0.27700394
95	0x3dee944a	0.11649378
96	0x3ed13bdd	0.40865985
97	0xbe35b8d9	-0.17746295
98	0x3e19ef26	0.15032634
99	0x3d46fbfc	0.048580155
100	0x3ce609b1	0.028080793
101	0x3e1e58ed	0.1546361
102	0xbe4c9cc4	-0.19981676
103	0x3e9d6338	0.3073976
104	0x3f209128	0.6272149
105	0x3c4a9244	0.012363974
106	0xbdb8b300	-0.090185165
107	0xbdda5685	-0.106610335
108	0xbb9b9d8b	-0.004749005
109	0x3edb9646	0.42888087
110	0xbf240dd4	-0.640836
111	0x3dbf6e6a	0.09347232
112	0xbefa3de4	-0.48875344
113	0xbd3732fb	-0.044726353
114	0x3eba465d	0.36381808
115	0x3f5d778f	0.86510557
116	0xbeae648a	-0.3406108
117	0x3e30473d	0.17214675
118	0x3f5e5b87	0.8685841
119	0xbe77deff	-0.2420616
120	0xbf42622c	-0.7593105
121	0x3f2b2456	0.6685232
122	0x3b62338f	0.0034515595
123	0xbf213402	-0.6296998
124	0x3eac23fe	0.3362121
125	0x3edef8ec	0.43549287
126	0x3d295b38	0.04134676
127	0x3e490443	0.19630532
128	0xbf548a73	-0.83023757
129	0xbdb19e37	-0.08672755
130	0x3e92ae5e	0.28648657
131	0x3e818dde	0.2530355
132	0x3e37654c	0.17909735
133	0xbefc8a15	-0.49324098
134	0xbe4b97b6	-0.19882092
135	0xbe7b25b8	-0.24526107
136	0x3e7416c7	0.23836814
137	0xbefd8782	-0.49517447
138	0xbdf9e04d	-0.12200985
139	0xbc1a9326	-0.009434497
140	0xbed7e0d4	-0.42163718
141	0xbe5bb309	-0.21455015
142	0xbebf0f38	-0.37316298
143	0xbe1fb83b	-0.15597622
144	0xbf62ee8b	-0.8864524
145	0x3e7b830c	0.24561709
146	0x3f89e60f	1.0773333
147	0xbdb49db5	-0.08819143
148	0x3e79f32e	0.24409172
149	0x3f0b38da	0.54383624
150	0xbf4cb3ba	-0.7996174
151	0xbeb66107	-0.356209
152	0xbf1ba50c	-0.60798717
153	0xbf03b5eb	-0.5144946
154	0x3dec39eb	0.115344845
155	0xbe8e9e53	-0.27855167
156	0xbe538831	-0.20657422
157	0x3e9e7c6b	0.30954298
158	0x3f25373f	0.64537424
159	0xbeaccb6b	-0.33748946
160	0x3d63e18c	0.05563502
161	0x3ebd183c	0.36932552
162	0x3e82142c	0.25406015
163	0x3dbf153e	0.093302235
164	0x3a66d66d	0.00088057556
165	0x3e11339a	0.1417984
166	0x3f404318	0.75102377
167	0x3e41dbd7	0.18931518
168	0x3ebb6b13	0.3660513
169	0x3f2f286c	0.68421054
170	0x3e3aae9c	0.1823067
171	0xbf42e1d3	-0.7612583
172	0x3e662bce	0.22477648
173	0xbdb7ec6f	-0.08980643
174	0xbeccda7d	-0.40010443
175	0xbe901ef3	-0.28148612
176	0x3c10f62b	0.0088477535
177	0x3cfa7fe0	0.030578554
178	0x3f057706	0.5213474
179	0xbe5ad518	-0.21370351
180	0x3f109b92	0.5648738
181	0x3e0668b8	0.13125885
182	0x3e4a35f5	0.19747145
183	0xbf1fa57c	-0.62361884
184	0x3d25a992	0.040444918
185	0xbe784722	-0.24245885
186	0x3d8a9669	0.0676697
187	0xbdd65c53	-0.10466828
188	0x3f501814	0.8128674
189	0x3c0c223a	0.008553082
190	0xbd6620bb	-0.056183558
191	0x3d25055c	0.040288314
192	0x3dd82ec4	0.10555795
193	0xbc1b0062	-0.0094605405
194	0x3decb32c	0.11557612
195	0x3e15b459	0.14619578
196	0x3f0d1c62	0.55121434
197	0xbd6c0d06	-0.057629608
198	0xbe4b7c45	-0.19871624
199	0x3efad689	0.48991802
200	0x3e59a2f4	0.21253568
201	0xbf91b902	-1.1384585
202	0xbebaf207	-0.36512777
203	0x3edf6350	0.43630457
204	0xbe09740f	-0.13423179
205	0xbf0e033b	-0.5547368
206	0xbdef3a11	-0.11680997
207	0xbe0a27a3	-0.13491683
208	0x3dc3ee3b	0.09566923
209	0x3f0a192a	0.5394465
210	0xbe339372	-0.17536715
211	0x3edc497b	0.4302481
212	0xbf180f8b	-0.59398717
213	0x3e97032a	0.294946
214	0x3d89bcd0	0.06725466
215	0xbea0bade	-0.31392568
216	0xbf4ba6ec	-0.7955158
217	0xbec3391a	-0.38129503
218	0xbcf08837	-0.029361827
219	0xbe47ef26	-0.19524822
220	0xbeeab3a2	-0.45840174
221	0xbf281b77	-0.6566691
222	0xbd5c85dc	-0.053838596
223	0x3eea88f0	0.458076
224	0xbdbf5836	-0.09342997
225	0xbe293691	-0.16524722
226	0xbeddc8d9	-0.43317297
227	0xbed3c96c	-0.4136461
228	0xbebea6e9	-0.37236717
229	0xbd0b2a08	-0.03397563
230	0x3ea55032	0.32287747
231	0x3ea66ba6	0.32504004
232	0x3e0c9688	0.13729298
233	0x3f8e0850	1.1096287
234	0xbf80acc0	-1.0052719
235	0xbe32406b	-0.17407386
236	0x3efde750	0.4959054
237	0xbe4ec87c	-0.20193666
238	0xbec3ade1	-0.38218597
239	0xbe1b543d	-0.15168853
240	0x3eb4ff1c	0.35350883
241	0xbdc1ddf9	-0.09466166
242	0x3e23f508	0.16011441
243	0xbf54892a	-0.83021796
244	0x3de5ab78	0.11214346
245	0x3e994749	0.299372
246	0xbe56340d	-0.20918293
247	0xbdcaec42	-0.09908344
248	0xbe268fcc	-0.16265792
249	0x3ed491f8	0.41517615
250	0x3ed08f1a	0.40734178
251	0xbede3c75	-0.434055
252	0xbe3ff89d	-0.18747182
253	0xbd2be9a9	-0.041970883
254	0x3eb5c705	0.35503402
255	0x3f9c1b7e	1.219589

network_body._body_endoder.seq_layers.0.bias f4 [128]
0	0x00000000	0.0
1	0x00000000	0.0
2	0x00000000	0.0
3	0x00000000	0.0
4	0x00000000	0.0
5	0x00000000	0.0
6	0x00000000	0.0
7	0x00000000	0.0
8	0x00000000	0.0
9	0x00000000	0.0
10	0x00000000	0.0
11	0x00000000	0.0
12	0x00000000	0.0
13	0x00000000	0.0
14	0x00000000	0.0
15	0x00000000	0.0
16	0x00000000	0.0
17	0x00000000	0.0
18	0x00000000	0.0
19	0x00000000	0.0
20	0x00000000	0.0
21	0x00000000	0.0
22	0x00000000	0.0
23	0x00000000	0.0
24	0x00000000	0.0
25	0x00000000	0.0
26	0x00000000	0.0
27	0x00000000	0.0
28	0x00000000	0.0
29	0x00000000	0.0
30	0x00000000	0.0
31	0x00000000	0.0
32	0x00000000	0.0
33	0x00000000	0.0
34	0x00000000	0.0
35	0x00000000	0.0
36	0x00000000	0.0
37	0x00000000	0.0
38	0x00000000	0.0
39	0x00000000	0.0
40	0x00000000	0.0
41	0x00000000	0.0
42	0x00000000	0.0
43	0x00000000	0.0
44	0x00000000	0.0
45	0x00000000	0.0
46	0x00000000	0.0
47	0x00000000	0.0
48	0x00000000	0.0
49	0x00000000	0.0
50	0x00000000	0.0
51	0x00000000	0.0
52	0x00000000	0.0
53	0x00000000	0.0
54	0x00000000	0.0
55	0x00000000	0.0
56	0x00000000	0.0
57	0x00000000	0.0
58	0x00000000	0.0
59	0x00000000	0.0
60	0x00000000	0.0
61	0x00000000	0.0
62	0x00000000	0.0
63	0x00000000	0.0
64	0x00000000	0.0
65	0x00000000	0.0
66	0x00000000	0.0
67	0x00000000	0.0
68	0x00000000	0.0
69	0x00000000	0.0
70	0x00000000	0.0
71	0x00000000	0.0
72	0x00000000	0.0
73	0x00000000	0.0
74	0x00000000	0.0
75	0x00000000	0.0
76	0x00000000	0.0
77	0x00000000	0.0
78	0x00000000	0.0
79	0x00000000	0.0
80	0x00000000	0.0
81	0x00000000	0.0
82	0x00000000	0.0
83	0x00000000	0.0
84	0x00000000	0.0
85	0x00000000	0.0
86	0x00000000	0.0
87	0x00000000	0.0
88	0x00000000	0.0
89	0x00000000	0.0
90	0x00000000	0.0
91	0x00000000	0.0
92	0x00000000	0.0
93	0x00000000	0.0
94	0x00000000	0.0
95	0x00000000	0.0
96	0x00000000	0.0
97	0x00000000	0.0
98	0x00000000	0.0
99	0x00000000	0.0
100	0x00000000	0.0
101	0x00000000	0.0
102	0x00000000	0.0
103	0x00000000	0.0
104	0x00000000	0.0
105	0x00000000	0.0
106	0x00000000	0.0
107	0x00000000	0.0
108	0x00000000	0.0
109	0x00000000	0.0
110	0x00000000	0.0
111	0x00000000	0.0
112	0x00000000	0.0
113	0x00000000	0.0
114	0x00000000	0.0
115	0x00000000	0.0
116	0x00000000	0.0
117	0x00000000	0.0
118	0x00000000	0.0
119	0x00000000	0.0
120	0x00000000	0.0
121	0x00000000	0.0
122	0x00000000	0.0
123	0x00000000	0.0
124	0x00000000	0.0
125	0x00000000	0.0
126	0x00000000	0.0
127	0x00000000	0.0

network_body._body_endoder.seq_layers.2.weight f4 [128, 128]
0	0x3c77895d	0.015108434
1	0x3e3e32b8	0.18574035
2	0xbdf578f4	-0.119859606
3	0xbe0631d3	-0.13104944
4	0x3e111d78	0.14171398
5	0x3dc8d96f	0.09807097
6	0x3d9ea293	0.07745852
7	0x3d51841d	0.051151384
8	0x3bf41fce	0.0074500805
9	0x3db98f8f	0.09060585
10	0xbcb31515	-0.021860639
11	0x3d86da3b	0.06584593
12	0x3e0dde45	0.1385432
13	0x3e0ed12f	0.13946985
14	0xbe36aa5b	-0.17838423
15	0x3e69445f	0.22779988
16	0xbd6bfafa	-0.057612397
17	0x3e01ca20	0.12674761
18	0xbd4e51d4	-0.050371006
19	0x3cd184b5	0.025575975
20	0x3d93e711	0.07221807
21	0x3e070049	0.13183703
22	0x3d09417d	0.03350972
23	0xbc97a8e5	-0.018513152
24	0x3d95cc95	0.073144116
25	0xbd28fe09	-0.04125789
26	0xbd7f76aa	-0.062369026
27	0x3d26e579	0.040746186
28	0xbe04331b	-0.1291012
29	0x3d14a168	0.03628674
30	0x3d056c97	0.032574262
31	0xbc0b1f42	-0.008491339
32	0x3c8d170b	0.017222902
33	0x3d2ccca9	0.042187367
34	0x3d4832df	0.04887664
35	0x39d079bf	0.0003976356
36	0xbd2b0b2b	-0.041758697
37	0xbe2ce455	-0.16883977
38	0x3e47f128	0.19525588
39	0xbd72a49f	-0.059239026
40	0xbe007606	-0.12545022
41	0x3d24189d	0.040062536
42	0x3d3474f9	0.044056866
43	0x3dc934c3	0.098245166
44	0xbc5f090b	-0.013612996
45	0xbc37e5ea	-0.011224249
46	0x3cd2090d	0.025639081
47	0x3dd7d3d1	0.10538448
48	0x3ccee919	0.025257634
49	0x3d736d77	0.059430566
50	0x3d143926	0.036187313
51	0x3d3996aa	0.0453097
52	0x3e10bece	0.14135286
53	0xbbda469c	-0.0066612493
54	0x3d87560b	0.06608208
55	0xbd916796	-0.070998356
56	0xbe193512	-0.14961651
57	0xbd4de1af	-0.050264057
58	0x3ce8fec2	0.02844179
59	0x3dcc5e44	0.09978917
60	0xbd52f40c	-0.051502272
61	0xbd5bf68f	-0.053701933
62	0x3d3bb502	0.04582692
63	0x3e0308e5	0.12796362
64	0xbde0c9a6	-0.109759614
65	0x3d848469	0.06470568
66	0xbcb4d1b5	-0.022072652
67	0xbdb5b610	-0.08872616
68	0x3b277afc	0.0025555482
69	0xbe0cf6c8	-0.13766015
70	0xbd702845	-0.058632154
71	0x3c26b006	0.010173803
72	0x3d78b9c1	0.060724024
73	0xbd124294	-0.035708025
74	0x3dff672a	0.12470849
75	0xbbad79f9	-0.0052940813
76	0xbe10605e	-0.14099261
77	0xbe3165e4	-0.17324024
78	0x3c8541b1	0.016266676
79	0xbcf0ce55	-0.029395262
80	0x3e2b09ba	0.16702929
81	0x3dca13d1	0.09867061
82	0x3d4420af	0.047882732
83	0xbcb7e013	-0.022445714
84	0x3db40d88	0.087916434
85	0xbc946ded	-0.018118823
86	0x3b9440f5	0.004524345
87	0x3da1a12c	0.07892069
88	0xbddad0b9	-0.10684342
89	0xbdeec6c6	-0.11659007
90	0xbdafd9c4	-0.08586457
91	0xbd959d4b	-0.07305392
92	0xbd1100e5	-0.035401244
93	0xbccfc21b	-0.025361111
94	0x3e5430da	0.2072176
95	0x3d8f03d0	0.06983149
96	0x3d99795e	0.07493852
97	0x3832ccdc	4.2629297e-05
98	0x3b94915b	0.0045339293
99	0xbdb9a4b9	-0.090646215
100	0x3b64adc9	0.0034893623
101	0xbd6cecc9	-0.057843003
102	0xbb3136d5	-0.002704074
103	0x3d39e2ea	0.045382418
104	0xbe479550	-0.19490552
105	0x3dcb5803	0.09928896
106	0xbd4cd7dc	-0.050010547
107	0x3d59ed56	0.053204857
108	0x3e4e3226	0.20136318
109	0xbd8cc0ad	-0.068726875
110	0xbdea5d29	-0.1144355
111	0xbdfcd937	-0.12346118
112	0x3c570bee	0.013125403
113	0x3e736f35	0.23772891
114	0xbd8f5f7b	-0.07000633
115	0x3e393f3b	0.18090527
116	0xbdce3ebb	-0.10070559
117	0x3df33fa8	0.11877376
118	0x3d4aa100	0.049469948
119	0xbd312d91	-0.043256346
120	0x3b4a0c09	0.0030829927
121	0xbd963e5c	-0.07336113
122	0x3d6574e8	0.056019694
123	0x3d807b75	0.062735476
124	0xbdd7cac3	-0.105367206
125	0x3d194bc8	0.037425786
126	0x3e0100d7	0.12597977
127	0xbd120121	-0.035645608
128	0xbc2c3b33	-0.010512161
129	0x3d5c85a2	0.05383838
130	0xbd1b3aca	-0.037897862
131	0xbe4af168	-0.19818652
132	0x39b459f7	0.00034399304
133	0x3e06ceec	0.13164872
134	0x3dff5a3d	0.124683835
135	0x3e12e85b	0.14346449
136	0xbc00452b	-0.007828991
137	0x3d43838b	0.04773287
138	0xbc0ddf8a	-0.008659253
139	0xbd6500ad	-0.055908848
140	0xbd1dc8e8	-0.038521677
141	0xbc1b9c8d	-0.009497774
142	0xbd5f5638	-0.054525584
143	0x3c9706a5	0.018435786
144	0xbd8e4f82	-0.06948759
145	0xbb2cdefd	-0.0026378029
146	0xbb0e5500	-0.0021718144
147	0xbdb04c11	-0.086082585
148	0x3d5b1f2b	0.05349652
149	0xbe6d253b	-0.23158734
150	0x3d830052	0.063965455
151	0xbe262985	-0.16226776
152	0xbd07d74b	-0.033164304
153	0xbe17ff2e	-0.14843437
154	0x3e1c2c15	0.15251191
155	0x3ddd3553	0.108011864
156	0x3c8b2006	0.016983043
157	0x3cd24c66	0.025671195
158	0xbd8e7b85	-0.06957153
159	0x3e32a832	0.17446974
160	0xbd3ae62e	-0.045629673
161	0x3c1494f1	0.0090687135
162	0xbdbd92fe	-0.09256552
163	0x3ca66452	0.020311508
164	0xbbc2846e	-0.005936197
165	0x3bf3a6b2	0.007435643
166	0x3d7b8b43	0.061412107
167	0xbe1ea862	-0.1549392
168	0xbdb9a7c2	-0.090652004
169	0x3d7deb86	0.06199219
170	0xbd921eb5	-0.07134763
171	0x3cb91895	0.02259473
172	0xbd489ef6	-0.048979722
173	0x3d885784	0.06657317
174	0x3e6cc5c3	0.23122315
175	0x3c89b898	0.016811654
176	0x3d8bc6fa	0.06825061
177	0x3df5a350	0.1199404
178	0x3cb1a84e	0.0216867
179	0x3c2b11b2	0.010441231
180	0x3cc559af	0.024090616
181	0xbd811bc0	-0.06304121
182	0xbdf1f578	-0.118143976
183	0x3e0631e1	0.13104965
184	0x3da6a98a	0.08137806
185	0xbcdcf4cd	-0.026972199
186	0x3ca1072f	0.019656746
187	0xbb310edb	-0.0027016911
188	0xbc9eaef9	-0.019370543
189	0x3e532851	0.20620848
190	0x3cc8dfac	0.024520718
191	0xbde3f361	-0.11130405
192	0x3cd79680	0.026316881
193	0x3b992a6b	0.004674246
194	0x3ded20cd	0.11578522
195	0xbd672539	-0.056431983
196	0xbd30ee16	-0.043195806
197	0xbb50221f	-0.003175862
198	0xbd1e2c50	-0.03861648
199	0xbe6fc29d	-0.23414083
200	0xbca33362	-0.019921962
201	0xbd025571	-0.031819765
202	0x3d1ac94a	0.03778962
203	0x3ca4e1bd	0.020127172
204	0x3e30ff82	0.17284968
205	0xbd5956fc	-0.05306147
206	0x3d339ff9	0.043853734
207	0x3d5f6d4f	0.054547604
208	0x3e2d740b	0.16938798
209	0xbd300ed1	-0.04298288
210	0xbb26477a	-0.0025372193
211	0xbce7678e	-0.02824762
212	0xbd97cbea	-0.074119404
213	0xbd117099	-0.035507772
214	0x3e0520bf	0.13000773
215	0xbd0ba0cb	-0.03408889
216	0xbc540269	-0.012940028
217	0xbdc38e96	-0.095486805
218	0xbdca4280	-0.09875965
219	0x3ddce027	0.10784941
220	0xbde62e42	-0.11239292
221	0xbd6a89ba	-0.057260253
222	0xbb3ab75d	-0.002849064
223	0x3d2f5ad0	0.042811215
224	0xbcf3641b	-0.02971082
225	0xbcdcbeca	-0.026946444
226	0x3d62b3a5	0.055347104
227	0xbd04915a	-0.03236518
228	0x3dfc90fd	0.12332342
229	0xbdc0fb7f	-0.09422969
230	0x3dc93897	0.09825247
231	0xbe2067f0	-0.15664649
232	0x3d35878e	0.04431873
233	0x3dd99e78	0.10625929
234	0xbd9770f1	-0.07394589
235	0x3d1202fc	0.035647377
236	0xbd5138b4	-0.051079467
237	0x3e55f8c3	0.20895676
238	0xbb9c49a6	-0.0047695218
239	0xbce2935e	-0.02765816
240	0xbdd964d8	-0.106149375
241	0x3dd7db7c	0.1053991
242	0x3d574b10	0.05256182
243	0x3e1a4216	0.15064272
244	0xbd247b3c	-0.040156588
245	0xbd6c619f	-0.057710286
246	0x3c5df90d	0.013548148
247	0x3daf8b77	0.08571523
248	0xbddb9b57	-0.10722988
249	0x3c548a7f	0.012972473
250	0xbc022b62	-0.007944914
251	0x3d114c6f	0.035473283
252	0xbd4f1578	-0.050557584
253	0xbd01c7b4	-0.031684592
254	0x3c8afbb8	0.016965732
255	0x3e4b5b7a	0.19859114

network_body._body_endoder.seq_layers.2.bias f4 [128]
0	0x00000000	0.0
1	0x00000000	0.0
2	0x00000000	0.0
3	0x00000000	0.0
4	0x00000000	0.0
5	0x00000000	0.0
6	0x00000000	0.0
7	0x00000000	0.0
8	0x00000000	0.0
9	0x00000000	0.0
10	0x00000000	0.0
11	0x00000000	0.0
12	0x00000000	0.0
13	0x00000000	0.0
14	0x00000000	0.0
15	0x00000000	0.0
16	0x00000000	0.0
17	0x00000000	0.0
18	0x00000000	0.0
19	0x00000000	0.0
20	0x00000000	0.0
21	0x00000000	0.0
22	0x00000000	0.0
23	0x00000000	0.0
24	0x00000000	0.0
25	0x00000000	0.0
26	0x00000000	0.0
27	0x00000000	0.0
28	0x00000000	0.0
29	0x00000000	0.0
30	0x00000000	0.0
31	0x00000000	0.0
32	0x00000000	0.0
33	0x00000000	0.0
34	0x00000000	0.0
35	0x00000000	0.0
36	0x00000000	0.0
37	0x00000000	0.0
38	0x00000000	0.0
39	0x00000000	0.0
40	0x00000000	0.0
41	0x00000000	0.0
42	0x00000000	0.0
43	0x00000000	0.0
44	0x00000000	0.0
45	0x00000000	0.0
46	0x00000000	0.0
47	0x00000000	0.0
48	0x00000000	0.0
49	0x00000000	0.0
50	0x00000000	0.0
51	0x00000000	0.0
52	0x00000000	0.0
53	0x00000000	0.0
54	0x00000000	0.0
55	0x00000000	0.0
56	0x00000000	0.0
57	0x00000000	0.0
58	0x00000000	0.0
59	0x00000000	0.0
60	0x00000000	0.0
61	0x00000000	0.0
62	0x00000000	0.0
63	0x00000000	0.0
64	0x00000000	0.0
65	0x00000000	0.0
66	0x00000000	0.0
67	0x00000000	0.0
68	0x00000000	0.0
69	0x00000000	0.0
70	0x00000000	0.0
71	0x00000000	0.0
72	0x00000000	0.0
73	0x00000000	0.0
74	0x00000000	0.0
75	0x00000000	0.0
76	0x00000000	0.0
77	0x00000000	0.0
78	0x00000000	0.0
79	0x00000000	0.0
80	0x00000000	0.0
81	0x00000000	0.0
82	0x00000000	0.0
83	0x00000000	0.0
84	0x00000000	0.0
85	0x00000000	0.0
86	0x00000000	0.0
87	0x00000000	0.0
88	0x00000000	0.0
89	0x00000000	0.0
90	0x00000000	0.0
91	0x00000000	0.0
92	0x00000000	0.0
93	0x00000000	0.0
94	0x00000000	0.0
95	0x00000000	0.0
96	0x00000000	0.0
97	0x00000000	0.0
98	0x00000000	0.0
99	0x00000000	0.0
100	0x00000000	0.0
101	0x00000000	0.0
102	0x00000000	0.0
103	0x00000000	0.0
104	0x00000000	0.0
105	0x00000000	0.0
106	0x00000000	0.0
107	0x00000000	0.0
108	0x00000000	0.0
109	0x00000000	0.0
110	0x00000000	0.0
111	0x00000000	0.0
112	0x00000000	0.0
113	0x00000000	0.0
114	0x00000000	0.0
115	0x00000000	0.0
116	0x00000000	0.0
117	0x00000000	0.0
118	0x00000000	0.0
119	0x00000000	0.0
120	0x00000000	0.0
121	0x00000000	0.0
122	0x00000000	0.0
123	0x00000000	0.0
124	0x00000000	0.0
125	0x00000000	0.0
126	0x00000000	0.0
127	0x00000000	0.0

value_heads.value_heads.extrinsic.weight f4 [1, 128]
0	0x3dfe11b2	0.12405719
1	0xbe4f3f03	-0.20238881
2	0xbc8bd440	-0.017068982
3	0x3e05bf7e	0.1306133
4	0xbc7230aa	-0.01478211
5	0xbc95676c	-0.018237792
6	0x3d8e049d	0.06934474
7	0xbe336eec	-0.17522782
8	0xbcd58064	-0.026062198
9	0xbe2934c5	-0.16524036
10	0xbe160380	-0.14649773
11	0xbddb1e60	-0.10699153
12	0x3de20149	0.110354014
13	0xbccb1e19	-0.024794625
14	0x3e24f2e9	0.16108288
15	0xbd7a19c7	-0.06105974
16	0xbd381b1b	-0.044947725
17	0xbe2a74b7	-0.16646086
18	0x3df50da1	0.1196549
19	0xbdc4736d	-0.09592328
20	0x3e3dbfcd	0.18530197
21	0x3e3539fb	0.17697899
22	0xbe2f2211	-0.17102839
23	0xbe08ec54	-0.13371402
24	0xbe244c80	-0.16044807
25	0xbe5097ea	-0.2037045
26	0x3e00beb8	0.12572753
27	0xbd2b6d0e	-0.04185205
28	0x3de3d0b9	0.11123795
29	0x3d53457f	0.05157995
30	0x3dd96250	0.10614455
31	0x3e15ebb1	0.1464069
32	0xbdb58972	-0.08864106
33	0x3e528225	0.20557459
34	0x3ccc19f1	0.024914714
35	0xbda21a7e	-0.07915209
36	0xbe03deb3	-0.12877922
37	0x3de49482	0.11161138
38	0x3bdc9989	0.00673217
39	0x3e19c46a	0.15016332
40	0x3e401243	0.18756966
41	0xbe511bde	-0.20420787
42	0xbe495ad6	-0.19663557
43	0xbc8816db	-0.01661246
44	0x3e360971	0.17777039
45	0x3ddb0f49	0.10696275
46	0x3dce48b0	0.10072458
47	0x3dfaeea4	0.12252548
48	0x3df88e88	0.12136561
49	0xbdff2e99	-0.1246006
50	0x3d97ec62	0.07418133
51	0xbe324471	-0.17408921
52	0xbdb509c2	-0.08839752
53	0x3d95fef1	0.07324017
54	0xbd003abc	-0.031306013
55	0xbd36f988	-0.044671565
56	0xbd03ff01	-0.032225613
57	0xbe1778c9	-0.1479217
58	0x3df39aa5	0.118947305
59	0xbc383430	-0.011242911
60	0xbe1c1073	-0.1524065
61	0x3e357174	0.1771906
62	0xbd7481c9	-0.059694085
63	0xbe0c94fc	-0.13728708
64	0x3a9d7d61	0.0012015515
65	0xbdad7b61	-0.08470798
66	0xbdfbf213	-0.12302031
67	0xbe2e164c	-0.17000693
68	0xbd1a645d	-0.03769337
69	0xbe439a07	-0.19101726
70	0xbe412a93	-0.18863897
71	0xbd87c6f9	-0.06629748
72	0xbb9259be	-0.0044662645
73	0x3c946630	0.018115133
74	0x3deb3d27	0.11486273
75	0xbcb3f9f4	-0.021969773
76	0x3e4bfa13	0.19919614
77	0x3e2eca30	0.17069316
78	0x3e288545	0.16457088
79	0xbe5237e7	-0.20529138
80	0x3c9d5353	0.019204771
81	0x3cd9ca3c	0.02658569
82	0xbe3ddd57	-0.18541466
83	0xbddd3acb	-0.108022295
84	0xbe121a43	-0.1426783
85	0x3dcd1981	0.1001463
86	0xbc182b8f	-0.009287729
87	0xbdebfb4e	-0.11522542
88	0x3d7db1f4	0.061937287
89	0x3de7c183	0.11316206
90	0x3e57bd5c	0.21068329
91	0xbb2f991d	-0.0026794143
92	0x3e45fa1e	0.19333693
93	0xbd9c0664	-0.076184064
94	0xbc897b1c	-0.016782336
95	0xbd771149	-0.06031922
96	0xbe3a3f91	-0.18188311
97	0xbde66fb8	-0.112517774
98	0x3915065f	0.00014212121
99	0xbe5a7e6a	-0.21337286
100	0xbbf83ab7	-0.0075753587
101	0x3df5f774	0.120100886
102	0x3ac6ecad	0.0015176736
103	0x3d58171a	0.052756406
104	0xbd1639f4	-0.036676362
105	0x3e0bddd2	0.13658836
106	0x3e42e286	0.19031724
107	0x3dc3076c	0.095229
108	0xbe56c2f6	-0.20972809
109	0x3bf3e900	0.0074435472
110	0x3dda5c7c	0.10662171
111	0xbe154ca0	-0.14580011
112	0x3e1be26e	0.15223095
113	0xbdb21702	-0.08695795
114	0x3d1174d7	0.035511818
115	0xbdb74519	-0.08948726
116	0x3e3db0ed	0.18524523
117	0xbe11cbc6	-0.1423789
118	0xbdbb21e0	-0.091373205
119	0xbd56d638	-0.05245039
120	0xbe2f0bd9	-0.17094363
121	0xbd866451	-0.065621026
122	0xbc8ca2c7	-0.017167462
123	0xbe486b3d	-0.19572158
124	0x3db122a2	0.08649184
125	0x3dd104c4	0.10205987
126	0x3c04d182	0.008106591
127	0xbe2cd71e	-0.16878936
