mlagents-env/results/=PelletGrabberRun6/Agent Controller/Agent Controller-207344.pt (torch, 446250 bytes, 33 tensors)

network_body._body_endoder.seq_layers.0.weight f4 [128, 6]
0	0x3cc381fc	0.023865692
1	0x3e0fafe9	0.14031948
2	0xbd25491d	-0.04035293
3	0xbf30462a	-0.6885706
4	0x3e9143e7	0.28372118
5	0xbf57bec9	-0.8427549
6	0xbdce98dc	-0.10087749
7	0xbdb2888c	-0.087174505
8	0x3eab8ffd	0.33508292
9	0xbea3922d	-0.3194746
10	0xbe0b8cd1	-0.13627936
11	0x3d58f9fc	0.05297278
12	0x3e7d0aa3	0.24711089
13	0x3e9b5d0d	0.3034443
14	0x3ebd9d5c	0.37034118
15	0xbecfd423	-0.40591535
16	0x3f258ae9	0.64665085
17	0xbead29b2	-0.33820873
18	0x3e70068b	0.23439996
19	0x3e784964	0.24246746
20	0xbd5120c0	-0.051056623
21	0x3efe0e56	0.49620312
22	0xbe51f7f2	-0.2050474
23	0xbf565eeb	-0.83738583
24	0x3d8b738a	0.06809147
25	0x3c281008	0.010257728
26	0xbda8c363	-0.08240392
27	0x3ebfa7fd	0.37432852
28	0xbe265fa1	-0.16247417
29	0x3ea82c1b	0.3284615
30	0x3e021374	0.12702733
31	0xbf6b98ca	-0.9203001
32	0xbcb42470	-0.021990031
33	0xbca797e0	-0.020458162
34	0x3f2a52e4	0.6653273
35	0x3e068af8	0.1313895
36	0xbed76d9c	-0.42075813
37	0x3ed1de18	0.40989757
38	0x3e327406	0.17427072
39	0xbe277f8a	-0.16357246
40	0x3e3fb694	0.18721992
41	0xbe6331f3	-0.22187023
42	0x3d935ae2	0.07195069
43	0x3d962e9f	0.07333111
44	0x3e8572ac	0.2606405
45	0xbe1931b1	-0.14960362
46	0x3d88fa5d	0.06688378
47	0xbbe5233c	-0.0069927257
48	0x3f1823d9	0.594297
49	0x3f152890	0.5826502
50	0xbec4f7f0	-0.3847041
51	0x3e255aa9	0.16147865
52	0x3ebbe535	0.3669831
53	0x3eb16793	0.34649333
54	0xbbf7321e	-0.007543816
55	0xbe26a105	-0.16272362
56	0x3e5fce0c	0.21855944
57	0xbeb29dad	-0.34885922
58	0xbf6740b2	-0.9033309
59	0xbf0fb84a	-0.5614058
60	0xbf34a0c4	-0.7055781
61	0xbe4a8812	-0.19778469
62	0x3ea9730f	0.33095595
63	0x3e64216a	0.22278371
64	0x3e7db09c	0.24774402
65	0xbc8fc283	-0.017548805
66	0xbef2fcb0	-0.4745841
67	0x3e609323	0.21931128
68	0x3e6fe94f	0.23428844
69	0xbddc5d30	-0.107599616
70	0xbf2efde4	-0.68356156
71	0x3dde4a84	0.108540565
72	0xbeaa4bc6	-0.33260936
73	0x3ec2a40b	0.3801578
74	0x3ef0cfd1	0.4703355
75	0xbebd7c19	-0.37008741
76	0xbd9bfbfe	-0.07616423
77	0x3da97b84	0.08275512
78	0xbf06c321	-0.52641493
79	0x3eb467c0	0.35235405
80	0x3ec49142	0.38392073
81	0xbe0e7276	-0.13910851
82	0xbf7126ef	-0.9420003
83	0x3e99b339	0.3001955
84	0x3d28b06d	0.041183878
85	0xbde2b0f2	-0.11068906
86	0x3e33b6a3	0.17550139
87	0x3e9d8fc8	0.3077376
88	0x3ea1bbe4	0.31588662
89	0x3f260df0	0.64865017
90	0xbdc665dc	-0.09687397
91	0xbe501049	-0.20318712
92	0xbd58f8d5	-0.05297168
93	0xbe0967ed	-0.13418551
94	0x3dbee777	0.09321492
95	0xbeaeb14c	-0.34119642
96	0x3e7e5552	0.24837235
97	0x3e4a3913	0.19748335
98	0x3de2a4f2	0.11066617
99	0xbe68a0c6	-0.2271758
100	0xbe16c11e	-0.14722106
101	0xbd817cbf	-0.063226216
102	0xbf511d49	-0.8168531
103	0xbee9e35f	-0.45681283
104	0xbda23a6f	-0.079213016
105	0x3f319b99	0.6937805
106	0x3f113fdf	0.56738085
107	0x3dc56095	0.09637562
108	0x3fa110e8	1.2583284
109	0xbf51822c	-0.8183925
110	0xbea9bbec	-0.33151186
111	0x3c92f2f9	0.017938124
112	0x3f0eba3c	0.5575292
113	0x3e95ed6e	0.29282707
114	0xbf1e783b	-0.6190221
115	0xbdcd1ac5	-0.100148715
116	0xbec7bfb2	-0.3901344
117	0x3f29aef3	0.66282576
118	0x3f52e84b	0.823857
119	0xbd7823b6	-0.06058093
120	0xbeed1b37	-0.46309826
121	0xbef1ccc7	-0.47226545
122	0xbf1fc195	-0.6240476
123	0xbd02a5b1	-0.031896297
124	0xbed41a52	-0.4142633
125	0x3d26ff02	0.04077054
126	0xbe9f014a	-0.3105567
127	0xbe25d590	-0.16194749
128	0xbeab480a	-0.334534
129	0xbe643ad3	-0.22288065
130	0xbddec108	-0.108766615
131	0x3e3bb54c	0.18330878
132	0xbf0d2563	-0.5513517
133	0x3e1f5b48	0.15562165
134	0x3f5fdd0b	0.8744666
135	0xbecb06b9	-0.39653566
136	0xbf85954c	-1.0436187
137	0x3df47295	0.11935917
138	0xbf19181f	-0.5980243
139	0x3e8995ea	0.26872188
140	0x3e3b009e	0.18261954
141	0xbf02b256	-0.5105337
142	0x3f083060	0.53198814
143	0x3e435c49	0.19078173
144	0x3e929428	0.2862866
145	0x3d89f863	0.06736829
146	0x3e632b91	0.22184588
147	0x3d165732	0.03670425
148	0x3e767f49	0.24071993
149	0xbf282435	-0.6568025
150	0xbd3cb458	-0.046070427
151	0xbeb75428	-0.35806394
152	0xbf0d89e8	-0.55288553
153	0x3e5eeff7	0.21771227
154	0x3e8bd17b	0.27308258
155	0xbec9cde0	-0.39414883
156	0x3da7bbf1	0.08190144
157	0x3e2d8680	0.16945839
158	0x3f15f2d3	0.58573645
159	0x3ea1f897	0.31634971
160	0x3edcdab7	0.43135616
161	0x3dbd9774	0.09257403
162	0xbb9cd404	-0.0047860164
163	0xbf0d5b44	-0.55217385
164	0x3ebaedf3	0.36509666
165	0xbe5b963d	-0.2144403
166	0xbe21d2c5	-0.15803058
167	0x3f480637	0.78134483
168	0xbac1bd70	-0.0014781188
169	0xbf26fd18	-0.6522994
170	0x3e175461	0.14778282
171	0x3dd3545d	0.103188254
172	0x3ccc5266	0.024941634
173	0x3f7ee7d3	0.99572486
174	0xbe89fadf	-0.26949212
175	0xbf2c0633	-0.6719696
176	0xbf1ce284	-0.61283135
177	0x3f2d2390	0.6763239
178	0xbdd709e7	-0.104999356
179	0xbe279589	-0.16365637
180	0xbec25cd1	-0.37961438
181	0xbcb58ebb	-0.022162786
182	0xbd95ac7c	-0.073082894
183	0x3ec75bea	0.38937312
184	0xbc759177	-0.014988295
185	0xbe3c2b47	-0.18375884
186	0x3ec0388e	0.37543148
187	0xbf0d044c	-0.5508468
188	0xbea9409a	-0.330571
189	0xbe9648ae	-0.29352325
190	0x3e9f4fcb	0.31115565
191	0xbd97258a	-0.07380207
192	0xbf32cf5c	-0.69847655
193	0xbee451dc	-0.44593704
194	0x3c826743	0.01591838
195	0x3ed409b1	0.41413644
196	0x3d448312	0.04797656
197	0xbf072535	-0.5279115
198	0x3d15fe13	0.036619257
199	0xbef2b1d4	-0.47401297
200	0x3f2a6d64	0.66573167
201	0x3e3a1e3c	0.18175596
202	0x3ef7fce6	0.48435134
203	0xbf692ab8	-0.9108081
204	0xbf5054f2	-0.81379616
205	0x3e4b6e9f	0.19866417
206	0x3e54ee47	0.2079402
207	0xbe169a7d	-0.1470737
208	0x3f43f767	0.7654938
209	0x3dc8ce72	0.09805001
210	0x3ed3ed29	0.41391876
211	0x3c27b1e4	0.0102352835
212	0xbf01437d	-0.50493604
213	0x3f2ff15b	0.68727654
214	0xbde71e47	-0.11285072
215	0xbdcc5df2	-0.09978856
216	0xbf23674e	-0.63829505
217	0xbe18239b	-0.14857332
218	0xbf3adf55	-0.7299703
219	0xbeeae589	-0.45878246
220	0x3d3378aa	0.043816246
221	0xbf846ff6	-1.0346668
222	0x3c69990e	0.0142576825
223	0xbf91879c	-1.136951
224	0x3e2a97e6	0.16659507
225	0xbf2a9aeb	-0.66642636
226	0xbeff4769	-0.4985917
227	0x3ef30f5a	0.4747265
228	0xbdb3cb5b	-0.08779021
229	0x3e8bed17	0.27329323
230	0x3ee8fcc5	0.45505348
231	0x3eea1381	0.45718005
232	0x3e6475eb	0.22310607
233	0x3edd4e4f	0.43223807
234	0xbf350527	-0.70710987
235	0x3d103ba3	0.035213124
236	0xbeb4c815	-0.353089
237	0x3eb6297b	0.35578522
238	0x3ec72e88	0.38902688
239	0xbe302242	-0.17200568
240	0xbf48c960	-0.78432274
241	0xbeefe60f	-0.46855208
242	0xbe34130f	-0.17585395
243	0x3eb7d8f5	0.35907713
244	0xbea00168	-0.31251073
245	0x3ea7fafe	0.3280868
246	0xbd6fefc5	-0.05857827
247	0x3f21c6f9	0.63194233
248	0x3e748b55	0.23881276
249	0xbe5f4339	-0.21802987
250	0x3e8c2945	0.27375236
251	0x3e9c81d6	0.30567807
252	0xbf487186	-0.78298223
253	0x3dbf9ebb	0.09356447
254	0x3df93dbf	0.1216998
255	0x3f119f74	0.5688393

network_body._body_endoder.seq_layers.0.bias f4 [128]
0	0x3c22bff0	0.009933457
1	0x3bf72f8c	0.00754351
2	0xbc1edd20	-0.009696275
3	0x3c5be3f8	0.013421051
4	0xbc3790fc	-0.011204001
5	0x3c463abd	0.012098965
6	0x3c197332	0.009365844
7	0x3c483081	0.0122185955
8	0x3c9a1c4e	0.018812325
9	0x3c1eba61	0.009687991
10	0xbc43de89	-0.011954912
11	0x3c3035cc	0.010755014
12	0x3bbbcaeb	0.005730977
13	0xbb2dc85d	-0.002651713
14	0x3c007306	0.007839924
15	0x3bfb19d9	0.0076629934
16	0xbb2443d5	-0.0025064845
17	0x3c3ddb32	0.011587905
18	0xbbb1d678	-0.005427178
19	0xbc36096a	-0.011110643
20	0xbbaa4008	-0.0051956214
21	0x3c083779	0.008314007
22	0x3c05480f	0.008134856
23	0xb8696fa9	-5.565552e-05
24	0xbc854445	-0.016267905
25	0xbcda62df	-0.026658474
26	0x3c2e689a	0.010645056
27	0x3bd1d2a6	0.006403285
28	0xbb1f61a4	-0.0024319673
29	0xbc58db74	-0.013235915
30	0x3bbc78ec	0.0057517197
31	0x3ba19705	0.004931333
32	0xbc234846	-0.009965962
33	0x3c27ad45	0.010234182
34	0xbae7aa1b	-0.0017674597
35	0x3b9f82a8	0.0048678704
36	0x3bb3a569	0.005482365
37	0x3c12c749	0.008958646
38	0xbab73bf6	-0.0013979662
39	0x3bf1de2a	0.0073812203
40	0xbb31ab52	-0.0027110172
41	0xbb8695a4	-0.004107194
42	0x3a384f16	0.00070308277
43	0xbc049b11	-0.008093611
44	0xbc5b0e8c	-0.013370167
45	0x3bc79640	0.0060909092
46	0x3b47a7f7	0.0030465105
47	0xbcb4e4c8	-0.022081748
48	0x3b1a6533	0.0023558855
49	0xbc12e697	-0.00896611
50	0xbbfdeff6	-0.007749553
51	0x3c9ebb0b	0.019376298
52	0x3c132d6c	0.008982997
53	0x3bdd8b58	0.006760996
54	0x3c633de1	0.013869734
55	0xbc040b28	-0.0080593005
56	0xbb8b643f	-0.0042538936
57	0xbc023661	-0.007947535
58	0x3bd1e9c3	0.0064060404
59	0x3c05e854	0.008173067
60	0xbc597b5f	-0.013274043
61	0x3bc891d8	0.0061209016
62	0xbc45da81	-0.012076021
63	0x3c5e97d2	0.0135860015
64	0xbbf90dc6	-0.007600519
65	0xbc22d4d6	-0.009938439
66	0x3bd19d1d	0.006396903
67	0xbbd4a718	-0.0064896457
68	0xbbbe7adf	-0.005812987
69	0xbc6a4cf4	-0.014300574
70	0xbc1ff0e5	-0.009762024
71	0x3c6ee4bd	0.014580903
72	0xbbf7068b	-0.007538622
73	0xbbc5f3a6	-0.006041008
74	0xbc033bae	-0.008009834
75	0xbc115cb5	-0.008872201
76	0xbb8fe903	-0.004391791
77	0x3cc1d90c	0.023663066
78	0xbc242881	-0.0100194225
79	0xbc5d2066	-0.013496494
80	0xbbed3e5a	-0.007240099
81	0xbc20a345	-0.0098045515
82	0x3c2abf54	0.010421593
83	0x3c0a719c	0.008449938
84	0x3c08ba7f	0.008345245
85	0x3bfd4733	0.007729435
86	0x3c6ac593	0.014329332
87	0x3ba3d7fc	0.0050001126
88	0x3ab4a543	0.0013782162
89	0x3bf57d2d	0.0074917288
90	0xbc69512d	-0.014240545
91	0x3c326ed0	0.010890678
92	0x3c14f840	0.009092391
93	0x3c643129	0.013927736
94	0xbb93b269	-0.004507352
95	0xbc6ca20b	-0.014442931
96	0x3be65754	0.0070294533
97	0x3ca38d43	0.01996482
98	0x3b04438b	0.002018186
99	0x3c576b84	0.013148192
100	0x3bb2c2b4	0.0054553393
101	0x3ba1b4a5	0.0049348646
102	0xbc5848c0	-0.013200939
103	0x3be2cae4	0.006921159
104	0xbc1b8879	-0.009492987
105	0xbbc1db93	-0.005916068
106	0x3c1a12eb	0.009403924
107	0xbc119b08	-0.00888706
108	0xb9a33494	-0.00031128956
109	0x3c35f9cc	0.0111069195
110	0xbc27c76b	-0.010240416
111	0xbc09f822	-0.008420976
112	0x3c18d986	0.009329205
113	0x3c0d9314	0.008641023
114	0xbc15afd3	-0.009136158
115	0xbc34b65b	-0.011029805
116	0xbc3fd2db	-0.011707987
117	0x3b924b38	0.004464533
118	0x3b55270b	0.0032524492
119	0x3b4ae88b	0.003096136
120	0x3bbf5ff1	0.0058402945
121	0x3c304c46	0.0107603725
122	0xbb9ecedf	-0.0048464383
123	0x3c287c18	0.0102834925
124	0xbc09b4b2	-0.0084048975
125	0xbc3eaad7	-0.011637411
126	0xbb2763cc	-0.0025541661
127	0xbbd9429a	-0.006630254

network_body._body_endoder.seq_layers.2.weight f4 [128, 128]
0	0x3c9275a8	0.017878368
1	0xbd09350e	-0.033497863
2	0x3dde0b7d	0.10842035
3	0x3e18a576	0.14906868
4	0xbd5d55ec	-0.05403702
5	0xbd17f6d1	-0.037100617
6	0xbdf5c45a	-0.12000342
7	0x3db11f74	0.08648577
8	0x3d239683	0.03993846
9	0x3c925985	0.017864952
10	0xbe3dc4f0	-0.18532157
11	0xbd2039dc	-0.03911768
12	0xbc44755c	-0.011990871
13	0x3df24288	0.11829096
14	0xbe08ce55	-0.1335996
15	0x3bc8665f	0.006115719
16	0x3d93eb69	0.07222635
17	0xbdc6ca0d	-0.09706507
18	0x3d25cd09	0.04047874
19	0x3c2b79e3	0.010466072
20	0x3d477abb	0.04870103
21	0x3e4fe18a	0.2030088
22	0x3d64a8c5	0.055825014
23	0x3da0c2cb	0.07849654
24	0xbcff137b	-0.031137219
25	0x3c8793e8	0.01655002
26	0xbd920133	-0.07129135
27	0x3d868674	0.06568614
28	0x3da21362	0.07913853
29	0xba7f433f	-0.00097374985
30	0xbd810bf0	-0.06301105
31	0x3d9ae0c3	0.07562401
32	0xbc3bc79c	-0.011461165
33	0x3d690823	0.056892525
34	0x3e314b6f	0.17313932
35	0xbd78eff7	-0.060775723
36	0x3cbb6d46	0.022879254
37	0x3c7c71f4	0.015408028
38	0x3cb4a3ca	0.022050757
39	0xbd0baed8	-0.03410229
40	0x3da578d0	0.08079684
41	0xbde4b4d2	-0.11167301
42	0xbde5eab4	-0.11226407
43	0xbdcd2c10	-0.1001817
44	0x3d60941b	0.054828744
45	0x3c34159c	0.01099148
46	0xbb90c95b	-0.0044185347
47	0xbdc45d12	-0.09588064
48	0x3d0b07cb	0.03394298
49	0xbe164853	-0.14676027
50	0xbd8bc400	-0.068244934
51	0x3c240c72	0.010012733
52	0xbdf630a9	-0.12021
53	0x3ccb60f3	0.024826502
54	0x3e17d2d1	0.14826514
55	0x3c51663c	0.012780722
56	0xbe127b56	-0.14304861
57	0xbc7da162	-0.015480371
58	0xbcd70994	-0.026249684
59	0xbd6982a2	-0.057009347
60	0xbc217ba0	-0.009856135
61	0xbcbc78c5	-0.023006806
62	0x3d8bc494	0.06824604
63	0x3d10f7ad	0.035392452
64	0x3cd1df76	0.02561925
65	0xbd353d3c	-0.04424785
66	0x3e969bff	0.2941589
67	0x3bf60e79	0.0075090495
68	0xbb9dfe1d	-0.0048215524
69	0x39dbced6	0.0004192504
70	0xbd3a7b69	-0.04552785
71	0xbb570d5e	-0.0032814364
72	0xbae48a8b	-0.0017436309
73	0x3db19641	0.08671237
74	0x3d179d0c	0.037015006
75	0xbd876cee	-0.066125736
76	0x3ce64c1f	0.02811247
77	0xbdc19cff	-0.09453773
78	0xbdbbb8ac	-0.09166083
79	0x3dc20d42	0.09475185
80	0xbd722231	-0.05911464
81	0x3dcf161b	0.10111638
82	0xbd319550	-0.043355286
83	0x3d68a21a	0.056795217
84	0x3e267c1c	0.16258281
85	0x3dbbb2b0	0.09164941
86	0xbd7c6dd8	-0.061628193
87	0xbc6aab1a	-0.01432302
88	0xbd8096c7	-0.062787585
89	0x3cc758be	0.024334308
90	0xbd513ca6	-0.05108323
91	0xbd876206	-0.06610493
92	0xbc8e3d19	-0.017363118
93	0xbe3d4699	-0.18483962
94	0x3dde1670	0.10844123
95	0x3d736bbc	0.059428915
96	0x3e1a3b90	0.15061784
97	0xbcc18413	-0.023622548
98	0xbdb4160c	-0.087932676
99	0x3cd8f672	0.026484702
100	0x3d88bf46	0.066771075
101	0xbd2b893b	-0.04187892
102	0x3d35b324	0.044360295
103	0x3cb0bf80	0.02157569
104	0x3e835398	0.25649714
105	0xbd49c7fb	-0.04926298
106	0xbdcb7150	-0.09933722
107	0x3cad4617	0.021151586
108	0x3deb03cb	0.11475333
109	0x3aee49e5	0.0018179981
110	0xbd0ac5a7	-0.033879902
111	0x3d3413cb	0.04396419
112	0xbe11c358	-0.14234674
113	0x3dca350f	0.098734014
114	0xbc7f6192	-0.015587227
115	0xbdbe1c15	-0.092827
116	0xbe7302e1	-0.23731567
117	0xbe0ca083	-0.13733105
118	0xbd27a661	-0.040930156
119	0xbe0175ce	-0.12642595
120	0x3dce0c30	0.10060918
121	0xbd35aae0	-0.044352412
122	0xbbbe3516	-0.005804668
123	0xbdd6bd89	-0.1048537
124	0xbe261583	-0.16219144
125	0xbd5221f7	-0.051301923
126	0xbd43a1c4	-0.047761694
127	0x3cd1190f	0.025524644
128	0xbd44d76d	-0.04805701
129	0xbcc4c11f	-0.024017869
130	0xbd3c1ddb	-0.04592691
131	0x3d831a47	0.064014964
132	0xbe82f1cc	-0.255751
133	0x3c98a2ff	0.01863241
134	0x3d757fb5	0.059936244
135	0xbd82f7f8	-0.063949525
136	0x3e1ab435	0.15107806
137	0x3def14eb	0.11673912
138	0xbdcda525	-0.100412644
139	0x3ca63afa	0.020291794
140	0xbd2548d1	-0.040352646
141	0xbdfbfccf	-0.12304079
142	0x3c97c6b8	0.018527374
143	0x3d66bf79	0.056334946
144	0x3e644ee0	0.22295713
145	0x3d9f3c32	0.07775153
146	0xbe21ed97	-0.1581329
147	0xbd02c574	-0.031926587
148	0xbd1cf2c5	-0.03831746
149	0xbcf28028	-0.029602125
150	0xbd68ac24	-0.05680479
151	0xbd9b147b	-0.07572266
152	0xbd6ceb74	-0.057841733
153	0xbcbd2abe	-0.02309167
154	0xbe287564	-0.16451031
155	0x3d8260f6	0.0636615
156	0xbd8c82fc	-0.06860921
157	0x3e48b5c2	0.19600585
158	0x3d56d99c	0.052453622
159	0xbd0badf3	-0.034101438
160	0x3d40768e	0.046988063
161	0x3d12cda1	0.035840634
162	0x3d890717	0.066908054
163	0x3d106f33	0.035262298
164	0xbd3d9f9a	-0.046294786
165	0x3e045b33	0.12925415
166	0xbc5a64a2	-0.013329657
167	0x3da36b6a	0.07979472
168	0xbe081c0e	-0.13291952
169	0x3e2153a1	0.15754558
170	0xbda02277	-0.07819074
171	0xbd77ae78	-0.06046912
172	0xbb4553ca	-0.0030109757
173	0xbd489548	-0.04897049
174	0x3d900e7c	0.07034013
175	0xbd48b110	-0.048996985
176	0xbd10ed80	-0.035382748
177	0xbdc4ca8d	-0.09608946
178	0xbda04bd3	-0.07826962
179	0xbe20b81f	-0.15695237
180	0xbd57093c	-0.05249904
181	0x3d7c72fe	0.061633103
182	0x3db60182	0.08887006
183	0x3d36dc71	0.044643823
184	0xbe3d8942	-0.18509391
185	0xbced4f48	-0.028968468
186	0xbcf89ce7	-0.030348254
187	0xbd6e285f	-0.05814397
188	0xbc6352e5	-0.013874744
189	0xbe62982b	-0.2212836
190	0x3d6b0c6f	0.057384904
191	0x3da12343	0.07868054
192	0xbdf1d7fe	-0.11808775
193	0xbca941a7	-0.020661188
194	0xbe194ea5	-0.14971407
195	0x3d6c39ec	0.057672426
196	0xbc087afe	-0.008330105
197	0x3d179804	0.037010208
198	0xbd319b55	-0.043361027
199	0xbcc0b5c3	-0.02352417
200	0x3e88ff89	0.26757458
201	0x3d918807	0.07106023
202	0x3c0af9b7	0.008482388
203	0x3d383b9b	0.04497872
204	0xbd76fb71	-0.060298387
205	0x3d39d9e3	0.04537381
206	0xbd246688	-0.040136844
207	0xbd2e001e	-0.04248058
208	0xbc98658e	-0.018603113
209	0x3daa8cd7	0.08327644
210	0xbdc7ff88	-0.097655356
211	0xbcb93a18	-0.02261071
212	0xbd9fd699	-0.07804603
213	0xbc968549	-0.018374102
214	0xbdc84a6e	-0.09779821
215	0xbdda00b7	-0.106446676
216	0xbde66034	-0.11248818
217	0xbe388e42	-0.18023017
218	0xbc3845ad	-0.011247081
219	0x3d829b13	0.06377234
220	0xbda889eb	-0.08229431
221	0x3cd1a7dc	0.025592737
222	0x3e7204c4	0.2363463
223	0xbc8104dc	-0.015749387
224	0xbe3f200d	-0.1866457
225	0xbd970384	-0.073737174
226	0x3b318971	0.0027089978
227	0x3dc6c1d6	0.0970494
228	0x3d40fd99	0.04711685
229	0x3d3b492c	0.04572408
230	0x3e147bb8	0.1450032
231	0xbd4be4ec	-0.049778864
232	0xbe80db38	-0.2516725
233	0x39c56195	0.00037647472
234	0xbdb5bbed	-0.088737346
235	0x3cbed8af	0.023296682
236	0xbcfde52d	-0.030993069
237	0xbd6e8fa2	-0.058242448
238	0x3d841872	0.06449975
239	0xbe53714b	-0.20648687
240	0x3cd76ea5	0.026297877
241	0x3d7f83ab	0.062381428
242	0xbdc60a95	-0.09669987
243	0x3cd7c866	0.026340675
244	0xbdc0e26e	-0.09418188
245	0xbd15c7b0	-0.03656739
246	0xbd4e7ec5	-0.050413866
247	0xbd3ee520	-0.04660523
248	0xbd08c77c	-0.033393368
249	0xbe1686e3	-0.14699893
250	0xbe371a4d	-0.17881127
251	0xbbc7b096	-0.0060940487
252	0x3e01121c	0.12604564
253	0x3c5d4d04	0.0135071315
254	0x3cdf1cff	0.027235506
255	0xbc64bc2a	-0.013960877

network_body._body_endoder.seq_layers.2.bias f4 [128]
0	0x3bb09893	0.005389282
1	0xbc826332	-0.01591644
2	0x3beb2abc	0.007176725
3	0x3c326d1d	0.010890272
4	0x3bc38f42	0.0059680054
5	0xbc162f4c	-0.00916655
6	0xbc3194ab	-0.010838668
7	0xbc055c2c	-0.008139651
8	0x3bb74ff4	0.005594248
9	0xbbbab7b1	-0.0056981673
10	0x3c277722	0.010221275
11	0x3b1e93f7	0.002419708
12	0x3bebfd9b	0.007201863
13	0x3c2a5dc8	0.010398336
14	0x3c2be904	0.010492567
15	0x3c76cb47	0.0150631135
16	0xbba8490c	-0.005135661
17	0xbc4fa84e	-0.012674404
18	0x3c0a9ed7	0.008460722
19	0x3b760a75	0.0037542854
20	0xbc1d3ca2	-0.0095969755
21	0x3c3902f3	0.011292207
22	0xbc4fd80b	-0.012685786
23	0x3b30d5f9	0.0026983006
24	0x3c13b637	0.009015611
25	0x3bca19e3	0.0061676367
26	0xbb84b4d6	-0.0040498776
27	0xbbb1970f	-0.005419619
28	0xbbc0094b	-0.005860483
29	0xbc755515	-0.014973898
30	0xbbb3a69c	-0.005482508
31	0xbbeaf431	-0.007170223
32	0xbc3d1b79	-0.0115421945
33	0x3c32ec26	0.01092056
34	0xb8bb73bf	-8.938414e-05
35	0x3c531f9b	0.012885953
36	0x3c0b13e1	0.008488626
37	0x39909f6f	0.00027584608
38	0xbbf923a6	-0.0076031266
39	0x3b485112	0.00305659
40	0xbc225ced	-0.009909851
41	0xbbfa7468	-0.0076432712
42	0xbc553357	-0.013012729
43	0x3c0b55bf	0.00850433
44	0xbc2e3a27	-0.010633982
45	0x3c0724bf	0.008248507
46	0xbc2aae4f	-0.010417535
47	0xbc345f63	-0.01100907
48	0xbc125d3f	-0.008933364
49	0xbba164ae	-0.004925332
50	0xbc165a67	-0.009176827
51	0x3c1466fa	0.009057755
52	0xbc404700	-0.011735678
53	0xbc09b426	-0.008404767
54	0x3c0382ad	0.008026761
55	0xbc1f8fa1	-0.009738834
56	0xbbe10271	-0.006866746
57	0x3be2e342	0.006924064
58	0x3c174bf2	0.009234415
59	0xbc221344	-0.009892289
60	0x3b610c47	0.0034339593
61	0x3c2525a1	0.010079772
62	0xbbb929fb	-0.0056507564
63	0x3ba7ea6e	0.0051243817
64	0x3be474e5	0.0069719427
65	0xbbc6a8e0	-0.006062612
66	0x3b2057ce	0.0024466398
67	0xbc0b5e15	-0.008506318
68	0x3bca4577	0.0061728316
69	0x3c2c3e76	0.010512939
70	0x3c1c1ecb	0.009528826
71	0xbabb934a	-0.0014310863
72	0xbc37e22d	-0.011223358
73	0xbc75870d	-0.014985812
74	0xbc290bb7	-0.010317734
75	0xbc2330e1	-0.009960384
76	0xbb860edd	-0.0040911273
77	0xbc3c7c43	-0.011504236
78	0xbc4140a9	-0.011795201
79	0xbb80f7ad	-0.0039357753
80	0xbc36afd6	-0.011150321
81	0xbc3949df	-0.011309116
82	0x39143add	0.00014136308
83	0xbc0628ca	-0.008188436
84	0xbc19db28	-0.00939063
85	0x3c0ad875	0.008474459
86	0xbc241d28	-0.010016717
87	0x3c3d8bb9	0.011568957
88	0x3c43d7ff	0.011953353
89	0xbc02fafa	-0.007994408
90	0xbc3db8b1	-0.011579678
91	0xbb6f2ac5	-0.0036493998
92	0xba257bb7	-0.00063126854
93	0xbacccf40	-0.001562573
94	0x3b005298	0.001958048
95	0xbb27bf23	-0.0025596104
96	0x3aaa2949	0.0012982275
97	0x3c09db8b	0.0084141595
98	0x3c42704d	0.011867595
99	0xbc287efd	-0.010284183
100	0xbc30a28e	-0.010780944
101	0xbc3a52dd	-0.011372295
102	0xbc7efdc2	-0.01556343
103	0xbc2b9e26	-0.010474717
104	0x3c149c09	0.009070405
105	0x3bfec167	0.00777452
106	0x3c145d85	0.0090555
107	0x3c311ba1	0.01080981
108	0xbbff394f	-0.007788814
109	0x3c4ab34a	0.012371847
110	0xbb3a55b7	-0.0028432438
111	0x3bfb8320	0.0076755434
112	0xbc7031f7	-0.01466035
113	0x3c2981e9	0.010345914
114	0xbbf1c244	-0.0073778946
115	0xbc3a773d	-0.011380968
116	0xbc282ad2	-0.010264115
117	0x3c23a69f	0.009988456
118	0xbbfbf66f	-0.0076892893
119	0xbc1648a3	-0.009172591
120	0xbc12974c	-0.008947205
121	0x3bcfd2d9	0.0063422737
122	0x3c123b4b	0.008925269
123	0x3c2dfc7b	0.010619278
124	0x3b5cf9a6	0.0033718138
125	0x3c4c8867	0.012483693
126	0xbc386a90	-0.011255875
127	0x3c4057d2	0.011739688

action_model._continuous_distribution.mu.weight f4 [1, 128]
0	0xbc2d23e4	-0.010567639
1	0x3c936ec7	0.017997159
2	0xbc9bb4fd	-0.0190072
3	0xbcd7249d	-0.026262576
4	0xbb82d099	-0.003992152
5	0xb83c643e	-4.491605e-05
6	0x3cecda71	0.028912755
7	0x3ca479c1	0.020077588
8	0xbbd84c83	-0.006600918
9	0x3d0acda5	0.033887524
10	0xbce1604f	-0.027511744
11	0x3b5cf22e	0.0033713686
12	0xbbe83e92	-0.007087537
13	0xbc98765d	-0.018611128
14	0xbc3137d7	-0.010816536
15	0xbc7f6d83	-0.0155900745
16	0x3b22bd6e	0.0024832147
17	0x3c23d434	0.009999324
18	0xbc4dc6fb	-0.012559648
19	0xbbf1f844	-0.007384332
20	0x3cbdfa58	0.023190662
21	0xbc905ca2	-0.017622296
22	0x3cbc2a74	0.022969462
23	0x3bba9818	0.0056944005
24	0xbc851f1f	-0.016250191
25	0xbc2af01e	-0.010433225
26	0x3c684b86	0.014178162
27	0x3ceb5f45	0.028731951
28	0x3ce40e26	0.027838778
29	0x3c1a4845	0.009416644
30	0xbb4f9f17	-0.0031680518
31	0x3cf1cdaa	0.029517014
32	0x3c8f47a2	0.017490212
33	0xbd1314b5	-0.03590842
34	0xbae91610	-0.0017783064
35	0xbce1591a	-0.027508307
36	0xbc9ed408	-0.019388214
37	0xbab028a1	-0.0013439843
38	0x3d1405ca	0.036138333
39	0x3ba0f221	0.0049116765
40	0x3bb440b3	0.005500877
41	0xbb6c1351	-0.0036022256
42	0x3d2f5212	0.042802878
43	0xbccdaee5	-0.02510781
44	0x3ba7202a	0.00510027
45	0xbc87fa26	-0.016598772
46	0x3c99f7a1	0.018794836
47	0x3b2d2a87	0.0026423053
48	0x3ceee04a	0.029159684
49	0xb92568c7	-0.00015774659
50	0x3cd380bc	0.025818221
51	0xbc898119	-0.016785191
52	0x3c00425a	0.007828319
53	0x3cc24baf	0.02371773
54	0xbc76ea93	-0.015070575
55	0x3cee4c26	0.029089045
56	0x3cd9f6f1	0.026607009
57	0xbc4a2902	-0.012338879
58	0xbc40846a	-0.01175032
59	0x3addc3c0	0.00169193
60	0x3b7aa260	0.0038243756
61	0xbd130ed2	-0.035902806
62	0xbada044c	-0.0016633361
63	0xbb3b5c8d	-0.00285891
64	0xbc864556	-0.016390484
65	0x3a747d42	0.0009326526
66	0xbc5066a4	-0.012719784
67	0x3c740cc1	0.014895619
68	0xbcb3a2b5	-0.02192817
69	0xbc23c0e4	-0.009994719
70	0xbca766cc	-0.02043476
71	0xbbfbb669	-0.007681657
72	0x3cec4e85	0.028846035
73	0x3ca49794	0.02009181
74	0x3c15fe5a	0.00915488
75	0x3b4e102f	0.0031442752
76	0x3bae23a3	0.005314307
77	0x3b9f16eb	0.004855027
78	0x3cbd3763	0.0230977
79	0x3c6f0a60	0.014589876
80	0x3b6a6beb	0.003576989
81	0x3af4e1f0	0.0018683057
82	0x3c7f343a	0.015576417
83	0x3c16b814	0.009199161
84	0xb999ba88	-0.0002932141
85	0xbc959f91	-0.018264564
86	0x3cdcb1b1	0.026940199
87	0xbca09cf8	-0.019606099
88	0xbc6e184e	-0.014532162
89	0x3cbbdb9e	0.02293187
90	0x3d192acb	0.037394326
91	0x3d119e91	0.03555161
92	0xbbc09899	-0.005877566
93	0x3c475d90	0.012168303
94	0x3c4930b8	0.012279682
95	0xbb93149f	-0.004488542
96	0xbbaf1d53	-0.005344072
97	0xbd2875c7	-0.041127946
98	0xbc9d20bd	-0.01918065
99	0x3cd86c0c	0.026418708
100	0x3b593c69	0.003314758
101	0x3ce6a83e	0.028156396
102	0x3cbb7d02	0.022886757
103	0x3cf6a528	0.03010805
104	0xbd0d5cb2	-0.03451223
105	0xbcae2f92	-0.021262918
106	0xbca763e5	-0.020433376
107	0xbce42e26	-0.027854037
108	0x3c3ef321	0.011654646
109	0xbc91b859	-0.0177881
110	0x3c8d42fe	0.017243858
111	0xbc7d086e	-0.015443904
112	0x3cdf1983	0.027233845
113	0xbc86348a	-0.016382474
114	0x3ccb26c2	0.024798755
115	0x3c900cc0	0.017584205
116	0x3cc239a3	0.023709124
117	0xbd262bf6	-0.04056927
118	0x3c1a4016	0.009414693
119	0x3cdee30e	0.027207877
120	0xb9ecb3bb	-0.00045147337
121	0xbc55dfa9	-0.013053813
122	0xbcb4f5df	-0.022089897
123	0xbcae9473	-0.02131102
124	0x3a2cbc9c	0.0006589384
125	0xbd054c07	-0.03254321
126	0x3c0fb05d	0.008770076
127	0xbcc68142	-0.024231557

action_model._discrete_distribution.branches.0.weight f4 [1, 128]
0	0x3c6c26bf	0.014413535
1	0x3bed85f0	0.0072486326
2	0xbc066c57	-0.008204541
3	0xbbf4323b	-0.007452277
4	0xbc02fe7b	-0.007995243
5	0x3a45f5ec	0.0007551599
6	0x3c1905e0	0.00933978
7	0xbc80fd07	-0.015745653
8	0xbc5f7c3f	-0.013640462
9	0xbb112595	-0.0022147645
10	0xbafaf59f	-0.0019146687
11	0x3baa59bb	0.005198685
12	0xba99b9c4	-0.0011728336
13	0xbc819ee2	-0.015822832
14	0x3bc03d63	0.005866693
15	0x3c05d253	0.008167821
16	0xbb0b7d90	-0.0021284558
17	0xbbc992c2	-0.006151528
18	0xbca1c947	-0.019749297
19	0xbc48d9dc	-0.012258973
20	0x3a0dc666	0.0005408287
21	0x3ca98bfe	0.020696636
22	0x3c92c2a8	0.017915085
23	0xbba399be	-0.0049926927
24	0xbb5a7ee8	-0.0033339802
25	0xbc506087	-0.012718326
26	0x3c2330dc	0.009960379
27	0x3bdd5a4b	0.0067551485
28	0x3b3dfff2	0.0028991667
29	0xba9e31a3	-0.0012069236
30	0xbb796caf	-0.0038059165
31	0xbc82450c	-0.015902065
32	0x3ab5b7a7	0.0013863937
33	0x3c06230e	0.008187069
34	0xbc671d0b	-0.0141060455
35	0x3b3ef227	0.0029136033
36	0xbba0a5f5	-0.004902596
37	0xb984beda	-0.00025319197
38	0x3b9fcc91	0.004876681
39	0xbc1ad91a	-0.009451175
40	0x3bdc927d	0.00673133
41	0x3b91993e	0.0044433167
42	0x3be8d44b	0.0071053854
43	0x3c284756	0.010270914
44	0xbbe03473	-0.00684219
45	0x3c0b5958	0.008505188
46	0x3b96aa63	0.0045979484
47	0x3aa0af5b	0.0012259291
48	0xbc5ce840	-0.013483107
49	0x399ba70e	0.0002968837
50	0x3bd83067	0.006597567
51	0x3c934a6f	0.017979829
52	0xbc5a6f10	-0.013332143
53	0xbbe3a188	-0.0069467463
54	0x3bca2968	0.006169487
55	0xbb44b9f5	-0.0030018066
56	0xbc022464	-0.0079432465
57	0x3b195e90	0.002340231
58	0x3bd21158	0.006410759
59	0xbbd21c38	-0.0064120553
60	0x3b912938	0.0044299625
61	0x3b8d6eba	0.004316178
62	0x3b9a32cb	0.004705762
63	0xbb0100d9	-0.0019684343
64	0xbae5186b	-0.0017478591
65	0xbbe0ec5b	-0.0068641133
66	0x3995182f	0.00028437513
67	0xbc3de418	-0.011590026
68	0x3c4f96f8	0.012670271
69	0x3b9ab172	0.00472086
70	0xbb806106	-0.003917816
71	0x3bc098c1	0.0058775847
72	0xbb8e406e	-0.0043411767
73	0xbb4e5daf	-0.0031488945
74	0x3be83627	0.0070865336
75	0xbc4dea92	-0.012568133
76	0xbc50c26d	-0.012741667
77	0xbbf22ef0	-0.0073908493
78	0xbc68374b	-0.014173339
79	0xbc85909d	-0.016304309
80	0x3bd4a56a	0.0064894455
81	0xbb5945f8	-0.0033153277
82	0x3ba75c83	0.005107464
83	0x3c06739f	0.008206277
84	0xbae1b332	-0.0017219542
85	0xbc754e83	-0.014972332
86	0x3b9c363a	0.0047672065
87	0x3c3a3520	0.011365205
88	0x3b333493	0.002734457
89	0x3c4c0aff	0.012453794
90	0xbb0adbcf	-0.0021188145
91	0x3bcce73a	0.0062531503
92	0xbc43c8c6	-0.011949724
93	0x3c02ec35	0.007990886
94	0x3c0ece78	0.008716218
95	0xbc87003c	-0.016479604
96	0x3a38f5eb	0.00070556876
97	0xbb55c9fd	-0.0032621615
98	0x3cb1139b	0.021615794
99	0xbc89575a	-0.016765285
100	0xbc832739	-0.016009914
101	0x3c9c6f07	0.01909591
102	0xbb97e303	-0.004635216
103	0x3c079be5	0.008276914
104	0xbb0d938e	-0.0021602842
105	0x3c3145b8	0.010819845
106	0x3bc562bf	0.0060237343
107	0x3b0ff4ed	0.0021966056
108	0xbb7780a3	-0.0037765882
109	0xbbcf6545	-0.006329211
110	0xbbf97710	-0.0076130703
111	0x3bfbcaca	0.0076840864
112	0x3ba78543	0.0051123216
113	0x3c4dc4d2	0.012559133
114	0xba8ee31c	-0.0010901424
115	0x3c169b95	0.009192367
116	0xbc0cbf0b	-0.00859047
117	0x3b80393a	0.003913072
118	0xbc4959d8	-0.012289487
119	0xba9ccc37	-0.0011962716
120	0xbb714f8b	-0.0036821093
121	0x392e88b4	0.00016644859
122	0x3c0092ab	0.007847468
123	0xbc88898b	-0.016667148
124	0x3a12d85a	0.0005601697
125	0xbbc215ef	-0.005923025
126	0x3c22a13c	0.009926137
127	0x3c683fca	0.014175365

exp_avg f4 [128, 6]
0	0x3874d256	5.8370024e-05
1	0xb7447b94	-1.1711283e-05
2	0x3621caa3	2.410882e-06
3	0x394db52c	0.00019617815
4	0xb76a4dea	-1.3965628e-05
5	0x00000000	0.0
6	0x38d15b2f	9.982881e-05
7	0xb7a40057	-1.9550482e-05
8	0x36499c7c	3.004242e-06
9	0x399b765c	0.00029652088
10	0xb7c35d64	-2.32893e-05
11	0x00000000	0.0
12	0xb8834203	-6.2588624e-05
13	0x375ba01e	1.3090697e-05
14	0xb5cd9c4a	-1.5319176e-06
15	0xb9567af0	-0.00020454428
16	0x3782a5b0	1.5574362e-05
17	0x00000000	0.0
18	0x380445da	3.1536307e-05
19	0xb697af57	-4.520563e-06
20	0xb6e3fb41	-6.794377e-06
21	0xb89a0acb	-7.3453026e-05
22	0xb6ae8db6	-5.2021014e-06
23	0x00000000	0.0
24	0x3801ff2b	3.099364e-05
25	0xb659a6f8	-3.2432708e-06
26	0xb6a79739	-4.9945925e-06
27	0xb8254e55	-3.9412018e-05
28	0xb679d7e2	-3.7229552e-06
29	0x00000000	0.0
30	0x37f9d370	2.9781571e-05
31	0xb6aa489e	-5.0748486e-06
32	0xb4c092fd	-3.5869735e-07
33	0x386fde62	5.718915e-05
34	0xb6ca5f1f	-6.0311427e-06
35	0x00000000	0.0
36	0x38a66384	7.934033e-05
37	0xb78de527	-1.6915217e-05
38	0x36d28308	6.2737417e-06
39	0x39b5c25d	0.00034667822
40	0xb7aa0f8a	-2.0272815e-05
41	0x00000000	0.0
42	0x38a7ad62	7.9954756e-05
43	0xb77f3ad4	-1.5212881e-05
44	0x3558a73a	8.0709617e-07
45	0x3952045f	0.00020028789
46	0xb797c5b7	-1.809267e-05
47	0x00000000	0.0
48	0xb63f3b20	-2.8495633e-06
49	0xb5e96ce5	-1.7391545e-06
50	0xb61002e9	-2.1459366e-06
51	0xb7843bdb	-1.5763499e-05
52	0xb6066875	-2.0028358e-06
53	0x00000000	0.0
54	0x38987954	7.270524e-05
55	0xb76ffc58	-1.43042635e-05
56	0x363adfa4	2.7846336e-06
57	0x39763668	0.00023480656
58	0xb78f207a	-1.7062051e-05
59	0x00000000	0.0
60	0xb8961ca1	-7.15789e-05
61	0x372f7b22	1.0459482e-05
62	0x35a3775c	1.2179185e-06
63	0xb8c1f20a	-9.2480404e-05
64	0x3750899d	1.2429807e-05
65	0x00000000	0.0
66	0x382c8ccb	4.113912e-05
67	0xb72bea75	-1.0246983e-05
68	0x36e42ffa	6.8005147e-06
69	0x39836328	0.00025060144
70	0xb74f72ae	-1.2364862e-05
71	0x00000000	0.0
72	0x38e04350	0.0001069369
73	0xb7a6f0ed	-1.9900932e-05
74	0x363aa2df	2.7810963e-06
75	0x39994c09	0.00029239085
76	0xb7c6da4c	-2.3705092e-05
77	0x00000000	0.0
78	0xb7cc7036	-2.4370947e-05
79	0x33be6d8c	8.867491e-08
80	0x36fad5d8	7.4754753e-06
81	0x39222469	0.00015463088
82	0xb3dcd118	-1.0282582e-07
83	0x00000000	0.0
84	0x37641b7c	1.3596258e-05
85	0xb62a8db1	-2.541445e-06
86	0xb67f91f3	-3.8082915e-06
87	0xb8176b8b	-3.6101363e-05
88	0xb643df44	-2.9187222e-06
89	0x00000000	0.0
90	0xb48bb03c	-2.6018995e-07
91	0x34588ad4	2.0167073e-07
92	0x3586b9a7	1.003781e-06
93	0x374d2e12	1.2229679e-05
94	0x345dfb0e	2.0673562e-07
95	0x00000000	0.0
96	0xb775476a	-1.4619765e-05
97	0x367ffdde	3.8145731e-06
98	0x31b7090a	5.3270286e-09
99	0xb86e29fc	-5.6782723e-05
100	0x36977358	4.5135785e-06
101	0x00000000	0.0
102	0xb7709941	-1.4340797e-05
103	0x35bdb674	1.4134698e-06
104	0x363e9fcd	2.8405223e-06
105	0x381b27b5	3.699186e-05
106	0x35d67071	1.5976967e-06
107	0x00000000	0.0
108	0x36e49bae	6.813053e-06
109	0x358d2aa5	1.051773e-06
110	0xb494688c	-2.7643216e-07
111	0x377675d4	1.4690177e-05
112	0x35a3083b	1.2146842e-06
113	0x00000000	0.0
114	0xb745466f	-1.1758514e-05
115	0x360261d8	1.9428462e-06
116	0x363cef98	2.8153645e-06
117	0x3840f41f	4.6003723e-05
118	0x3615b573	2.2308348e-06
119	0x00000000	0.0
120	0xb92dfcab	-0.00016592692
121	0x37c44089	2.3395072e-05
122	0x371a1a2c	9.185209e-06
123	0xb90480fa	-0.00012636548
124	0x37e7329e	2.7560916e-05
125	0x00000000	0.0
126	0x3897bea0	7.235748e-05
127	0xb763e4e5	-1.3583548e-05
128	0x35f214f6	1.8036505e-06
129	0x39515d65	0.00019966585
130	0xb787bd8d	-1.618152e-05
131	0x00000000	0.0
132	0x3951a1b8	0.00019992038
133	0xb81ccb97	-3.7382906e-05
134	0x36a2b2cd	4.8487914e-06
135	0x3a140f2c	0.0005648013
136	0xb83ad59e	-4.4544802e-05
137	0x00000000	0.0
138	0x37fcb386	3.0124338e-05
139	0xb6dc2155	-6.5603913e-06
140	0x3608ae9b	2.0367213e-06
141	0x38fd1372	0.00012067602
142	0xb703b9b9	-7.85145e-06
143	0x00000000	0.0
144	0xb8121478	-3.4828176e-05
145	0x36ee927c	7.1100058e-06
146	0x35a0b31d	1.1973058e-06
147	0xb8967181	-7.173699e-05
148	0x370d0f82	8.407866e-06
149	0x00000000	0.0
150	0xb7328cb4	-1.0642387e-05
151	0x36063a0d	2.0001346e-06
152	0xb4cd23fa	-3.8210402e-07
153	0xb7d1133a	-2.4923695e-05
154	0x3620afd5	2.3944206e-06
155	0x00000000	0.0
156	0xb6119fc1	-2.1699673e-06
157	0xb549020a	-7.48813e-07
158	0xb5783924	-9.247035e-07
159	0xb729463c	-1.0089538e-05
160	0xb5670685	-8.6063693e-07
161	0x00000000	0.0
162	0x3823f5c3	3.9091112e-05
163	0xb6f02b85	-7.1576237e-06
164	0x359b7bd1	1.1584435e-06
165	0x38e28996	0.00010802147
166	0xb70f33fa	-8.535566e-06
167	0x00000000	0.0
168	0xb608d1bb	-2.0387658e-06
169	0x35825d27	9.712866e-07
170	0xb603080a	-1.95252e-06
171	0xb853ecbd	-5.05268e-05
172	0x35a1de77	1.206018e-06
173	0x00000000	0.0
174	0x365c55e9	3.283256e-06
175	0x32df8a21	2.602343e-08
176	0x34eff14b	4.4692783e-07
177	0x37b21518	2.1229076e-05
178	0x32d04e2f	2.424994e-08
179	0x00000000	0.0
180	0x37000314	7.630111e-06
181	0xb5e85737	-1.731073e-06
182	0xb5ab57b3	-1.2766017e-06
183	0xb72ac45d	-1.0178509e-05
184	0xb6077dee	-2.0189868e-06
185	0x00000000	0.0
186	0xb6909bdb	-4.3096784e-06
187	0x35844fae	9.857956e-07
188	0x34903cf9	2.6866454e-07
189	0xb73a1bb2	-1.1092912e-05
190	0x359baa2e	1.1597929e-06
191	0x00000000	0.0
192	0xb7c233ca	-2.3150718e-05
193	0x3676ea34	3.679318e-06
194	0x367c2274	3.757098e-06
195	0x383d621f	4.5152494e-05
196	0x368f3512	4.2679103e-06
197	0x00000000	0.0
198	0x372b2f9a	1.0203477e-05
199	0xb605b773	-1.9925326e-06
200	0xb532175d	-6.6344165e-07
201	0x376481f4	1.3620116e-05
202	0xb61db4a8	-2.3499979e-06
203	0x00000000	0.0
204	0xb74851e4	-1.1939996e-05
205	0xb693e10d	-4.4071408e-06
206	0x370d0beb	8.40703e-06
207	0x39558948	0.00020364404
208	0xb6b5dbec	-5.4198226e-06
209	0x00000000	0.0
210	0x385827a9	5.153535e-05
211	0xb6dfb7c6	-6.667312e-06
212	0xb72d4656	-1.032798e-05
213	0xb8e4c5a4	-0.00010908701
214	0xb70080f5	-7.65942e-06
215	0x00000000	0.0
216	0x39914f2c	0.00027715543
217	0xb85bd37d	-5.2410633e-05
218	0x36f548e7	7.310056e-06
219	0x3a56203d	0.0008168256
220	0xb882f37a	-6.244234e-05
221	0x00000000	0.0
222	0x392e273f	0.00016608553
223	0xb8096ef6	-3.2766686e-05
224	0x36c23891	5.7882357e-06
225	0x3a0adfa3	0.00052976067
226	0xb823cc0a	-3.9052255e-05
227	0x00000000	0.0
228	0xb7bb0ab7	-2.2297127e-05
229	0x3605d5f9	1.9943093e-06
230	0x36101947	2.1472385e-06
231	0x382d0f9a	4.1260944e-05
232	0x361ba410	2.3192297e-06
233	0x00000000	0.0
234	0xb577fffc	-9.2387177e-07
235	0xb583e2bc	-9.826249e-07
236	0x36a8d3bd	5.0314397e-06
237	0x38ced209	9.8619676e-05
238	0xb5b0bda5	-1.3168216e-06
239	0x00000000	0.0
240	0xb63aa0c2	-2.7809733e-06
241	0xb5853fd5	-9.92785e-07
242	0x3701caca	7.736215e-06
243	0x39141065	0.00014120487
244	0xb5bbdc01	-1.3996615e-06
245	0x00000000	0.0
246	0x378a5f81	1.6495354e-05
247	0xb6567a68	-3.1959735e-06
248	0xb3ca1904	-9.410908e-08
249	0x37b7b99f	2.1901737e-05
250	0xb67d7369	-3.7767115e-06
251	0x00000000	0.0
252	0xb7c78889	-2.3786228e-05
253	0x36309e6c	2.6318257e-06
254	0x366ce6d1	3.5301093e-06
255	0x3846fe4c	4.744371e-05

exp_avg_sq f4 [128, 6]
0	0x33290452	3.9352308e-08
1	0x3023422e	5.93931e-10
2	0x2bcfd07f	1.4766104e-12
3	0x341f3727	1.4828093e-07
4	0x306a951a	8.534059e-10
5	0x00000000	0.0
6	0x33f67c6e	1.1477901e-07
7	0x30d8c579	1.5772194e-09
8	0x2c8df6eb	4.0348744e-12
9	0x34dd9c42	4.127815e-07
10	0x311bbdb4	2.2663302e-09
11	0x00000000	0.0
12	0x33f67ccb	1.14779674e-07
13	0x30dc69db	1.6037193e-09
14	0x2b9a9de9	1.0986187e-12
15	0x34ddfb9d	4.134753e-07
16	0x311e5dfa	2.3045446e-09
17	0x00000000	0.0
18	0x33c9bdc9	9.3943136e-08
19	0x30760d47	8.9513147e-10
20	0x2e17ffe6	3.456071e-11
21	0x3476a5c4	2.297084e-07
22	0x30b0a710	1.2853167e-09
23	0x00000000	0.0
24	0x344056cc	1.791297e-07
25	0x309296b8	1.0665735e-09
26	0x2dbb5471	2.1296938e-11
27	0x34936cee	2.746014e-07
28	0x30d2e33a	1.5344093e-09
29	0x00000000	0.0
30	0x329aa721	1.8003961e-08
31	0x2f509c8b	1.8973105e-10
32	0x2b9d0129	1.1155843e-12
33	0x335ea7b1	5.1840917e-08
34	0x2f95fb0d	2.7281324e-10
35	0x00000000	0.0
36	0x3454f269	1.9832227e-07
37	0x311abc33	2.2516928e-09
38	0x2d58300d	1.2288848e-11
39	0x3512e0a9	5.471616e-07
40	0x315e8af9	3.2384249e-09
41	0x00000000	0.0
42	0x33ec2c02	1.0997611e-07
43	0x30ae573b	1.2684959e-09
44	0x2c5bcaff	3.1234457e-12
45	0x34b11e4a	3.2990857e-07
46	0x30fa9ea8	1.8234987e-09
47	0x00000000	0.0
48	0x31a46db4	4.7855e-09
49	0x2f3e12c1	1.7287062e-10
50	0x2c1712cf	2.1468831e-12
51	0x333625c6	4.2409532e-08
52	0x2f883533	2.4776056e-10
53	0x00000000	0.0
54	0x33bbed91	8.751079e-08
55	0x3096ba5e	1.0966905e-09
56	0x2c10bede	2.0569583e-12
57	0x34955d86	2.782146e-07
58	0x30d8aa26	1.5764428e-09
59	0x00000000	0.0
60	0x343192fb	1.6537881e-07
61	0x30bc1dc1	1.3687257e-09
62	0x2d2b6772	9.743194e-12
63	0x34c3784b	3.6409105e-07
64	0x31075156	1.969132e-09
65	0x00000000	0.0
66	0x34436d4a	1.820055e-07
67	0x30ef12c4	1.7394872e-09
68	0x2dafe1a9	1.999541e-11
69	0x34d80a5f	4.024068e-07
70	0x312bf7cd	2.5024633e-09
71	0x00000000	0.0
72	0x341b3671	1.4455306e-07
73	0x30f124d8	1.754553e-09
74	0x2ca277e2	4.6176266e-12
75	0x35000771	4.7694544e-07
76	0x312d4b36	2.5217566e-09
77	0x00000000	0.0
78	0x3497522e	2.8185735e-07
79	0x30ef28a6	1.7401092e-09
80	0x2e411929	4.3905466e-11
81	0x34e769ee	4.3104177e-07
82	0x312c0a92	2.5035303e-09
83	0x00000000	0.0
84	0x333a8c02	4.3433836e-08
85	0x2fd782e9	3.920129e-10
86	0x2d3f5918	1.0876876e-11
87	0x33d7a824	1.0042302e-07
88	0x301ac9b9	5.631154e-10
89	0x00000000	0.0
90	0x3130de31	2.5737672e-09
91	0x2d9cc8ff	1.7824407e-11
92	0x2b0dc349	5.0364275e-13
93	0x31aa031f	4.948006e-09
94	0x2de164c6	2.5624291e-11
95	0x00000000	0.0
96	0x3197f82b	4.422892e-09
97	0x2ed9f145	9.9108756e-11
98	0x295a18a7	4.8427106e-14
99	0x32d4cdad	2.4773579e-08
100	0x2f1c38be	1.4208276e-10
101	0x00000000	0.0
102	0x32d4584a	2.4720197e-08
103	0x2f8184cb	2.3559318e-10
104	0x2d0b3ef0	7.91521e-12
105	0x33870210	6.2868025e-08
106	0x2fba16fa	3.384953e-10
107	0x00000000	0.0
108	0x300af5be	5.055333e-10
109	0x2d84556d	1.50446e-11
110	0x2a210d8a	1.430437e-13
111	0x31802eaf	3.7305976e-09
112	0x2dbd9321	2.155215e-11
113	0x00000000	0.0
114	0x32f46048	2.8449122e-08
115	0x2fa70ce3	3.038628e-10
116	0x2d038c15	7.477592e-12
117	0x33a6ce04	7.7674514e-08
118	0x2fefce0d	4.3620255e-10
119	0x00000000	0.0
120	0x35ab4236	1.2759763e-06
121	0x3213a84d	8.594793e-09
122	0x2f2caea1	1.570535e-10
123	0x3623a890	2.438701e-06
124	0x325461b6	1.2362241e-08
125	0x00000000	0.0
126	0x33bcc113	8.789552e-08
127	0x3089f6f2	1.0038248e-09
128	0x2c21631b	2.293449e-12
129	0x349006dc	2.682708e-07
130	0x30c655ec	1.4430817e-09
131	0x00000000	0.0
132	0x3506b636	5.018404e-07
133	0x31e0cafe	6.5423356e-09
134	0x2d4862fb	1.1390662e-11
135	0x35e5e425	1.7128228e-06
136	0x32218940	9.40264e-09
137	0x00000000	0.0
138	0x32de429e	2.5874495e-08
139	0x2f87fa14	2.4734048e-10
140	0x2ba54d2e	1.1745377e-12
141	0x3372b79a	5.6512e-08
142	0x2fc39138	3.5573477e-10
143	0x00000000	0.0
144	0x323cf82b	1.0999467e-08
145	0x2f8436df	2.4049648e-10
146	0x2c1503ed	2.1176353e-12
147	0x3387f03f	6.330128e-08
148	0x2fbdb34d	3.45063e-10
149	0x00000000	0.0
150	0x317b0fb3	3.6534231e-09
151	0x2e0cff09	3.205883e-11
152	0x296f1d10	5.3093868e-14
153	0x31f7b9b5	7.2097586e-09
154	0x2e4ac42b	4.6103715e-11
155	0x00000000	0.0
156	0x30c8432b	1.4571006e-09
157	0x2e0dd808	3.2251563e-11
158	0x2b2ece63	6.2103637e-13
159	0x320d5c0b	8.228208e-09
160	0x2e4b4f4d	4.622729e-11
161	0x00000000	0.0
162	0x32d868b6	2.5193327e-08
163	0x2f9b6dee	2.8272445e-10
164	0x2b37a8af	6.5248756e-13
165	0x339d8c28	7.3363765e-08
166	0x2fdf8124	4.0655224e-10
167	0x00000000	0.0
168	0x32d36115	2.460778e-08
169	0x2f315721	1.612901e-10
170	0x2c10d3f0	2.058128e-12
171	0x3322c377	3.789634e-08
172	0x2f7f1c9f	2.3202283e-10
173	0x00000000	0.0
174	0x32bdc9c8	2.2094255e-08
175	0x2f081609	1.2376956e-10
176	0x298f3e9e	6.361338e-14
177	0x330e7ace	3.317364e-08
178	0x2f43a6ee	1.7794452e-10
179	0x00000000	0.0
180	0x33932502	6.8519526e-08
181	0x2ff22eec	4.4052884e-10
182	0x2c17eb1c	2.1588903e-12
183	0x3400b77d	1.1987682e-07
184	0x302e2312	6.335067e-10
185	0x00000000	0.0
186	0x31ce544c	6.0049725e-09
187	0x2e706e8f	5.4667878e-11
188	0x2981094b	5.730363e-14
189	0x3267d8b9	1.3495247e-08
190	0x2eace9e8	7.8632045e-11
191	0x00000000	0.0
192	0x335c6fd0	5.1324434e-08
193	0x2ff28333	4.4112766e-10
194	0x2d87c8d3	1.5436907e-11
195	0x33f194b2	1.12494845e-07
196	0x302e2d44	6.336516e-10
197	0x00000000	0.0
198	0x31f91eec	7.250369e-09
199	0x2eb7f90c	8.366116e-11
200	0x2b541eb2	7.536013e-13
201	0x32c41e14	2.2831081e-08
202	0x2f0419d2	1.2014503e-10
203	0x00000000	0.0
204	0x3449a7ff	1.87807e-07
205	0x30eafc68	1.7097479e-09
206	0x2e60cd72	5.1114175e-11
207	0x34d4e1ed	3.965246e-07
208	0x3128e6ce	2.4578415e-09
209	0x00000000	0.0
210	0x349697e7	2.80502e-07
211	0x311d606d	2.2901319e-09
212	0x2eb31609	8.143892e-11
213	0x351cbb3e	5.8387e-07
214	0x31621eac	3.2904763e-09
215	0x00000000	0.0
216	0x354b1717	7.5656993e-07
217	0x323d0ad8	1.10037135e-08
218	0x2dc57a2d	2.2450564e-11
219	0x3644ea6f	2.9342734e-06
220	0x3287ce13	1.580978e-08
221	0x00000000	0.0
222	0x350289fe	4.862958e-07
223	0x31cb7fb1	5.9225944e-09
224	0x2d294dd3	9.623818e-12
225	0x35c9b9f5	1.5029788e-06
226	0x321240c9	8.513049e-09
227	0x00000000	0.0
228	0x32f2f3df	2.8283408e-08
229	0x2f7d9d2b	2.3066053e-10
230	0x2c9f9163	4.535193e-12
231	0x337b6381	5.853099e-08
232	0x2fb620cd	3.3128914e-10
233	0x00000000	0.0
234	0x33827488	6.074794e-08
235	0x3009cb67	5.012936e-10
236	0x2d907c8f	1.642622e-11
237	0x34036737	1.2237875e-07
238	0x3046288d	7.2089607e-10
239	0x00000000	0.0
240	0x343dcb1c	1.7675887e-07
241	0x30bbc762	1.3662709e-09
242	0x2e11d081	3.315437e-11
243	0x34bbebcd	3.5003032e-07
244	0x31071166	1.9654975e-09
245	0x00000000	0.0
246	0x3230effb	1.0299114e-08
247	0x2ed62714	9.738535e-11
248	0x2bc92574	1.4292304e-12
249	0x32d4dff5	2.4781892e-08
250	0x2f19db1f	1.3993116e-10
251	0x00000000	0.0
252	0x33791280	5.7991656e-08
253	0x2ff4c87e	4.45258e-10
254	0x2d9674d7	1.7104913e-11
255	0x33f338a5	1.1325873e-07

exp_avg f4 [128]
0	0xb84340f1	-4.6552104e-05
1	0xb8a2cdd3	-7.7631e-05
2	0x3859becc	5.1914525e-05
3	0xb7917617	-1.7340337e-05
4	0xb75033e4	-1.2409848e-05
5	0xb7a8a499	-2.0103807e-05
6	0xb88db7a4	-6.75761e-05
7	0xb87cf433	-6.030891e-05
8	0xb6e00364	-6.676115e-06
9	0xb86e8b72	-5.687349e-05
10	0x382dc803	4.143269e-05
11	0xb82cdf95	-4.1216223e-05
12	0xb8a5b5ec	-7.901699e-05
13	0xb4b804f4	-3.4276275e-07
14	0xb7233a00	-9.729061e-06
15	0x3538fbe2	6.891188e-07
16	0x377c6ae8	1.50452615e-05
17	0x36b2b2fe	5.325651e-06
18	0x3687dc34	4.0489485e-06
19	0x36f983b7	7.436112e-06
20	0x38c0aa34	9.186976e-05
21	0xb8623bec	-5.3938405e-05
22	0xb91bb200	-0.00014848262
23	0xb7db8ae6	-2.6171514e-05
24	0x37eb19d6	2.8026214e-05
25	0x3705e7d8	7.981398e-06
26	0xb6408567	-2.868788e-06
27	0xb7eeabec	-2.8451868e-05
28	0x3686e40d	4.02006e-06
29	0x33ad962e	8.083258e-08
30	0xb6e1d1e7	-6.7299584e-06
31	0x3681b87e	3.8659773e-06
32	0x376eadcc	1.4226371e-05
33	0xb7036be0	-7.833325e-06
34	0xb7978c9a	-1.8066075e-05
35	0xb7d62c50	-2.5531423e-05
36	0xb95a4075	-0.00020814112
37	0xb9087f60	-0.00013017422
38	0x3701b364	7.730767e-06
39	0xb6934897	-4.389392e-06
40	0xb69c8c80	-4.6655186e-06
41	0xb7533583	-1.2589039e-05
42	0x3728f9fe	1.0071786e-05
43	0x36b8d0d6	5.507939e-06
44	0x37abc09b	2.0474477e-05
45	0xb77ece8f	-1.5187673e-05
46	0xb86f71e0	-5.7088095e-05
47	0x367d0b1e	3.770641e-06
48	0x3496ac83	2.8065196e-07
49	0x36e7e847	6.911377e-06
50	0xb534498e	-6.716226e-07
51	0xb6d35c70	-6.299051e-06
52	0xb923269c	-0.00015559274
53	0xb6c8a1e8	-5.979313e-06
54	0xb63482c8	-2.6898215e-06
55	0x36b9eb79	5.5408423e-06
56	0x380257be	3.107613e-05
57	0xb73466cd	-1.0752771e-05
58	0xb7312b3e	-1.056009e-05
59	0xb8f41c41	-0.00011640089
60	0x37435f1e	1.1645052e-05
61	0xb636df66	-2.7250148e-06
62	0xb804a81b	-3.1627813e-05
63	0x36ce0cc7	6.140766e-06
64	0xb6e14416	-6.713449e-06
65	0x371c20d9	9.3059725e-06
66	0xb8ffd0f7	-0.0001219827
67	0xb81f4ea8	-3.798181e-05
68	0x371e75ad	9.444932e-06
69	0x34f4b429	4.5579625e-07
70	0x38464ea3	4.7280115e-05
71	0x361a784f	2.3017817e-06
72	0x3715666c	8.904939e-06
73	0x3807a74a	3.234231e-05
74	0xb7623b84	-1.3484507e-05
75	0x37e0f1f3	2.6815547e-05
76	0x376e7845	1.4213908e-05
77	0xb8111412	-3.4589386e-05
78	0x38488ecc	4.7816706e-05
79	0x37adc195	2.071335e-05
80	0x3797f83f	1.8116201e-05
81	0x383862af	4.3960925e-05
82	0xb821511b	-3.8460927e-05
83	0xb8cdb749	-9.809301e-05
84	0xb9337824	-0.00017115526
85	0xb7fdff75	-3.0278907e-05
86	0xb749e00f	-1.2032701e-05
87	0xb793d539	-1.7623055e-05
88	0x37e59a7b	2.7370863e-05
89	0xb87a1368	-5.962272e-05
90	0xb8118ef6	-3.4703837e-05
91	0xb771cf23	-1.4412947e-05
92	0xb91ca4e5	-0.00014938747
93	0xb727a1d8	-9.991658e-06
94	0xb812d1c8	-3.5004487e-05
95	0xb8405234	-4.5852925e-05
96	0xb7a65d64	-1.983223e-05
97	0xb617f922	-2.2645768e-06
98	0xb7096907	-8.19029e-06
99	0xb5f16c1d	-1.7987364e-06
100	0xb8bbd794	-8.9570094e-05
101	0xb6dc9b06	-6.574558e-06
102	0x37679ab6	1.3804694e-05
103	0xb69fe03f	-4.764675e-06
104	0x37ee4345	2.8403136e-05
105	0xb7969d25	-1.795457e-05
106	0xb808fdff	-3.266148e-05
107	0x38ac5ed0	8.219259e-05
108	0xb3a3c10b	-7.625393e-08
109	0xb8201a26	-3.8171325e-05
110	0x37b53aa5	2.160419e-05
111	0x3715d3b7	8.930386e-06
112	0xb8a353d3	-7.788059e-05
113	0xb8ad239a	-8.255914e-05
114	0x380ed08e	3.404967e-05
115	0xb7ea95d9	-2.7964752e-05
116	0x3615c1cc	2.2315535e-06
117	0xb7baa4f3	-2.2249738e-05
118	0xb86d5204	-5.6581586e-05
119	0xb784cc30	-1.5830708e-05
120	0xb738b9ce	-1.1010516e-05
121	0xb70b34d0	-8.297342e-06
122	0x3716fa93	8.999038e-06
123	0xb72ed3e9	-1.0420547e-05
124	0x37e09769	2.6773387e-05
125	0x388eba14	6.8057474e-05
126	0xb737bb2c	-1.0951229e-05
127	0x361486f1	2.2132265e-06

exp_avg_sq f4 [128]
0	0x3222e78f	9.482291e-09
1	0x32d84e91	2.5181437e-08
2	0x32dbf444	2.5606035e-08
3	0x327559ce	1.4281296e-08
4	0x32927323	1.7048995e-08
5	0x31504e75	3.0312581e-09
6	0x331a8b23	3.5982463e-08
7	0x32ae0aaa	2.0261115e-08
8	0x313d2d71	2.752895e-09
9	0x3296762c	1.7516037e-08
10	0x32bbf0e7	2.1879215e-08
11	0x32eed831	2.7805159e-08
12	0x32f0af89	2.8019501e-08
13	0x32eef22e	2.7816977e-08
14	0x31d6fbb6	6.256836e-09
15	0x2f9c8602	2.8471453e-10
16	0x30d8f980	1.5786981e-09
17	0x31813aa1	3.7610595e-09
18	0x2f83a62a	2.3946828e-10
19	0x31a687f4	4.846692e-09
20	0x34137cbd	1.3735821e-07
21	0x3289bbad	1.6034244e-08
22	0x33e05b0f	1.0447376e-07
23	0x3187cf80	3.952607e-09
24	0x3183bc7c	3.83403e-09
25	0x300ccf58	5.1226356e-10
26	0x300d3002	5.1363724e-10
27	0x319b361b	4.517245e-09
28	0x31312937	2.5780318e-09
29	0x3107de92	1.9771602e-09
30	0x31f1db5f	7.0389627e-09
31	0x30702873	8.7368973e-10
32	0x31f1e983	7.0405703e-09
33	0x30b7792f	1.3349445e-09
34	0x32ea95de	2.7309337e-08
35	0x331d0713	3.6560845e-08
36	0x343c9e2a	1.7566404e-07
37	0x33cb2112	9.4589396e-08
38	0x317cf4b6	3.6809928e-09
39	0x32099c22	8.00995e-09
40	0x32bb9821	2.1838845e-08
41	0x30d5b05a	1.5547912e-09
42	0x31f454a4	7.110957e-09
43	0x30c68d8c	1.4446626e-09
44	0x311d3cb6	2.2881017e-09
45	0x329d10b7	1.8284807e-08
46	0x326bde64	1.3729366e-08
47	0x303a75d1	6.7833833e-10
48	0x3024eaba	5.999642e-10
49	0x3078f880	9.0575014e-10
50	0x30705b1b	8.744096e-10
51	0x31913ca6	4.2269503e-09
52	0x33f60aef	1.14572565e-07
53	0x3009eb01	5.017427e-10
54	0x30ed591f	1.7269349e-09
55	0x311d4f0f	2.2891447e-09
56	0x3215926d	8.706235e-09
57	0x320c1a3c	8.1550375e-09
58	0x322eeb74	1.0181669e-08
59	0x3380b3ef	5.993194e-08
60	0x319de6e7	4.595552e-09
61	0x30eda044	1.728957e-09
62	0x314cff93	2.9831184e-09
63	0x2fb206b6	3.238278e-10
64	0x3128f481	2.4586202e-09
65	0x31eb3a08	6.8459975e-09
66	0x3383a50d	6.1301854e-08
67	0x31dadc9b	6.369715e-09
68	0x313e117d	2.765858e-09
69	0x3119f054	2.240104e-09
70	0x324abb62	1.1800553e-08
71	0x31de2ab9	6.4659074e-09
72	0x32ce70b7	2.4032813e-08
73	0x326297ef	1.3189477e-08
74	0x328f81bb	1.6706386e-08
75	0x3285645f	1.5528881e-08
76	0x3080d083	9.372488e-10
77	0x33334101	4.1735806e-08
78	0x321e4017	9.211383e-09
79	0x32853fcb	1.5512247e-08
80	0x3121ef35	2.3564557e-09
81	0x3298187b	1.7706261e-08
82	0x321ae04c	9.014979e-09
83	0x334512a9	4.5884608e-08
84	0x341be021	1.4517038e-07
85	0x318ddff5	4.129101e-09
86	0x3192fca4	4.277881e-09
87	0x3345873e	4.599064e-08
88	0x32923cea	1.7024337e-08
89	0x32868201	1.5658772e-08
90	0x31665f9d	3.3523755e-09
91	0x320b9cd5	8.126524e-09
92	0x340812c5	1.2672815e-07
93	0x319a32e1	4.487774e-09
94	0x318b01b1	4.0456247e-09
95	0x31ff273c	7.425937e-09
96	0x3209840c	8.0044735e-09
97	0x309fb370	1.1619772e-09
98	0x314a70a8	2.9458906e-09
99	0x31e0c422	6.5415557e-09
100	0x3346b3c9	4.626398e-08
101	0x3222b980	9.471819e-09
102	0x3015ea80	5.453913e-10
103	0x30091f9a	4.988522e-10
104	0x3334c211	4.208602e-08
105	0x30f4e92f	1.7819611e-09
106	0x3297eb98	1.768585e-08
107	0x32ed894e	2.765287e-08
108	0x2f94e943	2.7086786e-10
109	0x33580580	5.029642e-08
110	0x3196d8ee	4.3902366e-09
111	0x31b8a0c0	5.37338e-09
112	0x32b70a06	2.1308562e-08
113	0x3371a26e	5.6259914e-08
114	0x32ca21b0	2.3531214e-08
115	0x320f9c48	8.35923e-09
116	0x2f733f0e	2.2123123e-10
117	0x3335e839	4.2353552e-08
118	0x32869a00	1.5669684e-08
119	0x30d4d0a7	1.5484333e-09
120	0x31fb74ec	7.318354e-09
121	0x310dc40e	2.0629645e-09
122	0x300dd7bf	5.1602095e-10
123	0x3119627b	2.232041e-09
124	0x31f46791	7.1131088e-09
125	0x338cd5e3	6.558164e-08
126	0x319de8fc	4.5957886e-09
127	0x306875a0	8.4568264e-10
