mlagents-env/results/=PelletGrabberRun5/Agent Controller/Agent Controller-2624.pt (torch, 151337 bytes, 11 tensors)

network_body._body_endoder.seq_layers.0.weight f4 [128, 6]
0.43242353 -0.5229728 0.051657375 0.05803341 0.12920488 -0.12858938 0.0039051203 -0.87706494
0.504587 -0.3771085 0.86802727 0.50225806 -0.5858185 -0.63357043 0.19325434 0.37018585
-0.064176075 -0.358903 0.13135554 -0.53495044 0.5259009 0.69265836 0.4810991 -0.13275906
-0.37066063 -0.5312558 -0.16502571 0.075314365 -0.23205084 -0.39116806 0.1734447 -0.88530433
-0.27387008 0.71247053 -0.20830914 -0.108560644 0.06409233 1.1174029 -0.4226933 -0.7912274
0.22150038 0.3583682 -0.6542192 -0.7424396 0.5191271 0.24284354 0.092709415 0.11345573
-0.7271288 -0.24960299 -0.24988621 0.037541956 0.11985709 -0.2512429 0.096657865 0.18443014
-0.0504114 -0.08083547 0.48245806 0.46079713 0.10569322 -0.17426747 -0.44265807 -0.05825434
0.21601593 0.62643903 0.21921146 1.0334811 0.10481883 0.03907077 0.5765626 0.31459764
0.30268928 -0.66483 -0.06823994 -0.28460917 -0.40001503 -0.4485211 -0.776746 0.98581177
0.09751934 -0.05745465 0.48679084 -0.12717772 0.18979518 0.3668184 0.31099883 0.05222114
0.6145798 -0.007401103 -0.36134183 -0.11634917 0.06290722 -0.9294623 -0.12472136 0.27701455
-0.30346614 -0.20824559 -0.0856841 0.7405937 0.03093672 -0.023942545 0.17280883 -0.3650702
0.047351357 0.7787269 -0.3480298 0.419654 0.4337175 0.8083561 -0.29009965 -0.57556844
0.3635723 -0.6714028 0.23682733 0.118208714 -0.5031948 0.32198393 -0.0027799567 0.20926881
-0.10744918 -0.5459315 -0.47801208 0.00010107968 0.37380975 0.0078096497 -0.5220893 0.45075563
-0.26138648 -0.30091417 -0.21735434 0.40722254 -0.10454981 0.1681709 0.09833277 -0.10944408
-0.30062205 0.10356112 -0.3601833 -0.14405704 0.06888291 0.8685695 0.18530434 -0.64572144
-0.19714996 0.51092803 0.19301665 -0.5276067 0.36088976 0.17389113 0.5301489 0.091295615
-0.97127134 -0.6499187 -0.45217046 -0.11372764 -0.07132707 0.09442354 -0.008481708 0.16453226
-0.642347 0.6612344 0.10597731 -0.046505425 0.29273033 -0.580193 -0.32434097 -0.20955344
-0.14070678 0.46094793 0.1796332 -0.14287156 0.42671564 0.9801577 0.73918104 -0.6714044
0.65525055 0.12685983 -0.84848493 0.6371322 0.034590676 -0.26563236 0.44026098 -0.2290523
-0.4061464 -0.6334024 -0.007378937 0.09741852 0.0018542622 -0.3848633 0.641008 0.19887488
-0.21458755 -0.028703567 0.027385034 0.014398712 0.64500964 0.48172143 0.16464737 0.1657993
-0.20474887 0.075961865 -0.017187424 0.35568747 -0.060030844 0.075837076 -0.3170619 -0.05676092
-0.54355067 -0.2074234 -0.49317142 0.25294417 -0.17748566 0.552522 0.20949069 -0.3317881
-0.00081080786 -0.261351 -0.3066894 -0.54331076 -0.6669257 -0.5130915 0.48238254 -0.024719073
-0.11019224 -0.21549882 -0.13669674 -0.35080633 0.41707858 -0.747501 -0.055307716 0.023914643
0.468182 0.29917637 0.49287543 -0.15642303 -0.06957871 0.6154645 0.32046455 0.56854546
-0.10356554 -0.3096185 0.45081878 0.59732217 0.42816153 0.27381894 -0.520364 0.3161908
0.04071114 0.22466426 -1.0245249 -0.024567142 0.45660096 0.1526103 -0.51586807 -0.107211955
00000000: 9e66 dd3e 8ce1 05bf af96 533d 71b4 6d3d
00000010: 494e 043e efac 03be 0ced 7f3b 5487 60bf
00000020: 9d2c 013f 5e14 c1be 0937 5e3f fc93 003f
00000030: 34f8 15bf ac31 22bf 77e4 453e 0089 bd3e
00000040: bf6e 83bd 22c2 b7be 1182 063e 83f2 08bf
00000050: 71a1 063f 0f52 313f 9f52 f63e fef1 07be
00000060: 3bc7 bdbe 6100 08bf 80fc 28be 6b3e 9a3d
00000070: bc9e 6dbe 2e47 c8be 7d9b 313e 4ea3 62bf
00000080: b338 8cbe 7864 363f fe4e 55be 0b55 debd
00000090: d742 833d 0f07 8f3f 426b d8be e18d 4abf
000000a0: ffd0 623e 097c b73e e97a 27bf 8610 3ebf
000000b0: 83e5 043f faab 783e 6fde bd3d 7a5b e83d
000000c0: 1d25 3abf ed97 7fbe 2ce2 7fbe 98c5 193d
000000d0: a277 f53d e9a2 80be 8ff4 c53d 41db 3c3e
000000e0: 2f7c 4ebd 118d a5bd be04 f73e 9aed eb3e
000000f0: b075 d83d 2c73 32be 14a4 e2be 1a9c 6ebd
00000100: 4833 5d3e 4f5e 203f f878 603e 1c49 843f
00000110: 41ab d63d ac08 203d 9b99 133f f112 a13e
00000120: 17fa 9a3e 4d32 2abf 62c1 8bbd 4bb8 91be
00000130: c5ce ccbe 8fa4 e5be d3d8 46bf 295e 7c3f
00000140: 38b8 c73d 9155 6bbd a63c f93e e03a 02be
00000150: ab59 423e 9fcf bb3e 3d3b 9f3e d6e5 553d
00000160: 1a55 1d3f f484 f2bb cc01 b9be 7948 eebd
00000170: 80d5 803d 3ef1 6dbf ea6d ffbd dad4 8d3e
00000180: ea5f 9bbe 553e 55be 257b afbd 8c97 3d3f
00000190: 016f fd3c 2823 c4bc ccf4 303e 7bea babe
000001a0: 7ff3 413d a55a 473f f630 b2be e4dc d63e
000001b0: 3810 de3e 6df0 4e3f f187 94be 7458 13bf
000001c0: 2626 ba3e 0ee1 2bbf dd82 723e 6917 f23d
000001d0: 60d1 00bf 14db a43e ef2f 36bb 904a 563e
000001e0: 510e dcbd 2bc2 0bbf 00be f4be bdfa d338
000001f0: fe63 bf3e 17e8 ff3b a5a7 05bf 71c9 e63e
00000200: 73d4 85be 6c11 9abe 2392 5ebe 797f d03e
00000210: 361e d6bd fe34 2c3e b162 c93d 3824 e0bd
00000220: 22eb 99be da17 d43d f269 b8be b083 13be
00000230: 7c12 8d3d 925a 5e3f 6cc0 3d3e 004e 25bf
00000240: aee1 49be 2ecc 023f 28a6 453e 3c11 07bf
00000250: 8bc6 b83e 8410 323e d7b7 073f 32f9 ba3d
00000260: 3da5 78bf 1261 26bf e382 e7be 09ea e8bd
00000270: ed13 92bd 2161 c13d ddf6 0abc 257b 283e
00000280: da70 24bf a846 293f a20a d93d 797c 3ebd
00000290: c0e0 953e 8787 14bf 0510 a6be 2d95 56be
000002a0: 7015 10be 5e01 ec3e c4f1 373e ec4c 12be
000002b0: 797a da3e 9deb 7a3f f83a 3d3f 29e1 2bbf
000002c0: 80be 273f 8be7 013e 4f36 59bf 191b 233f
000002d0: f4ae 0d3d f700 88be e369 e13e b08c 6abe
000002e0: 6cf2 cfbe a926 22bf 03cb f1bb 5c83 c73d
000002f0: b70a f33a cd0c c5be 1a19 243f dba5 4b3e
00000300: d7bc 5bbe be23 ebbc 9456 e03c 93e8 6b3c
00000310: 5a1f 253f 31a4 f63e 5299 283e 4bc7 293e
00000320: b0a9 51be e591 9b3d a4cc 8cbc ab1c b63e
00000330: e7e2 75bd 7850 9b3d f055 a2be 237e 68bd
00000340: 2326 0bbf cd66 54be f780 fcbe e681 813e
00000350: cdbe 35be 1572 0d3f ba84 563e 21e0 a9be
00000360: 658c 54ba cccf 85be 6506 9dbe 6a16 0bbf
00000370: a5bb 2abf f759 03bf d8fa f63e a77f cabc
00000380: 78ac e1bd b9ab 5cbe 3bfa 0bbe e39c b3be
00000390: 538b d53e 3a5c 3fbf 588a 62bd a4e8 c33c
000003a0: 8db5 ef3e a52d 993e 2b5a fc3e 5c2d 20be
000003b0: 487f 8ebd 158f 1d3f ee13 a43e 328c 113f
000003c0: 2b1a d4bd 5186 9ebe b8d1 e63e 1bea 183f
000003d0: fd37 db3e ff31 8c3e 9336 05bf c3e3 a13e
000003e0: b9c0 263d 630e 663e a223 83bf 0841 c9bc
000003f0: 9ac7 e93e e045 1c3e ee0f 04bf f191 dbbd

network_body._body_endoder.seq_layers.0.bias f4 [128]
0.0 0.0 0.0 0.0 0.0 0.0 0.0 0.0
0.0 0.0 0.0 0.0 0.0 0.0 0.0 0.0
0.0 0.0 0.0 0.0 0.0 0.0 0.0 0.0
0.0 0.0 0.0 0.0 0.0 0.0 0.0 0.0
0.0 0.0 0.0 0.0 0.0 0.0 0.0 0.0
0.0 0.0 0.0 0.0 0.0 0.0 0.0 0.0
0.0 0.0 0.0 0.0 0.0 0.0 0.0 0.0
0.0 0.0 0.0 0.0 0.0 0.0 0.0 0.0
0.0 0.0 0.0 0.0 0.0 0.0 0.0 0.0
0.0 0.0 0.0 0.0 0.0 0.0 0.0 0.0
0.0 0.0 0.0 0.0 0.0 0.0 0.0 0.0
0.0 0.0 0.0 0.0 0.0 0.0 0.0 0.0
0.0 0.0 0.0 0.0 0.0 0.0 0.0 0.0
0.0 0.0 0.0 0.0 0.0 0.0 0.0 0.0
0.0 0.0 0.0 0.0 0.0 0.0 0.0 0.0
0.0 0.0 0.0 0.0 0.0 0.0 0.0 0.0
00000000: 0000 0000 0000 0000 0000 0000 0000 0000
00000010: 0000 0000 0000 0000 0000 0000 0000 0000
00000020: 0000 0000 0000 0000 0000 0000 0000 0000
00000030: 0000 0000 0000 0000 0000 0000 0000 0000
00000040: 0000 0000 0000 0000 0000 0000 0000 0000
00000050: 0000 0000 0000 0000 0000 0000 0000 0000
00000060: 0000 0000 0000 0000 0000 0000 0000 0000
00000070: 0000 0000 0000 0000 0000 0000 0000 0000
00000080: 0000 0000 0000 0000 0000 0000 0000 0000
00000090: 0000 0000 0000 0000 0000 0000 0000 0000
000000a0: 0000 0000 0000 0000 0000 0000 0000 0000
000000b0: 0000 0000 0000 0000 0000 0000 0000 0000
000000c0: 0000 0000 0000 0000 0000 0000 0000 0000
000000d0: 0000 0000 0000 0000 0000 0000 0000 0000
000000e0: 0000 0000 0000 0000 0000 0000 0000 0000
000000f0: 0000 0000 0000 0000 0000 0000 0000 0000
00000100: 0000 0000 0000 0000 0000 0000 0000 0000
00000110: 0000 0000 0000 0000 0000 0000 0000 0000
00000120: 0000 0000 0000 0000 0000 0000 0000 0000
00000130: 0000 0000 0000 0000 0000 0000 0000 0000
00000140: 0000 0000 0000 0000 0000 0000 0000 0000
00000150: 0000 0000 0000 0000 0000 0000 0000 0000
00000160: 0000 0000 0000 0000 0000 0000 0000 0000
00000170: 0000 0000 0000 0000 0000 0000 0000 0000
00000180: 0000 0000 0000 0000 0000 0000 0000 0000
00000190: 0000 0000 0000 0000 0000 0000 0000 0000
000001a0: 0000 0000 0000 0000 0000 0000 0000 0000
000001b0: 0000 0000 0000 0000 0000 0000 0000 0000
000001c0: 0000 0000 0000 0000 0000 0000 0000 0000
000001d0: 0000 0000 0000 0000 0000 0000 0000 0000
000001e0: 0000 0000 0000 0000 0000 0000 0000 0000
000001f0: 0000 0000 0000 0000 0000 0000 0000 0000

network_body._body_endoder.seq_layers.2.weight f4 [128, 128]
-0.032165032 -0.014221197 0.110854216 -0.1335127 0.05682768 -0.03636921 0.10212477 0.18888466
0.050475296 0.008687785 0.024986567 -0.0016911495 0.030668994 -0.1650689 0.10143632 0.11042783
-0.03344243 0.06012142 -0.16980655 -0.026018413 0.05558013 -0.035052292 -0.030341532 -0.04562316
0.049205806 -0.03007991 -0.12401907 -0.016117897 0.0410807 -0.02908138 -0.13861848 0.024520896
0.017729487 -0.15603414 0.0086084 0.12281062 0.02666466 0.018374462 -0.0016789644 0.047062308
0.07167334 -0.07473577 0.039885573 -0.032670368 0.06158029 0.11333297 0.028263487 0.11171753
-0.054796744 0.022069123 -0.033232152 0.013738814 0.018714838 -0.053230003 -0.06705028 -0.10823291
-0.010427885 -0.13006087 -0.036406647 0.18652408 -0.026993033 -0.082842425 0.07014633 -0.1050757
0.0035139117 0.041807607 -0.037886664 -0.00715606 0.031011311 0.04089001 4.3928376e-05 -0.017495178
0.039805114 -0.032567393 0.027987398 0.18379267 0.010619779 0.023127131 0.15384123 -0.05909335
-0.017164627 0.032907154 0.015257532 0.04759817 -0.029612923 -0.0012962125 0.03526809 0.01679987
0.07634099 -0.05880582 0.037868336 -0.041068934 0.1629114 0.0385803 0.09642653 -0.0631702
-0.07529346 0.037596874 -0.19750763 -0.04258375 -0.08364309 0.06016464 -0.0013604467 -0.08419352
-0.053644683 0.013149824 0.14820188 0.047176067 -0.04450955 0.017255958 0.053444795 0.20102488
-0.06484164 0.13686238 -0.052640576 -0.10439174 0.061293844 -0.029185358 -0.078575134 0.14337523
-0.15657532 0.033248805 -0.016525812 -0.00046656976 0.064508915 -0.06425246 -0.003596081 -0.071062386
0.06721299 0.0065314146 -0.07038332 -0.1509799 0.13249128 -0.19065545 0.03641156 -0.17480573
0.03150686 0.19483548 -0.08065423 0.04361156 0.049572896 0.09444516 -0.17278841 0.12925558
-0.042098712 0.090249375 -0.053312045 0.095034964 -0.01560613 -0.009350432 -0.014974597 0.03750072
0.09331819 0.015806513 -0.15436444 0.016640594 0.04968999 0.083883874 0.15934929 -0.1673982
0.022256793 0.18768562 -0.013482796 0.065439776 0.029746184 0.124123365 -0.035535228 -0.018962491
0.069733 0.0027214547 0.1675011 -0.016713649 -0.02301956 0.062073145 0.07238713 0.015538652
0.036908954 0.0013185067 0.075050764 0.08034289 -0.039645176 0.045248292 -0.08089245 0.027134638
0.022265265 0.14267741 0.1011232 -0.13720086 0.10089398 0.029629745 0.027584048 -0.0016066548
-0.062716424 -0.060074516 0.039963476 0.00112749 0.09729493 0.09219828 -0.030415349 0.09624771
-0.0030216458 -0.041190103 -0.020946076 0.1007528 0.13632663 0.007477636 0.04546155 0.022880133
-0.104181804 0.018857166 -0.09205848 -0.10966357 0.029431313 0.12289942 0.071698524 -0.05497075
-0.06956248 0.09615847 0.11470781 0.0887616 0.037785497 0.004219481 0.015411567 -0.015943648
0.101562485 0.10714338 0.09692865 0.066886775 -0.038356155 -0.0663845 -0.064941615 0.1451611
-0.025531055 0.021885097 0.00024738238 -0.12224031 0.031505007 -0.16273108 0.10897911 -0.060932025
0.0096292775 -0.0027905155 -0.13287754 -0.04377778 0.09674692 -0.039624084 0.02865338 -0.0030976795
0.12602271 -0.026143285 0.029333323 -0.06855925 -0.009618689 -0.064422905 0.21800517 -0.06295399
00000000: 7bbf 03bd 0600 69bc 8907 e33d 8eb7 08be
00000010: 24c4 683d e1f7 14bd cb26 d13d fb6a 413e
00000020: 2fbf 4e3d 3657 0e3c a1b0 cc3c 90a9 ddba
00000030: 8b3d fb3c d207 29be d8bd cf3d fc27 e23d
00000040: eefa 08bd e141 763d c5e1 2dbe 9124 d5bc
00000050: fea7 633d fe92 0fbd ce8e f8bc 5adf 3abd
00000060: 078c 493d 256a f6bc b6fd fdbd ae09 84bc
00000070: 3c44 283d 133c eebc 01f2 0dbe 0ce0 c83c
00000080: 6e3d 913c 6ac7 1fbe 3f0a 0d3c 2284 fb3d
00000090: d86f da3c 0a86 963c b210 dcba 68c4 403d
000000a0: 79c9 923d 110f 99bd 0e5f 233d 5dd1 05bd
000000b0: 9d3b 7c3d 1e1b e83d d488 e73c 29cc e43d
000000c0: 8d72 60bd 4eca b43c 701e 08bd c318 613c
000000d0: dc4f 993c b407 5abd a851 89bd 37a9 ddbd
000000e0: b8d9 2abc ad2e 05be 231f 15bd 2b00 3f3e
000000f0: 7e20 ddbc 4aa9 a9bd e1a8 8f3d ee31 d7bd
00000100: a849 663b 743e 2b3d 0c2f 1bbd 627d eabb
00000110: 6f0b fe3c 487c 273d bc3f 3838 0c52 8fbc
00000120: b00a 233d 6365 05bd d445 e53c 2534 3c3e
00000130: 95fe 2d3c 1c75 bd3c 8e88 1d3e de0b 72bd
00000140: d59c 8cbc a7c9 063d bafa 793c 4cf6 423d
00000150: cd96 f2bc ade5 a9ba 4675 103d e29f 893c
00000160: aa58 9c3d 5fde 70bd d41b 1b3d e637 28bd
00000170: 3fd2 263e 6006 1e3d 467b c53d 615f 81bd
00000180: 7533 9abd 2eff 193d 713f 4abe 4c6c 2ebd
00000190: 124d abbd 336f 763d 0451 b2ba a76d acbd
000001a0: 87ba 5bbd 5c72 573c 3cc2 173e b13b 413d
000001b0: a54f 36bd 5e5c 8d3c eee8 5a3d 77d9 4d3e
000001c0: b2cb 84bd a725 0c3e a59d 57bd 56cb d5bd
000001d0: 410f 7b3d 2216 efbc 00ec a0bd f5d0 123e
000001e0: 4855 20be e62f 083d 2461 87bc ef9d f4b9
000001f0: 401d 843d cb96 83bd 3aac 6bbb 2889 91bd
00000200: f7a6 893d 7a05 d63b 2125 90bd 7a9a 1abe
00000210: cbab 073e 2f3b 43be 4a24 153d 4600 33be
00000220: 560d 013d f482 473e 0c2e a5bd 09a2 323d
00000230: f30c 4b3d 776c c13d 72ef 30be 935b 043e
00000240: b36f 2cbd aad4 b83d bb5d 5abd b1a1 c23d
00000250: dab0 7fbc 8e32 19bc 0358 75bc 5b9a 193d
00000260: 9b1d bf3d a97c 813c b611 1ebe db51 883c
00000270: bb87 4b3d 4fcb ab3d 762c 233e 6f6a 2bbe
00000280: e153 b63c a930 403e f2e6 5cbc 4a05 863d
00000290: 45ae f33c 6434 fe3d 638d 11bd 3a57 9bbc
000002a0: 2dd0 8e3d 6f5a 323b 6985 2b3e 10eb 88bc
000002b0: 8493 bcbc 6940 7e3d b43f 943d d595 7e3c
000002c0: d82d 173d bed1 ac3a 37b4 993d d08a a43d
000002d0: fb62 22bd 4656 393d f1aa a5bd 7649 de3c
000002e0: a565 b63c 071a 123e ae19 cf3d 627e 0cbe
000002f0: 81a1 ce3d 14ba f23c f1f7 e13c 6496 d2ba
00000300: 7871 80bd b210 76bd beb0 233d 49c8 933a
00000310: 9042 c73d 74d2 bc3d 9c29 f9bc 851d c53d
00000320: ce06 46bb f4b6 28bd 1b97 abbc 7c57 ce3d
00000330: 3599 0b3e f506 f53b e435 3a3d 1e6f bb3c
00000340: 455d d5bd 587a 9a3c 2889 bcbd 4b97 e0bd
00000350: f019 f13c b1b2 fb3d add6 923d 0229 61bd
00000360: c676 8ebd bbee c43d eeeb ea3d a4c8 b53d
00000370: f7c4 1a3d 9243 8a3b cc80 7c3c 419c 82bc
00000380: feff cf3d fd6d db3d 8782 c63d effb 883d
00000390: 581b 1dbd 99f4 87bd 1c00 85bd 1da5 143e
000003a0: 8126 d1bc 6048 b33c 1ab3 8139 2159 fabd
000003b0: 650b 013d faa2 26be 7130 df3d dc93 79bd
000003c0: 1ec4 1d3c 15e1 36bb 0d11 08be 5450 33bd
000003d0: 4023 c63d dd4c 22bd 7eba ea3c 7002 4bbb
000003e0: 190c 013e 712a d6bc 704c f03c cb68 8cbd
000003f0: b597 1dbc 28f0 83bd bf3c 5f3e 06ee 80bd

network_body._body_endoder.seq_layers.2.bias f4 [128]
0.0 0.0 0.0 0.0 0.0 0.0 0.0 0.0
0.0 0.0 0.0 0.0 0.0 0.0 0.0 0.0
0.0 0.0 0.0 0.0 0.0 0.0 0.0 0.0
0.0 0.0 0.0 0.0 0.0 0.0 0.0 0.0
0.0 0.0 0.0 0.0 0.0 0.0 0.0 0.0
0.0 0.0 0.0 0.0 0.0 0.0 0.0 0.0
0.0 0.0 0.0 0.0 0.0 0.0 0.0 0.0
0.0 0.0 0.0 0.0 0.0 0.0 0.0 0.0
0.0 0.0 0.0 0.0 0.0 0.0 0.0 0.0
0.0 0.0 0.0 0.0 0.0 0.0 0.0 0.0
0.0 0.0 0.0 0.0 0.0 0.0 0.0 0.0
0.0 0.0 0.0 0.0 0.0 0.0 0.0 0.0
0.0 0.0 0.0 0.0 0.0 0.0 0.0 0.0
0.0 0.0 0.0 0.0 0.0 0.0 0.0 0.0
0.0 0.0 0.0 0.0 0.0 0.0 0.0 0.0
0.0 0.0 0.0 0.0 0.0 0.0 0.0 0.0
00000000: 0000 0000 0000 0000 0000 0000 0000 0000
00000010: 0000 0000 0000 0000 0000 0000 0000 0000
00000020: 0000 0000 0000 0000 0000 0000 0000 0000
00000030: 0000 0000 0000 0000 0000 0000 0000 0000
00000040: 0000 0000 0000 0000 0000 0000 0000 0000
00000050: 0000 0000 0000 0000 0000 0000 0000 0000
00000060: 0000 0000 0000 0000 0000 0000 0000 0000
00000070: 0000 0000 0000 0000 0000 0000 0000 0000
00000080: 0000 0000 0000 0000 0000 0000 0000 0000
00000090: 0000 0000 0000 0000 0000 0000 0000 0000
000000a0: 0000 0000 0000 0000 0000 0000 0000 0000
000000b0: 0000 0000 0000 0000 0000 0000 0000 0000
000000c0: 0000 0000 0000 0000 0000 0000 0000 0000
000000d0: 0000 0000 0000 0000 0000 0000 0000 0000
000000e0: 0000 0000 0000 0000 0000 0000 0000 0000
000000f0: 0000 0000 0000 0000 0000 0000 0000 0000
00000100: 0000 0000 0000 0000 0000 0000 0000 0000
00000110: 0000 0000 0000 0000 0000 0000 0000 0000
00000120: 0000 0000 0000 0000 0000 0000 0000 0000
00000130: 0000 0000 0000 0000 0000 0000 0000 0000
00000140: 0000 0000 0000 0000 0000 0000 0000 0000
00000150: 0000 0000 0000 0000 0000 0000 0000 0000
00000160: 0000 0000 0000 0000 0000 0000 0000 0000
00000170: 0000 0000 0000 0000 0000 0000 0000 0000
00000180: 0000 0000 0000 0000 0000 0000 0000 0000
00000190: 0000 0000 0000 0000 0000 0000 0000 0000
000001a0: 0000 0000 0000 0000 0000 0000 0000 0000
000001b0: 0000 0000 0000 0000 0000 0000 0000 0000
000001c0: 0000 0000 0000 0000 0000 0000 0000 0000
000001d0: 0000 0000 0000 0000 0000 0000 0000 0000
000001e0: 0000 0000 0000 0000 0000 0000 0000 0000
000001f0: 0000 0000 0000 0000 0000 0000 0000 0000

action_model._continuous_distribution.mu.weight f4 [1, 128]
0.0020263481 -0.011328287 0.0025110154 -0.007979207 -0.0143200755 -0.014840356 -0.0065025887 -0.006308574
-0.00429995 0.022221638 0.010371109 0.0022274198 -0.028082823 -0.017217737 0.0008846537 -0.003347803
-0.021293474 0.005661666 -0.03936125 0.00066970784 -0.010109774 -7.4674106e-05 0.042414706 0.017059488
0.030271882 0.011340947 0.0074937413 0.0037364643 -0.0052511073 0.023643518 0.020370077 0.030128364
-0.0058608865 -0.0143982535 0.0024339175 -0.034154635 -0.0002623746 0.0029379227 0.01841052 0.0057954765
0.008623762 -0.002314103 0.012214866 0.038711872 -0.0006999382 0.0015683452 0.0064927 0.026457334
-0.0102076745 0.035609584 -0.005067912 -0.0010643209 -0.016634233 -0.01711618 -0.0015908966 -0.006333181
0.01620633 0.026015004 -0.027390296 0.035717838 0.018239917 0.0042478857 0.013501919 -0.0063807606
0.020063141 0.014319168 -0.034154944 -0.021086136 0.0018347896 0.028761676 0.021484759 0.014317024
0.0075619505 -0.014422866 0.013881668 -0.030549774 -0.0049630865 0.012850739 0.002106532 0.016345086
0.018660162 -0.025482878 -0.020312076 -0.0063719 -0.0024882467 0.0011632814 0.014734359 0.0056579593
0.004397783 -0.023920164 -0.0016960386 0.026825627 0.001264022 0.00277096 0.0057725604 -0.02103231
0.020505184 0.0010303087 -0.00080842973 -0.0076745874 0.026442235 0.0031537747 -0.016488096 0.012323536
-0.027366892 0.01414027 -0.0022177966 -0.010170975 -0.012027916 0.020195587 -0.004011975 -0.0438622
0.021970505 0.023032334 0.030345554 -0.018235907 0.0069606043 -0.026461858 0.019829521 -0.0062998245
0.011934034 0.025139568 0.0048356536 0.013960935 0.0030163599 -0.019421106 -0.018453024 0.017453296
00000000: 7bcc 043b 489a 39bc d98f 243b 38bb 02bc
00000010: c09e 6abc f724 73bc ab13 d5bb 28b8 cebb
00000020: 98e6 8cbb 270a b63c 95eb 293c e7f9 113b
00000030: f30d e6bc 360c 8dbc 1be8 673a d066 5bbb
00000040: a76f aebc 7f85 b93b 4339 21bd 558f 2f3a
00000050: 77a3 25bc 5b9a 9cb8 0bbb 2d3d 57c0 8b3c
00000060: bdfc f73c 61cf 393c 0f8e f53b 78df 743b
00000070: 7b11 acbb 0db0 c13c 26df a63c c2cf f63c
00000080: ae0c c0bb a7e6 6bbc 5c82 1f3b bbe5 0bbd
00000090: 538f 89b9 2a8a 403b a9d1 963c fbe7 bd3b
000000a0: ae4a 0d3c 35a8 17bb dc20 483c 5790 1e3d
000000b0: 0f7c 37ba ef90 cd3a b7c0 d43b 0dbd d83c
000000c0: 173e 27bc 5bdb 113d ba10 a6bb af80 8bba
000000d0: 8444 88bc 3b37 8cbc a285 d0ba 9386 cfbb
000000e0: 23c3 843c 6b1d d53c 9d61 e0bc de4c 123d
000000f0: e16b 953c d931 8b3b 2737 5d3c b315 d1bb
00000100: 755b a43c f29a 6a3c 0ee6 0bbd d5bc acbc
00000110: 537d f03a 9b9d eb3c ce00 b03c f391 6a3c
00000120: 3dca f73b e24d 6cbc f06f 633c 8543 fabc
00000130: 63a1 a2bb e88b 523c be0d 0a3b 21e6 853c
00000140: 32dd 983c 78c1 d0bc 8365 a6bc 5fcb d0bb
00000150: da11 23bb 3f79 983a 6268 713c 6766 b93b
00000160: 471b 903b 38f4 c3bc 9d4d deba 6bc1 db3c
00000170: 8aad a53a ff98 353b bf27 bd3b f34b acbc
00000180: 7dfa a73c 6c0b 873a cdec 53ba 1b7b fbbb
00000190: 639d d83c 8faf 4e3b 0b12 87bc a8e8 493c
000001a0: 8830 e0bc 97ac 673c 7458 11bb 29a4 26bc
000001b0: bc10 45bc 3771 a53c e376 83bb daa8 33bd
000001c0: 7dfb b33c 4eae bc3c 3d97 f83c 7863 95bc
000001d0: c815 e43b 8ac6 d8bc 8571 a23c c26e cebb
000001e0: f786 433c 7ff1 cd3c 6774 9e3b 68bc 643c
000001f0: 1fae 453b 0319 9fbc cc2a 97bc 37fa 8e3c

action_model._discrete_distribution.branches.0.weight f4 [1, 128]
-0.00014526978 0.008505813 -0.0051008216 -0.006208733 -0.0026114562 0.00074503006 0.0018073643 0.0039356938
0.0025861077 -0.012560042 -0.006165358 -0.017428538 0.009045605 -0.0059009306 -0.0023532542 -0.0006209495
0.013406229 0.004240015 -0.008605099 0.00018878844 0.006443605 -0.0034862116 0.0074136495 -0.0009057546
-0.012709421 0.0050477623 0.009238872 0.007646033 -0.008418265 -0.0045258566 -0.0074693486 -0.0012702728
-0.005742695 -0.008449099 0.015838178 0.0053876997 0.002944189 8.725742e-05 -0.007484869 -0.0030495513
-0.006510352 -0.004227732 0.0037321306 -0.002937876 0.013274455 -0.0029958484 -0.008445282 0.0015547832
-0.004736978 -0.01179789 0.0023213343 0.0018822814 -0.00907612 0.013154087 -0.0039948365 -0.0044455775
-0.002905867 0.009564259 -0.0029627492 -0.008195121 -0.0036686163 -0.002108402 0.014118763 0.0036315788
-0.009544843 0.004536511 -0.00940698 0.0012604631 -0.02077768 -0.0057860985 -0.0040163416 -0.010294653
-0.0080396915 -0.0034021304 -0.009883705 -0.019032823 0.018052792 0.015728008 0.0014412602 0.011392712
-0.0027223283 0.0047777784 0.0109339515 0.00667683 -0.009999619 0.010308132 0.0021698098 -0.01068199
-0.0011827543 0.013377706 0.0045777555 -0.0049839667 -0.0088348845 -0.0043366724 -0.0076862886 -0.0014868339
0.00012902945 -0.010212521 -0.008945877 0.0040323976 0.012570267 -0.009670628 -0.0034740062 -0.0021111888
0.0039704377 0.0043293303 -0.010889525 -0.012483425 -0.013379899 0.005623402 -0.000936015 -0.014103261
0.003875081 -0.0029986573 -0.002006713 -0.006896168 -0.0046329643 -0.009827396 0.003255677 -0.002257453
-0.0048360997 0.001300164 0.022886848 0.019732103 0.008537738 0.009715952 -0.0036437318 0.007172478
00000000: 8f53 18b9 f75b 0b3c cb24 a7bb a172 cbbb
00000010: f724 2bbb 1f4e 433a 15e5 ec3a fef6 803b
00000020: b07b 293b a2c8 4dbc c506 cabb 4bc6 8ebc
00000030: 0434 143c 985c c1bb 0e39 1abb 37c7 22ba
00000040: cda5 5b3c d3ef 8a3b 67fc 0cbc 83f5 4539
00000050: e024 d33b ed78 64bb 33ee f23b 2a70 6dba
00000060: 2d3b 50bc b367 a53b a35e 173c 938b fa3b
00000070: c3ec 09bc a34d 94bb 70c1 f4bb 487f a6ba
00000080: 382d bcbb 176e 0abc 11bf 813c 4d8b b03b
00000090: 4bf3 403b f8fd b638 a243 f5bb fbda 47bb
000000a0: ca54 d5bb c988 8abb c396 743b 6189 40bb
000000b0: 1a7d 593c ff55 44bb 145e 0abc dec9 cb3a
000000c0: a738 9bbb f04b 41bc 8721 183b e2b6 f63a
000000d0: 02b4 14bc 3d84 573c 1ee7 82bb 35ac 91bb
000000e0: 5c70 3ebb 69b3 1c3c af2a 42bb d444 06bc
000000f0: 2b6d 70bb 1e2d 0abb 6252 673c c8ff 6d3b
00000100: f961 1cbc 03a7 943b bc1f 1abc 2036 a53a
00000110: f435 aabc 5099 bdbb 849b 83bb e7aa 28bc
00000120: e9b8 03bc 47f6 5ebb 43ef 21bc b9ea 9bbc
00000130: 73e3 933c 06d8 803c abe8 bc3a 7fa8 3a3c
00000140: 1769 32bb e98e 9c3b 5124 333c 4fc9 da3b
00000150: 71d5 23bc 70e3 283c 5e33 0e3b 8303 2fbc
00000160: a606 9bba 2a2e 5b3c ff00 963b 8b50 a3bb
00000170: 31c0 10bc a51a 8ebb 43dd fbbb dee1 c2ba
00000180: 144c 0739 6b52 27bc ba91 12bc 3422 843b
00000190: 85f3 4d3c 8e71 1ebc 27ac 63bb df5b 0abb
000001a0: 721a 823b 0edd 8d3b fa69 32bc 4887 4cbc
000001b0: 5d37 5bbc 8444 b83b e75e 75ba 5d11 67bc
000001c0: 12f5 7d3b 1f85 44bb 0f83 03bb 40f9 e1bb
000001d0: 1fd0 97bb 1603 21bc 325d 553b c7f1 13bb
000001e0: 2578 9ebb 446a aa3a 337d bb3c 38a5 a13c
000001f0: dee1 0b3c a82f 1f3c adcb 6ebb 1b07 eb3b

network_body._body_endoder.seq_layers.0.weight f4 [128, 6]
-0.5627261 0.009631984 0.10710006 0.09367231 0.32689667 0.021921953 0.8310313 -0.25050697
-0.09448855 0.07542011 0.6023386 -0.05374952 -0.26767957 -0.08773555 0.387097 -0.06303567
0.08988782 -0.65381557 -0.32937488 -0.17120309 -0.5831959 -0.117920786 -0.4270894 -0.09793264
-0.08250845 0.3522565 -0.20023626 -0.32775164 0.2957862 0.086354055 -0.43435463 0.3071628
-0.07858784 -0.3163653 0.16638997 0.2014599 0.20928405 0.20059304 -0.26026314 -0.25033432
0.2273451 -0.101573706 0.05746225 0.1890376 0.0090789795 0.09158462 0.5199542 0.03550648
-0.14211953 0.47672656 0.3860254 -0.15845615 -0.08061914 -0.07176056 -0.76269424 -0.9319921
0.5638966 -0.3627747 0.31980902 0.21077593 0.38856983 0.076479726 0.23170984 -0.40049967
-0.56995094 0.07832259 -0.042731974 -0.6190788 0.07568035 0.51859254 0.09640436 -0.053178128
-0.4081327 0.76788014 0.2042567 0.035313595 0.29303348 -0.5541864 0.2215053 -0.0031409627
-0.2897873 -0.02184301 -0.7513558 -0.3884452 0.15892248 0.46127635 0.4086515 1.0037555
0.32098278 -0.23178895 0.62276477 0.47016722 -0.22575982 0.13656406 -0.66932833 0.7097813
-0.2697789 0.51095486 -0.32205963 0.09889643 -0.05409701 -0.0333171 -0.44547528 0.07896662
0.5048714 0.73895866 0.014353872 -0.085938364 0.053160675 0.14258176 0.39878666 0.043138865
-0.10953091 0.40400633 -0.21502672 0.10747182 0.24303079 -0.049874417 0.0047536716 -0.17828128
0.28819442 -0.2806558 0.10204554 0.07844903 -0.3262061 0.3004742 0.005885337 -1.3311902
-0.8521386 -0.9510691 0.61044484 -0.1364528 0.3295061 0.106859684 -0.2033313 -0.36690894
0.48208684 -0.16084392 -0.13749684 -0.08845198 -0.06548887 0.46465132 0.0040448583 0.3808868
-0.21992628 -0.3024801 0.18136562 -0.15124725 0.6151992 0.5427331 0.17794645 -0.06046767
0.59034723 0.1977165 0.22875848 0.37174124 -0.31570816 0.29661316 -0.025669595 0.2110235
-0.4308527 0.5901788 -0.08971758 0.27078292 -0.40553617 -0.35439458 0.41196224 -0.09171514
-0.09218658 -0.19798046 0.51274043 -0.30235097 0.34480098 -0.05901325 -0.60726625 -0.33041978
0.061774276 -0.3664823 0.19225317 -0.17750917 0.26204637 -0.2956146 -0.0055632866 0.36521024
0.4443012 0.27670562 -0.4922602 0.38505864 0.33247042 -0.15667905 0.2583949 -0.5797826
0.21009926 -0.5814401 -0.2848222 -0.47212777 -0.17612416 -0.5286731 0.4142944 0.098180406
0.6916913 -0.14639556 -0.45287395 -0.29927185 -0.1935978 0.048554186 0.3240104 -0.40168923
0.647882 0.2643098 -0.24116102 -0.014109874 -0.29299083 -0.0076492387 0.071184106 0.3200998
0.0701672 -0.41384155 0.12540084 0.2726225 0.057255395 -0.73374414 -0.4484206 -0.14145756
0.020210074 -0.2667143 0.69354737 -0.3302942 0.32158095 -0.07115339 0.20514748 0.1978921
0.3090058 -0.035852928 -0.47714558 0.8015723 0.3874027 0.17191988 -0.21897861 -0.56425893
0.7738283 0.75747603 0.71981806 0.13330473 -0.0917767 0.28006634 -0.40737182 -0.443705
0.49808586 0.16475116 0.7738854 -0.3619569 -0.2558348 0.5450278 0.07823971 -0.61590844
00000000: d10e 10bf 78cf 1d3c 4757 db3d 45d7 bf3d
00000010: 005f a73e ab95 b33c 78be 543f 7342 80be
00000020: 3783 c1bd dc75 9a3d dd32 1a3f 7528 5cbd
00000030: 4c0d 89be b2ae b3bd 9431 c63e d818 81bd
00000040: 1b17 b83d 7560 27bf d3a3 a8be dd4f 2fbe
00000050: 544c 15bf 7480 f1bd 76ab dabe e890 c8bd
00000060: 31fa a8bd f75a b43e bc0a 4dbe 10cf a7be
00000070: 4a71 973e 65da b03d bb63 debe 7144 9d3e
00000080: a9f2 a0bd a2fa a1be 2262 2a3e 814b 4e3e
00000090: 8f4e 563e 4368 4d3e 3641 85be d22b 80be
000000a0: 27cd 683e e005 d0bd 895d 6b3d 1393 413e
000000b0: 00c0 143c b890 bb3d b81b 053f 3e6f 113d
000000c0: c887 11be 8115 f43e 1fa5 c53e 5442 22be
000000d0: a61b a5bd 33f7 92bd ee3f 43bf 0997 6ebf
000000e0: 875b 103f 9bbd b9be 02be a33e a5d5 573e
000000f0: a0f2 c63e 67a1 9c3d 5845 6d3e 4b0e cdbe
00000100: 4ee8 11bf 9867 a03d b907 2fbd f37b 1ebf
00000110: 4dfe 9a3d 7bc2 043f a66f c53d 4fd1 59bd
00000120: c5f6 d0be cb93 443f ab28 513e fda4 103d
00000130: 7c08 963e 29df 0dbf 49d2 623e 9cd8 4dbb
00000140: 005f 94be 1df0 b2bc db58 40bf 4ae2 c6be
00000150: 93bc 223e 6a2c ec3e c53a d13e 0f7b 803f
00000160: db57 a43e 155a 6dbe 836d 1f3f c2b9 f03e
00000170: 952d 67be 73d7 0b3e 1a59 2bbf 3ab4 353f
00000180: 7620 8abe f0cd 023f 00e5 a4be 368a ca3d
00000190: d494 5dbd 8377 08bd 5615 e4be 40b9 a13d
000001a0: 413f 013f 652c 3d3f 812c 6b3c 7400 b0bd
000001b0: 02bf 593d f400 123e c42d cc3e 61b2 303d
000001c0: be51 e0bd ebd9 ce3e f72f 5cbe 301a dc3d
000001d0: 10dd 783e 1e49 4cbd b0c4 9b3b 5e8f 36be
000001e0: 388e 933e 1eb2 8fbe 41fd d03d e3a9 a03d
000001f0: 7c04 a7be c1d7 993e c9d9 c03b 7164 aabf
00000200: c125 5abf 4479 73bf 1d46 1c3f 48ba 0bbe
00000210: 06b5 a83e 40d9 da3d 1536 50be 7ddb bbbe
00000220: 16d4 f63e 45b4 24be f9cb 0cbe 5026 b5bd
00000230: 071f 86bd c7e6 ed3e bb8a 843b 9803 c33e
00000240: 5b34 61be acde 9abe e9b7 393e 8fe0 1abe
00000250: b27d 1d3f 8ef0 0a3f 9837 363e f3ac 77bd
00000260: ff20 173f 3276 4a3e aa3f 6a3e de54 be3e
00000270: 80a4 a1be aedd 973e 0b49 d2bc 8b16 583e
00000280: ba98 dcbe f515 173f dabd b7bd 0fa4 8a3e
00000290: 70a2 cfbe 3573 b5be b7ec d23e 26d5 bbbd
000002a0: 51cc bcbd 64bb 4abe f542 033f bfcd 9abe
000002b0: c189 b03e e1b7 71bd cd75 1bbf c82c a9be
000002c0: 0607 7d3d 91a3 bbbe 04de 443e f7c4 35be
000002d0: f12a 863e cc5a 97be 3b4c b6bb d6fc ba3e
000002e0: 727b e33e 5cac 8d3e 8709 fcbe 6826 c53e
000002f0: 9039 aa3e 7970 20be 564c 843e a26c 14bf
00000300: 4324 573e 42d9 14bf 37d4 91be bbba f1be
00000310: e459 34be 1f57 07bf 651e d43e cf12 c93d
00000320: ae12 313f b8e8 15be 18df e7be 293a 99be
00000330: 803e 46be c1e0 463d b1e4 a53e 36aa cdbe
00000340: 98db 253f 9d53 873e eaf2 76be 1a2d 67bc
00000350: e502 96be 77a6 fabb f9c8 913d 1fe4 a33e
00000360: d2b3 8f3d 0ae3 d3be 1469 003e 2d95 8b3e
00000370: a284 6a3d a8d6 3bbf 6397 e5be 40da 10be
00000380: 998f a53c c78e 88be 528c 313f 521c a9be
00000390: 42a6 a43e deb8 91bd 2e12 523e 3aa4 4a3e
000003a0: 0236 9e3e 85da 12bd 6d4c f4be d833 4d3f
000003b0: a659 c63e c40b 303e ee3b 60be 4673 10bf
000003c0: 9d19 463f f3e9 413f ff45 383f 0981 083e
000003d0: 6cf5 bbbd db64 8f3e 0a93 d0be 4d2d e3be
000003e0: 1c05 ff3e 87b4 283e 5b1d 463f 6a52 b9be
000003f0: c7fc 82be f186 0b3f 243c a03d 2dac 1dbf

network_body._body_endoder.seq_layers.0.bias f4 [128]
0.0 0.0 0.0 0.0 0.0 0.0 0.0 0.0
0.0 0.0 0.0 0.0 0.0 0.0 0.0 0.0
0.0 0.0 0.0 0.0 0.0 0.0 0.0 0.0
0.0 0.0 0.0 0.0 0.0 0.0 0.0 0.0
0.0 0.0 0.0 0.0 0.0 0.0 0.0 0.0
0.0 0.0 0.0 0.0 0.0 0.0 0.0 0.0
0.0 0.0 0.0 0.0 0.0 0.0 0.0 0.0
0.0 0.0 0.0 0.0 0.0 0.0 0.0 0.0
0.0 0.0 0.0 0.0 0.0 0.0 0.0 0.0
0.0 0.0 0.0 0.0 0.0 0.0 0.0 0.0
0.0 0.0 0.0 0.0 0.0 0.0 0.0 0.0
0.0 0.0 0.0 0.0 0.0 0.0 0.0 0.0
0.0 0.0 0.0 0.0 0.0 0.0 0.0 0.0
0.0 0.0 0.0 0.0 0.0 0.0 0.0 0.0
0.0 0.0 0.0 0.0 0.0 0.0 0.0 0.0
0.0 0.0 0.0 0.0 0.0 0.0 0.0 0.0
00000000: 0000 0000 0000 0000 0000 0000 0000 0000
00000010: 0000 0000 0000 0000 0000 0000 0000 0000
00000020: 0000 0000 0000 0000 0000 0000 0000 0000
00000030: 0000 0000 0000 0000 0000 0000 0000 0000
00000040: 0000 0000 0000 0000 0000 0000 0000 0000
00000050: 0000 0000 0000 0000 0000 0000 0000 0000
00000060: 0000 0000 0000 0000 0000 0000 0000 0000
00000070: 0000 0000 0000 0000 0000 0000 0000 0000
00000080: 0000 0000 0000 0000 0000 0000 0000 0000
00000090: 0000 0000 0000 0000 0000 0000 0000 0000
000000a0: 0000 0000 0000 0000 0000 0000 0000 0000
000000b0: 0000 0000 0000 0000 0000 0000 0000 0000
000000c0: 0000 0000 0000 0000 0000 0000 0000 0000
000000d0: 0000 0000 0000 0000 0000 0000 0000 0000
000000e0: 0000 0000 0000 0000 0000 0000 0000 0000
000000f0: 0000 0000 0000 0000 0000 0000 0000 0000
00000100: 0000 0000 0000 0000 0000 0000 0000 0000
00000110: 0000 0000 0000 0000 0000 0000 0000 0000
00000120: 0000 0000 0000 0000 0000 0000 0000 0000
00000130: 0000 0000 0000 0000 0000 0000 0000 0000
00000140: 0000 0000 0000 0000 0000 0000 0000 0000
00000150: 0000 0000 0000 0000 0000 0000 0000 0000
00000160: 0000 0000 0000 0000 0000 0000 0000 0000
00000170: 0000 0000 0000 0000 0000 0000 0000 0000
00000180: 0000 0000 0000 0000 0000 0000 0000 0000
00000190: 0000 0000 0000 0000 0000 0000 0000 0000
000001a0: 0000 0000 0000 0000 0000 0000 0000 0000
000001b0: 0000 0000 0000 0000 0000 0000 0000 0000
000001c0: 0000 0000 0000 0000 0000 0000 0000 0000
000001d0: 0000 0000 0000 0000 0000 0000 0000 0000
000001e0: 0000 0000 0000 0000 0000 0000 0000 0000
000001f0: 0000 0000 0000 0000 0000 0000 0000 0000

network_body._body_endoder.seq_layers.2.weight f4 [128, 128]
-0.047596198 -0.07059241 -0.0017159273 0.037234884 0.042834338 -0.001995366 0.0285382 0.086945474
0.05719574 -0.097408175 -0.012449858 -0.012883853 0.14039189 0.038610283 0.02187755 0.023118112
0.090965 0.027215155 0.04151558 0.051204763 -0.086504005 -0.010896628 -0.013469844 -0.0005065337
0.033867154 0.0999505 -0.17335157 -0.04378761 0.13893951 0.13874376 0.08349628 -0.025401201
-0.0097886855 0.041047305 0.087683134 0.0453686 -0.084020376 -0.0008104398 -0.007892384 -0.10173657
0.07077182 -0.10095695 -0.14737418 -0.06288872 -0.17638682 0.112741426 -0.055799693 0.12890294
0.07413994 -0.14316244 0.00815669 0.08709987 -0.104359716 -0.08316802 -0.036847897 -0.051050924
0.07550837 -0.057521213 0.18596512 -0.07057955 -0.062382545 0.12184597 0.1188101 0.12910506
-0.06688718 0.11559277 0.08275389 0.0020425238 -0.008489524 0.036721844 -0.022859061 0.02816964
0.03385773 -0.05264545 0.04379444 -0.06496672 -0.00055451976 -0.038127508 -0.116408706 0.044421718
0.03569691 0.10351127 -0.010943256 0.049951848 0.1415527 0.14089505 -0.115219936 0.025741946
0.12006657 0.025094608 0.10904474 0.074901566 -0.02841427 0.09342201 0.006941365 -0.18925697
0.105790295 0.03150202 0.023227738 -0.00574062 0.03200078 0.0020802014 0.23671684 0.00671693
-0.04564014 -0.059751123 -0.05467977 0.0021053033 -0.029307604 0.02568391 0.039811827 -0.122370236
-0.0025004467 0.0513936 0.05914023 0.010526373 0.10894083 -0.19785543 -0.07907249 0.05154567
0.023349607 0.004575892 0.02614743 -0.15693346 0.043890495 0.031007936 0.1447808 0.03457119
0.22236457 -0.0527931 -0.18260473 -0.08361421 -0.03223752 -0.023782054 0.13002896 0.0026891914
-0.011950259 -0.02377354 0.06897778 0.009623484 0.00344529 -0.012452405 0.013564971 0.10980057
-0.053482927 0.017422574 0.00923565 0.071408026 0.15764809 0.045950327 0.016437791 0.08172036
0.1236151 -0.06952236 0.14425975 -0.067121245 0.0001267722 0.07005847 -0.30733544 0.11403338
0.01730507 -0.03365852 0.028905014 0.050339684 0.044328216 -0.16572253 -0.06078805 0.077969246
-0.056095853 0.009512981 -0.06262384 -0.002067179 -0.06615127 0.063230716 -0.02821883 0.18105844
-0.0138968 0.07709993 -0.02967227 -0.0076702028 0.05043116 0.0066991146 0.05165848 0.088040076
0.035049673 0.05175375 0.036316797 -0.012980394 0.130066 0.11294371 -0.124212004 -0.13089228
0.016666519 0.07811176 -0.11766695 -0.05106627 0.015758105 0.022798162 0.12141333 -0.018315468
0.0035907603 0.08873423 0.09053009 -0.05386657 0.051695194 -0.01767026 -0.15436609 -0.02263446
0.024176773 0.062274333 0.02416219 0.027382823 0.04365593 -0.004473842 0.00031650322 -0.004587367
0.016319877 -0.027567582 0.1499146 0.11046157 -0.01299649 -0.1625638 0.02293201 -0.18217075
0.047740705 0.17384021 -0.13942572 -0.033732694 -0.01988316 -0.053970892 -0.0684205 -0.0159339
0.0058927652 -0.008066611 -0.06667517 0.01246617 0.005051973 0.045436658 -0.07022616 -0.06516061
-0.082661234 -0.06349532 -0.1300128 -0.041626733 0.035694364 0.07216888 -0.038711764 -0.107141964
-0.04372443 0.02277095 -0.07699347 0.043646716 -0.0063221357 -0.02574364 0.10082315 -0.07266464
00000000: 3bf4 42bd c192 90bd f7e8 e0ba 9b83 183d
00000010: 0f73 2f3d b0c4 02bb f1c8 e93c 7810 b23d
00000020: 1546 6a3d f07d c7bd 7dfa 4bbc cc16 53bc
00000030: e4c2 0f3e d125 1e3d 8c38 b33c 3262 bd3c
00000040: dc4b ba3d 51f2 de3c 3e0c 2a3d 16bc 513d
00000050: 0329 b1bd c587 32bc 9fb0 5cbc e7c8 04ba
00000060: 49b8 0a3d d9b2 cc3d 1383 31be a35a 33bd
00000070: 2946 0e3e d812 0e3e 1900 ab3d 2e16 d0bc
00000080: b960 20bc 3821 283d 3793 b33d 6dd4 393d
00000090: e012 acbd b273 54ba 0f4f 01bc 435b d0bd
000000a0: d1f0 903d 84c2 cebd 42e9 16be cdcb 80bd
000000b0: bf9e 34be fae4 e63d 388e 64bd 22ff 033e
000000c0: aed6 973d 2d99 12be a3a3 053c 6b61 b23d
000000d0: 8cba d5bd ff53 aabd d2ed 16bd c61a 51bd
000000e0: 22a4 9a3d 5d9b 6bbd a46d 3e3e 038c 90bd
000000f0: d784 7fbd 618a f93d b652 f33d 1e34 043e
00000100: 25fc 88bd e7bb ec3d df7a a93d dddb 053b
00000110: a517 0bbc a569 163d ed42 bbbc 04c4 e63c
00000120: 67ae 0a3d c1a2 57bd cc61 333d 460d 85bd
00000130: 315d 11ba 972b 1cbd b067 eebd 8cf3 353d
00000140: ec36 123d b7fd d33d 584b 33bc 4f9a 4c3d
00000150: 31f3 103e cb46 103e 6ef8 ebbd c6e0 d23c
00000160: 76e5 f53d 3593 cd3c d952 df3d fe65 993d
00000170: 0bc5 e8bc 0a54 bf3d 6474 e33b 94cc 41be
00000180: 95a8 d83d 4308 013d 1948 be3c d01b bcbb
00000190: 4013 033d fd53 083b e665 723e b119 dc3b
000001a0: 28f1 3abd 98bd 74bd e5f7 5fbd 21f9 093b
000001b0: 8016 f0bc 1067 d23c ba11 233d 3f9d fabd
000001c0: 89de 23bb 1882 523d 073d 723d cf76 2c3c
000001d0: 5f1c df3d 9d9a 4abe c2f0 a1bd 8d21 533d
000001e0: ad47 bf3c 5df1 953b 2333 d63c 2ab3 20be
000001f0: 85c6 333d 5b04 fe3c 6b41 143e 859a 0d3d
00000200: 8ab3 633e 943d 58bd bcfc 3abe ed3d abbd
00000210: 7d0b 04bd 95d2 c2bc 5026 053e 253d 303b
00000220: 05cb 43bc bac0 c2bc 3944 8d3d d1ab 1d3c
00000230: 60ca 613b 2c05 4cbc 9d3f 5e3c 1fdf e03d
00000240: ea10 5bbd c9b9 8e3c 2051 173c 5f3e 923d
00000250: 806e 213e 6936 3c3d 8ca8 863c 015d a73d
00000260: ea29 fd3d bd61 8ebd d4b8 133e dd76 89bd
00000270: 27ee 0439 d17a 8f3d 125b 9dbe 558a e93d
00000280: 5dc3 8d3c 84dd 09bd 35ca ec3c fc30 4e3d
00000290: 8191 353d 2bb3 29be e4fc 78bd 57ae 9f3d
000002a0: c4c4 65bd 56dc 1b3c ee40 80bd 8279 07bb
000002b0: 517a 87bd 1b7f 813d 2d2b e7bc 6267 393e
000002c0: 67af 63bc 91e6 9d3d 4313 f3bc 5356 fbbb
000002d0: e790 4e3d 3f84 db3b d897 533d 5b4e b43d
000002e0: 3f90 0f3d bdfb 533d ecc0 143d b8ab 54bc
000002f0: 0630 053e 084f e73d dd62 febd a008 06be
00000300: 3988 883c 0ff9 9f3d 5ffb f0bd dd2a 51bd
00000310: 2417 813c 36c3 ba3c 8da7 f83d 520a 96bc
00000320: f652 6b3b 4bba b53d d767 b93d 31a3 5cbd
00000330: 57be 533d 39c1 90bc 2512 1ebe e76b b9bc
00000340: 5e0e c63c 5f13 7f3d c9ef c53c f151 e03c
00000350: 8fd0 323d 4f99 92bb 58f0 a539 a051 96bb
00000360: 43b1 853c 69d5 e1bc 3783 193e ad39 e23d
00000370: 3bef 54bc 2077 26be e9db bb3c f88a 3abe
00000380: c28b 433d 2b03 323e 9ec5 0ebe 4b2b 0abd
00000390: 02e2 a2bc 9510 5dbd 0c20 8cbd cf87 82bc
000003a0: 1918 c13b d229 04bc fe8c 88bd e83e 4c3c
000003b0: 058b a53b ca1b 3a3d bcd2 8fbd ed72 85bd
000003c0: 4b4a a9bd d609 82bd 1322 05be cb80 2abd
000003d0: 4134 123d 47cd 933d 3a90 1ebd 3f6d dbbd
000003e0: 6318 33bd 258a ba3c c1ae 9dbd e6c6 323d
000003f0: eb29 cfbb 53e4 d2bc 5e7c ce3d 33d1 94bd

network_body._body_endoder.seq_layers.2.bias f4 [128]
0.0 0.0 0.0 0.0 0.0 0.0 0.0 0.0
0.0 0.0 0.0 0.0 0.0 0.0 0.0 0.0
0.0 0.0 0.0 0.0 0.0 0.0 0.0 0.0
0.0 0.0 0.0 0.0 0.0 0.0 0.0 0.0
0.0 0.0 0.0 0.0 0.0 0.0 0.0 0.0
0.0 0.0 0.0 0.0 0.0 0.0 0.0 0.0
0.0 0.0 0.0 0.0 0.0 0.0 0.0 0.0
0.0 0.0 0.0 0.0 0.0 0.0 0.0 0.0
0.0 0.0 0.0 0.0 0.0 0.0 0.0 0.0
0.0 0.0 0.0 0.0 0.0 0.0 0.0 0.0
0.0 0.0 0.0 0.0 0.0 0.0 0.0 0.0
0.0 0.0 0.0 0.0 0.0 0.0 0.0 0.0
0.0 0.0 0.0 0.0 0.0 0.0 0.0 0.0
0.0 0.0 0.0 0.0 0.0 0.0 0.0 0.0
0.0 0.0 0.0 0.0 0.0 0.0 0.0 0.0
0.0 0.0 0.0 0.0 0.0 0.0 0.0 0.0
00000000: 0000 0000 0000 0000 0000 0000 0000 0000
00000010: 0000 0000 0000 0000 0000 0000 0000 0000
00000020: 0000 0000 0000 0000 0000 0000 0000 0000
00000030: 0000 0000 0000 0000 0000 0000 0000 0000
00000040: 0000 0000 0000 0000 0000 0000 0000 0000
00000050: 0000 0000 0000 0000 0000 0000 0000 0000
00000060: 0000 0000 0000 0000 0000 0000 0000 0000
00000070: 0000 0000 0000 0000 0000 0000 0000 0000
00000080: 0000 0000 0000 0000 0000 0000 0000 0000
00000090: 0000 0000 0000 0000 0000 0000 0000 0000
000000a0: 0000 0000 0000 0000 0000 0000 0000 0000
000000b0: 0000 0000 0000 0000 0000 0000 0000 0000
000000c0: 0000 0000 0000 0000 0000 0000 0000 0000
000000d0: 0000 0000 0000 0000 0000 0000 0000 0000
000000e0: 0000 0000 0000 0000 0000 0000 0000 0000
000000f0: 0000 0000 0000 0000 0000 0000 0000 0000
00000100: 0000 0000 0000 0000 0000 0000 0000 0000
00000110: 0000 0000 0000 0000 0000 0000 0000 0000
00000120: 0000 0000 0000 0000 0000 0000 0000 0000
00000130: 0000 0000 0000 0000 0000 0000 0000 0000
00000140: 0000 0000 0000 0000 0000 0000 0000 0000
00000150: 0000 0000 0000 0000 0000 0000 0000 0000
00000160: 0000 0000 0000 0000 0000 0000 0000 0000
00000170: 0000 0000 0000 0000 0000 0000 0000 0000
00000180: 0000 0000 0000 0000 0000 0000 0000 0000
00000190: 0000 0000 0000 0000 0000 0000 0000 0000
000001a0: 0000 0000 0000 0000 0000 0000 0000 0000
000001b0: 0000 0000 0000 0000 0000 0000 0000 0000
000001c0: 0000 0000 0000 0000 0000 0000 0000 0000
000001d0: 0000 0000 0000 0000 0000 0000 0000 0000
000001e0: 0000 0000 0000 0000 0000 0000 0000 0000
000001f0: 0000 0000 0000 0000 0000 0000 0000 0000

value_heads.value_heads.extrinsic.weight f4 [1, 128]
0.18019281 -0.2154539 -0.006452889 -0.20861277 -0.02476601 -0.17483288 -0.024789149 0.07029002
-0.07004024 0.057505567 0.02281372 -0.0067742174 0.19482747 -0.017250683 0.15395388 0.122489356
0.063752085 -0.03991571 -0.05935341 -0.13768381 -0.01172734 -0.1780531 -0.0049272585 0.11347237
0.14796588 -0.1955678 -0.0013598183 -0.09926657 0.06388634 0.15139599 -0.06653917 0.026561936
0.19430248 0.13972925 0.20423263 0.14345782 0.068737976 -0.06106457 0.13654746 -0.06859085
-0.13981855 0.11855095 0.121322565 0.13986681 0.04466776 -0.03781963 -0.013596332 0.050945826
-0.06127459 -0.0801654 -0.030113334 0.0149744805 0.19806455 -0.017040573 -0.0427899 0.20822796
0.1667496 -0.19714686 -0.10703954 -0.031967197 -0.15545736 -0.124791995 -0.10401522 0.04701425
-0.121419996 0.00691702 -0.102228284 0.0817858 0.12547424 -0.13172716 -0.008621742 0.0392307
-0.016188359 0.15091993 0.018874973 -0.06573525 0.20150417 -0.10417062 0.07794837 -0.19095932
-0.19124773 0.13372613 0.12759352 -0.20864588 -0.13533296 -0.13197118 -0.17868994 -0.08941917
-0.16135375 0.13373818 0.18729886 -0.0734813 0.12680036 0.029127033 -0.19976331 0.11823071
-0.044880584 0.089399 -0.21566291 -0.16898684 0.025390772 -0.14440101 0.1685842 -0.059109107
-0.037893713 -0.088209674 0.06875235 -0.09987777 0.11243495 0.15696974 -0.13138165 0.1523771
-0.17524387 0.17977089 0.11445488 -0.0009166664 0.0981448 0.1341834 0.04217547 0.058731977
0.16707526 -0.16445273 0.054548167 0.2030734 -0.061842896 -0.032950036 0.15633069 -0.041260812
00000000: 7784 383e f29f 5cbe c272 d3bb 969e 55be
00000010: 16e2 cabc 6407 33be 9d12 cbbc 37f4 8f3d
00000020: 4271 8fbd f58a 6b3d d7e3 ba3c 41fa ddbb
00000030: da80 473e 4e51 8dbc 16a6 1d3e b3db fa3d
00000040: 7490 823d a87e 23bd 901c 73bd fcfc 0cbe
00000050: 0724 40bc 8d53 36be d774 a1bb 3464 e83d
00000060: 5e84 173e ed42 48be ee3b b2ba 454c cbbd
00000070: d7d6 823d 8d07 1b3e b045 88bd 6b98 d93c
00000080: 3bf7 463e 2f15 0f3e 5c22 513e 9be6 123e
00000090: 7fc6 8c3d d81e 7abd 19d3 0b3e 5c79 8cbd
000000a0: 982c 0fbe d7ca f23d f777 f83d 3f39 0f3e
000000b0: 8bf5 363d c2e8 1abd 26c3 5ebc 92ac 503d
000000c0: 11fb 7abd c22d a4bd 3db0 f6bc 8657 753c
000000d0: 6fd1 4a3e ac98 8bbc 7644 2fbd b639 553e
000000e0: 68c0 2a3e dee0 49be 8c37 dbbd 09f0 02bd
000000f0: 3730 1fbe f292 ffbd ef05 d5bd 0492 403d
00000100: 0cab f8bd 2ba8 e23b 105d d1bd 507f a73d
00000110: 527c 003e 7ce3 06be 3542 0dbc 5fb0 203d
00000120: 739d 84bc c18a 1a3e b09f 9a3c 34a0 86bd
00000130: 1c57 4e3e 6857 d5bd 65a3 9f3d d78a 43be
00000140: 72d6 43be 81ef 083e e0a7 023e 44a7 55be
00000150: b994 0abe 7423 07be 7ffa 36be 6621 b7bd
00000160: eb39 25be a9f2 083e 46cb 3f3e 5d7d 96bd
00000170: f4d7 013e d19b ee3c c18e 4cbe f122 f23d
00000180: b4d4 37bd d316 b73d bdd6 5cbe e30a 2dbe
00000190: 4f00 d03c dcdd 13be 56a1 2c3e 641c 72bd
000001a0: 7036 1bbd 46a7 b4bd 08ce 8c3d b78c ccbd
000001b0: 4c44 e63d adbc 203e e988 06be be08 1c3e
000001c0: 2173 33be dc15 383e 5267 ea3d 714c 70ba
000001d0: 2400 c93d 6067 093e 30c0 2c3d f190 703d
000001e0: c715 2b3e 4c66 28be e66d 5f3d 79f2 4f3e
000001f0: fa4e 7dbd 9ef6 06bd 2715 203e 1901 29bd
