mlagents-env/results/=PelletGrabberRun7/Agent Controller/Agent Controller-16384.pt (torch, 446177 bytes, 33 tensors)

network_body._body_endoder.seq_layers.0.weight f4 [128, 6]
0	0x3eaf880a	0.34283477
1	0x3e369f70	0.17834258
2	0xbd648fbb	-0.055801135
3	0x3eda30f3	0.4261547
4	0xbf1ae015	-0.6049817
5	0x3eb569fc	0.35432422
6	0x3f26456e	0.6494969
7	0x3e96bab5	0.2943932
8	0x3ecff64d	0.406176
9	0xbe63dc49	-0.22252001
10	0x3f5f3eb2	0.8720504
11	0xbdeae96e	-0.114703044
12	0xbe2dae25	-0.16960962
13	0xbf0ab3df	-0.5418071
14	0xbe9c1e32	-0.30491787
15	0xbec25aa8	-0.3795979
16	0xbee57664	-0.44816887
17	0xbf1a4225	-0.6025718
18	0xbef7025e	-0.48243994
19	0xbd63b77b	-0.055594902
20	0x3eb6d0d8	0.3570621
21	0xbcebab17	-0.028768105
22	0xbcacf65a	-0.021113563
23	0xbc7a0ec0	-0.015262306
24	0xbf0cb9d0	-0.5497103
25	0xbe633301	-0.22187425
26	0xbe89120a	-0.26771575
27	0xbd85877f	-0.065199845
28	0x3cd787d5	0.026309887
29	0x3e73b5dc	0.23799843
30	0x3eb408cb	0.35162959
31	0xbf475b2b	-0.77873486
32	0x3d8277cc	0.06370506
33	0xbeb15b11	-0.3463979
34	0x3e679587	0.22615634
35	0x3eaff172	0.34363896
36	0xbe9f087b	-0.31061158
37	0x3f5bb2d0	0.8581972
38	0xbe2d4d09	-0.16923918
39	0xbf063222	-0.52420247
40	0x3ed3afd0	0.41345072
41	0xbd4a6133	-0.049409103
42	0xbef5e709	-0.48027828
43	0x3b8fb1bf	0.0043852027
44	0xbf09d856	-0.5384573
45	0xbdaafce6	-0.08349018
46	0xbf4d268a	-0.8013693
47	0xbe652a9c	-0.22379535
48	0xbeecf5c0	-0.46281242
49	0xbd953354	-0.07285181
50	0x3ea0bd4c	0.31394422
51	0x3f14240e	0.57867515
52	0xbd7f6f13	-0.062361788
53	0x3d720cfe	0.05909442
54	0xbe09c9a4	-0.13455826
55	0xbefafb8c	-0.4902004
56	0xbefe6aec	-0.4969095
57	0xbec2f4b5	-0.38077322
58	0xbf3eba1e	-0.7450274
59	0x3e051844	0.12997538
60	0xbf800ff3	-1.0004867
61	0xbe61d9eb	-0.22055785
62	0xbf209f6d	-0.62743264
63	0x3e95ada3	0.29234037
64	0x3e989b39	0.29805925
65	0x3f0acc64	0.54218125
66	0x3df167c7	0.11787372
67	0xbe9478b4	-0.2899834
68	0xbd5be828	-0.0536882
69	0x3f635dd9	0.88815075
70	0x3f2f267c	0.684181
71	0x3da00b29	0.07814629
72	0xbf6d9121	-0.92799574
73	0x3f66134d	0.898732
74	0xbc7593cb	-0.01498885
75	0xbe902e1d	-0.28160182
76	0x3ea1bbbb	0.3158854
77	0x3ce5edbd	0.028067464
78	0x3ed85b19	0.42257002
79	0x3d86133a	0.06546636
80	0x3e3af07f	0.18255804
81	0x3e15a514	0.14613754
82	0xbf7c10d2	-0.98463166
83	0xbc58c78a	-0.013231168
84	0x3d449bd7	0.048000183
85	0x3e96a3c5	0.2942182
86	0x3d531d4c	0.05154161
87	0x3ecc9707	0.39958975
88	0x3ec5de77	0.3864629
89	0x3e95dc95	0.29269853
90	0x3f252a8b	0.6451804
91	0xbc9d3815	-0.019191781
92	0x3dae2079	0.085022874
93	0x3dd3ee81	0.103482254
94	0x3e1cec7c	0.15324587
95	0x3edf0da4	0.43565094
96	0xbd5895ae	-0.05287712
97	0xbebf9b00	-0.37422943
98	0xbe957607	-0.2919161
99	0xbed28c76	-0.41122788
100	0xbf2b36cd	-0.66880494
101	0x3e621e55	0.22081883
102	0x3e16e097	0.14734112
103	0x3e41f369	0.1894051
104	0xbd98a00f	-0.07452404
105	0x3d3f6fd0	0.046737492
106	0xbe9ee0af	-0.31030795
107	0xbe7eec1b	-0.24894755
108	0xbf06e752	-0.52696717
109	0xbec2d932	-0.38056332
110	0x3e5f46f0	0.21804404
111	0xbf2ee8e7	-0.6832413
112	0x3e451fe9	0.19250454
113	0x3f3a55dc	0.7278726
114	0x3eb76f91	0.35827306
115	0x3efc02d3	0.49220905
116	0xbedf8a68	-0.43660283
117	0x3f86d9bc	1.0535197
118	0xbe6ca2e9	-0.2310902
119	0x3ed696bc	0.41911876
120	0x3e1bb0f4	0.15204221
121	0xbe1ead02	-0.15495685
122	0x3f80cba2	1.0062144
123	0xbdbc53d2	-0.09195675
124	0x3e3b4f30	0.18291926
125	0xbf0bd8fd	-0.5462797
126	0x3d15736f	0.03648704
127	0x3df9916f	0.121859424
128	0x3ed8884a	0.4229148
129	0x3f4a170a	0.78941405
130	0x3e8b29d3	0.27180347
131	0xbc83f282	-0.016106848
132	0xbd74245e	-0.059604995
133	0xbeb51fc5	-0.353758
134	0x3dcb9acc	0.099416345
135	0xbd92804f	-0.07153379
136	0xbe3a5bb3	-0.18199043
137	0xbed2409e	-0.41064924
138	0x3e36f44c	0.1786663
139	0xbf662477	-0.8989939
140	0x3f2bb4de	0.67072856
141	0xbf29bd7e	-0.6630477
142	0xbf4d8d59	-0.80293804
143	0xbe56e4f5	-0.20985778
144	0xbecb1c23	-0.39669904
145	0xbeffb25d	-0.49940768
146	0xbbf665e8	-0.0075194724
147	0xbed82761	-0.42217544
148	0xbe98ce87	-0.29845068
149	0xbda64722	-0.08119036
150	0x3f25d99f	0.6478519
151	0xbe45c14f	-0.19312023
152	0xbdc5a04a	-0.09649713
153	0xbdcf2df6	-0.10116188
154	0xbeba0947	-0.36335203
155	0xbee64cad	-0.44980374
156	0x3df2fd14	0.11864677
157	0x3ebbf17b	0.36707672
158	0x3eff6230	0.498796
159	0x3d973bb4	0.07384434
160	0x3ecbb110	0.39783525
161	0xbf123f87	-0.57128185
162	0xbea23f88	-0.31689095
163	0x3ee55f01	0.44799045
164	0xbeac4c29	-0.33651856
165	0x3d3f278e	0.04666858
166	0xbe527f84	-0.20556456
167	0x3e1de27a	0.15418425
168	0xbe738b02	-0.23783496
169	0x3ed6fd4d	0.41990128
170	0x3ee905f7	0.45512363
171	0xbd5adeca	-0.053435124
172	0x3e31abdd	0.17350717
173	0x3e900b9d	0.2813386
174	0x3ed1173d	0.40838042
175	0xbdabe46b	-0.08393177
176	0x3e267a42	0.16257575
177	0xbe8a52e1	-0.27016357
178	0x3f0ebe35	0.5575898
179	0x3da764dd	0.08173535
180	0xbeb7c074	-0.35889018
181	0x3f03040b	0.51178044
182	0x3e521384	0.20515257
183	0xbdc1bc6e	-0.09459768
184	0x3dd7b3e6	0.1053236
185	0xbee9c284	-0.45656216
186	0xbde37e13	-0.11108031
187	0x3e3bce20	0.18340349
188	0x3d89b146	0.06723265
189	0x3e090662	0.13381341
190	0x3ecf0a24	0.40437424
191	0x3e85cb56	0.26131696
192	0xbcb8be83	-0.02255178
193	0x3db1df5a	0.08685179
194	0x3e1691a3	0.14703993
195	0xbf169050	-0.58813953
196	0x3e8e68b3	0.27814254
197	0xbf0e2582	-0.5552598
198	0xbf0319dd	-0.5121134
199	0xbd993a7e	-0.074818596
200	0xbe8dd461	-0.27701095
201	0xbeb66378	-0.35622764
202	0xbe195e0a	-0.1497728
203	0x3db1526c	0.08658299
204	0x3f29b170	0.66286373
205	0x3e9cfda1	0.30662253
206	0x3ed0e25c	0.40797698
207	0xbe03d0b4	-0.12872583
208	0xbde641bc	-0.112430066
209	0xbd8425a5	-0.064524926
210	0x3f00f29d	0.503702
211	0xbf731020	-0.9494648
212	0xbe464aee	-0.19364521
213	0x3eb31813	0.34979305
214	0x3e3b611a	0.1829876
215	0x3ecef110	0.4041829
216	0xbeeafdfe	-0.45896906
217	0xbded194c	-0.115770906
218	0xbe0ae544	-0.1356402
219	0x3e3cfaff	0.18455122
220	0xbe2e00d1	-0.16992499
221	0x3eb4901c	0.35266197
222	0xbdab6f01	-0.08370782
223	0x3ebc1bad	0.36739865
224	0xbe02f5d3	-0.12789087
225	0xbe7d1095	-0.24713357
226	0xbe178297	-0.1479591
227	0x3d91c3b3	0.07117405
228	0xbdbe67b4	-0.092971236
229	0x3e93b45d	0.28848544
230	0x3e60e86f	0.21963666
231	0x3eed6b99	0.46371153
232	0x3d787abd	0.060663927
233	0x3dd02b43	0.101645015
234	0xbce199ab	-0.027539095
235	0xbf61da2e	-0.8822354
236	0x3f008c4f	0.50214094
237	0xbeaa6865	-0.33282772
238	0xbc01757c	-0.007901546
239	0xbeac0497	-0.33597252
240	0x3f4e8a78	0.80680037
241	0x3e5688d2	0.2095063
242	0xbea4922c	-0.3214277
243	0xbf059d48	-0.5219312
244	0x3f16e706	0.58946264
245	0x3db210fa	0.08694644
246	0xbdcfa493	-0.10138812
247	0x3d516bba	0.051128127
248	0x3e0585ae	0.13039276
249	0x3f1c9249	0.61160713
250	0xbed6d807	-0.4196169
251	0x3d2859ee	0.04110139
252	0xbdf88a3c	-0.12135741
253	0xbdde4acf	-0.10854112
254	0xbec58f86	-0.38586062
255	0x3f72f656	0.9490713

network_body._body_endoder.seq_layers.0.bias f4 [128]
0	0xbb4d28ce	-0.003130484
1	0x3af68ecb	0.0018810866
2	0x3ad2a162	0.0016069824
3	0xbb2e87ff	-0.0026631353
4	0xbb32a106	-0.0027256622
5	0x3afac6ed	0.0019132771
6	0xbb267b79	-0.0025403185
7	0xbbcd7cae	-0.0062709665
8	0xbbb66b82	-0.005567015
9	0x3a14db2d	0.00056784117
10	0xbb44b634	-0.0030015828
11	0xbb701427	-0.0036633105
12	0x3abffbb7	0.001464716
13	0x39fb130e	0.00047888648
14	0x3b06d4a5	0.0020573523
15	0x3b3b6c75	0.002859858
16	0xbafbce53	-0.001921127
17	0xbb1c938d	-0.0023891658
18	0xbba6ed17	-0.0050941813
19	0xbb57aef3	-0.0032910674
20	0x3a851768	0.001015407
21	0xbb5f099c	-0.0034032827
22	0x3b075e37	0.0020655522
23	0x3af4022f	0.0018616373
24	0xbb90bebd	-0.004417269
25	0x3b249132	0.0025110957
26	0x3ae1a4f5	0.0017215299
27	0xbb0c04b8	-0.0021365117
28	0x3ae6d3ad	0.0017610692
29	0xbb4adcb7	-0.003095431
30	0xbb21ebc3	-0.0024707175
31	0xbb505104	-0.003178657
32	0xbb9217b6	-0.004458393
33	0xbb02eca7	-0.0019977482
34	0xbb1a0741	-0.0023502859
35	0x3b32cc8d	0.0027282566
36	0x3b0bf5b2	0.0021356163
37	0xbb482606	-0.0030540242
38	0x3aceb398	0.0015770076
39	0x3aa82623	0.0012828748
40	0xbb13f0ea	-0.0022574016
41	0xbb4f0e85	-0.0031594348
42	0x380a27fd	3.2939006e-05
43	0xbb4744a6	-0.0030405908
44	0xbb29e469	-0.0025923497
45	0x3a8ed948	0.0010898495
46	0x3aebd31a	0.001799199
47	0x3b124594	0.0022319304
48	0xbb0ef9ad	-0.0021816299
49	0x3b904866	0.004403162
50	0x3aa500c0	0.0012588724
51	0xbae8a668	-0.0017749788
52	0xbb51b65c	-0.0031999564
53	0x3aca4c18	0.0015434055
54	0x3b1470ce	0.0022650245
55	0x3b01df86	0.0019817068
56	0x3a953788	0.0011384347
57	0x3b25bc8e	0.002528939
58	0x3b37f1fc	0.0028067818
59	0x3b2ae4d0	0.0026076324
60	0x3b03b2a7	0.0020095499
61	0xbb0f5ecb	-0.002187657
62	0xbb31ccbc	-0.0027130088
63	0xbb31144c	-0.0027020155
64	0x3aa8cb4b	0.0012877969
65	0xbb064b47	-0.0020491646
66	0x3ac04661	0.0014669412
67	0x3b11a768	0.0022225026
68	0xbaade295	-0.0013266379
69	0x3ab4cc3e	0.0013793779
70	0xbb9c37e5	-0.0047674053
71	0xbb638eaf	-0.0034722497
72	0xbb444c06	-0.002995254
73	0xbb20896e	-0.0024495977
74	0xbb312926	-0.0027032583
75	0xbb079f9f	-0.0020694507
76	0x3b017d82	0.0019758646
77	0xbb25f182	-0.0025320952
78	0xbb068c91	-0.0020530561
79	0x39df3d5b	0.00042579588
80	0xbb52f6f3	-0.003219065
81	0x3b025bc5	0.0019891125
82	0xbb883cec	-0.004157653
83	0x3a68687a	0.0008865666
84	0xbb8fd487	-0.004389349
85	0xb72569c4	-9.859392e-06
86	0xbb82763c	-0.00398138
87	0xbb100687	-0.0021976547
88	0x39818270	0.0002470198
89	0xbb3c4abd	-0.002873107
90	0xbb22b199	-0.0024825095
91	0xba4c9755	-0.00078045327
92	0xbb29c823	-0.0025906644
93	0x3a28fa3f	0.0006445981
94	0xbb17268e	-0.0023063752
95	0x3b17833c	0.0023118993
96	0xbb28aa41	-0.0025736245
97	0x3aa5d3a5	0.0012651576
98	0xbaf73c14	-0.0018862509
99	0x3abdf45c	0.001449238
100	0xbb8a9b78	-0.004229959
101	0xb9c63491	-0.00037804668
102	0x3ac790cd	0.0015225649
103	0xbadb0ba3	-0.0016711842
104	0xbb201e79	-0.0024432226
105	0xbc12812f	-0.008941933
106	0xbae2e72e	-0.0017311329
107	0x3a96b7b1	0.0011498836
108	0x3a27b925	0.0006398133
109	0x3adfc01f	0.0017070806
110	0xbb63122d	-0.0034648285
111	0x3b102b48	0.0021998454
112	0x3b34bbaa	0.0027577677
113	0xbb2831da	-0.002566448
114	0x3afcd78d	0.0019290313
115	0xbbe72336	-0.007053758
116	0x3a1c7f1f	0.000596987
117	0x3b1cace8	0.002390677
118	0x3b1e22e4	0.0024129683
119	0x3b00e987	0.0019670443
120	0x3b728f86	0.0037011816
121	0xbafcf79c	-0.0019299868
122	0x3a86f545	0.0010296485
123	0xbb24bfd1	-0.0025138746
124	0xbb1213d2	-0.0022289646
125	0x3b1736be	0.00230734
126	0xbb6dad16	-0.0036266497
127	0xbb30592d	-0.0026908622

network_body._body_endoder.seq_layers.2.weight f4 [128, 128]
0	0x3da8ae83	0.082364105
1	0xbe3f8ff5	-0.18707259
2	0xbc7b9052	-0.015354233
3	0xbc680504	-0.014161352
4	0x3e34aabd	0.17643256
5	0xbe1961be	-0.14978692
6	0x3db7480e	0.0894929
7	0xbac95909	-0.0015361618
8	0x3dc1a4ea	0.09455283
9	0x3d238d30	0.03992957
10	0x3de6f3c5	0.11276964
11	0x3dcd8886	0.100358054
12	0x3d17e319	0.03708181
13	0xbe012140	-0.1261034
14	0x3d97661a	0.07392521
15	0xbdb1a7f4	-0.08674613
16	0xbd87b52f	-0.06626355
17	0xbdafc3c3	-0.085822605
18	0xbd3510f7	-0.044205632
19	0xbcb12946	-0.021626126
20	0xbdac9fe9	-0.08428938
21	0x3da1223f	0.0786786
22	0x3d893d38	0.0670113
23	0x3bd4d48b	0.0064950637
24	0x3e3485fb	0.17629234
25	0xbd82d390	-0.063880086
26	0xba448e3a	-0.0007498
27	0x3b4fb035	0.003169072
28	0x3da9acdd	0.08284924
29	0x3ce8dc6a	0.028425414
30	0x3d472cfa	0.048626877
31	0x3d4cbc8d	0.049984504
32	0xbd3af933	-0.04564781
33	0xbc87f34f	-0.01659551
34	0x3e1d9bfc	0.15391535
35	0xbc7d2f29	-0.015453138
36	0x3d1ade30	0.03780955
37	0x3df06feb	0.11740097
38	0xbd4b4dc3	-0.049634706
39	0x3d87d2fc	0.06632039
40	0x3cfb5816	0.030681651
41	0xbcaace15	-0.02085022
42	0xbcea5cf2	-0.028608773
43	0xbd79b723	-0.06096567
44	0xbd966736	-0.07343905
45	0xbb6e24e9	-0.0036337918
46	0x3dedc797	0.11610334
47	0xbda85eca	-0.082212046
48	0xbdcce63b	-0.100048505
49	0xbdf08422	-0.11743952
50	0xbe0ce14f	-0.13757823
51	0xbdaec5e4	-0.085338384
52	0x3d5c53cc	0.053790852
53	0xbc63980d	-0.013891232
54	0x3c692667	0.014230347
55	0x3d963f36	0.07336275
56	0xbdec6db4	-0.11544362
57	0xbd81d039	-0.063385434
58	0xbe19d751	-0.15023543
59	0xba818638	-0.0009881919
60	0xbd815f4c	-0.063170046
61	0xbc87ee75	-0.016593197
62	0xbd48def7	-0.04904076
63	0xbdb91fc8	-0.09039265
64	0x3e231fe9	0.15930142
65	0xbda8b77f	-0.08238124
66	0x3d0232f6	0.03178688
67	0x3d9e61c7	0.07733493
68	0x3e1ea9d6	0.15494475
69	0xbc3582ba	-0.011078531
70	0x3e4722fb	0.19446938
71	0x3d568c24	0.052379742
72	0xbda8fc34	-0.08251229
73	0x3deea27b	0.116520844
74	0xbc022374	-0.007943023
75	0xbcdad437	-0.02671252
76	0xbd0e10d7	-0.03468403
77	0x3e0545db	0.13014929
78	0x3cc8bd3c	0.024504296
79	0x3d51e94c	0.05124788
80	0xbc8f8e38	-0.01752387
81	0xbd88dda6	-0.06682901
82	0x3e48ad19	0.19597282
83	0x3bfffd1a	0.0078121545
84	0x3c5fc370	0.013657436
85	0xbe3c245c	-0.18373245
86	0xb9c3512f	-0.00037253785
87	0x3dfff3a6	0.12497644
88	0xbd96fd5a	-0.07372542
89	0x3ce6fab6	0.02819572
90	0xbd9f5c64	-0.07781294
91	0x3dacd5ba	0.084392026
92	0x3cf2c430	0.029634565
93	0xbd5f15ee	-0.054464273
94	0x3e088517	0.1333202
95	0xbcd592ed	-0.026071036
96	0x3c52140f	0.012822165
97	0x3e291c60	0.1651473
98	0x3e23efdb	0.16009466
99	0x3da643b2	0.081183806
100	0x3dc031ac	0.09384474
101	0xbe0a9d2a	-0.13536516
102	0xbd654165	-0.05597057
103	0x3e0724d7	0.13197647
104	0xbd19bdb8	-0.037534446
105	0xbdde5a1b	-0.1085703
106	0xbda6029e	-0.08105968
107	0x3b856ba5	0.00407167
108	0xbc9f2870	-0.019428462
109	0x3debd053	0.11514344
110	0x3d4f2f76	0.05058237
111	0x3d795066	0.06086769
112	0xbde2f022	-0.11080958
113	0x3ba317ed	0.0049772174
114	0x3df0f33d	0.11765144
115	0x3e86158d	0.26188317
116	0x3e55dfc4	0.20886141
117	0x3d0931f7	0.033494916
118	0x3d6e76f8	0.058218926
119	0xbd41c8dc	-0.047310695
120	0xbda4c95d	-0.080462195
121	0xbd525559	-0.051350925
122	0xbe384005	-0.17993172
123	0x3cf264ec	0.029589139
124	0x3dd65850	0.10466063
125	0xbe1ec05a	-0.15503064
126	0x3e0f7ac9	0.14011683
127	0x3c6c85e3	0.014436218
128	0xbe27f43b	-0.1640176
129	0xbcdf9a41	-0.027295234
130	0x3e2b5280	0.1673069
131	0xbe8bac6a	-0.2727998
132	0xb9483587	-0.00019093427
133	0x3de12649	0.109936304
134	0xbac111ef	-0.0014730076
135	0x3c7e3a1b	0.015516783
136	0x3e1923b9	0.14955033
137	0xbde87317	-0.11350077
138	0x3cefced9	0.029273437
139	0xbda272e6	-0.079320714
140	0x3b784a1f	0.0037885976
141	0xbdfda88c	-0.123856634
142	0xbd9773c6	-0.07395129
143	0x3d781f2f	0.060576614
144	0x3dc87ed3	0.09789815
145	0x3d7adaa7	0.06124368
146	0xbcf068e4	-0.02934689
147	0x3d381cb8	0.044949263
148	0x3dca1ea7	0.09869128
149	0x3db63e06	0.08898549
150	0xbd839975	-0.06425754
151	0x3dc4dece	0.09612809
152	0xbd5a38bd	-0.053276766
153	0x3d460719	0.048346613
154	0x3d9b555b	0.0758464
155	0xbd80a300	-0.0628109
156	0xbc5bb7b1	-0.013410495
157	0x3c2a4e6c	0.010394674
158	0x3e02239a	0.12708893
159	0x3d8d2458	0.06891698
160	0x3d469e9f	0.048491117
161	0x3d97b780	0.07408047
162	0xbd210cd5	-0.03931888
163	0xbcf3ad7c	-0.02974581
164	0x3e33323c	0.17499632
165	0x3e0403a4	0.12892014
166	0xbd25a894	-0.04044397
167	0x3da7c2a6	0.08191423
168	0xbdd8b614	-0.10581604
169	0x3d2cf53a	0.042226054
170	0xbdbf83de	-0.093513235
171	0xbe1c601b	-0.15271036
172	0xbc2b9fcc	-0.01047511
173	0xbe1460a5	-0.14489992
174	0xbd0986d4	-0.033575848
175	0x3c54f0b6	0.012996843
176	0x3c9e696c	0.019337378
177	0xbabc8175	-0.0014381843
178	0x3d46c03c	0.048523173
179	0x3cc9c7e0	0.02463144
180	0x3bf01eb1	0.0073278775
181	0x3df2d076	0.11856167
182	0xbcf0d2cd	-0.029397393
183	0xbc8821f2	-0.016617749
184	0xbbd324da	-0.006443602
185	0xbcd743e6	-0.026277494
186	0x3e012f4c	0.12615699
187	0xbe398f99	-0.18121184
188	0x3e030fa3	0.12798934
189	0xbddce353	-0.10785546
190	0xbd21f3f7	-0.039539304
191	0xbd37ddbd	-0.0448892
192	0x3d1daa65	0.03849258
193	0xbdea6895	-0.11445729
194	0xbdeedf25	-0.11663655
195	0xbd56bb4a	-0.052424707
196	0xbe45c66e	-0.19313976
197	0xbb980e8b	-0.0046404055
198	0x3dbf2581	0.09333325
199	0x3bbb336a	0.005712916
200	0xbd4507f8	-0.048103303
201	0xbc9cd0a2	-0.019142453
202	0xbdb8c438	-0.09021801
203	0xbd5ae741	-0.053443197
204	0xbd8a8448	-0.06763512
205	0x3d41276b	0.047156733
206	0x3d5a2f62	0.053267844
207	0xbac932ab	-0.0015350183
208	0x3aa970fe	0.0012927351
209	0xbd77ce19	-0.060499284
210	0xbdd1b5af	-0.102397315
211	0xbd17310a	-0.036912
212	0xbddf63a7	-0.10907679
213	0xbd81353f	-0.06308984
214	0xbd6ef8ad	-0.058342624
215	0xbdb07c2e	-0.086174354
216	0xbc1ca7c8	-0.009561487
217	0xbd8d0f2e	-0.06887661
218	0x3df3717d	0.118868805
219	0xbd9151f6	-0.07095711
220	0xbd845dce	-0.06463204
221	0x3de89445	0.11356405
222	0xbc61bb27	-0.013777531
223	0xbd2dd08b	-0.04243521
224	0x3ca61f6a	0.020278651
225	0xbd57438a	-0.052554645
226	0xbdcd6396	-0.1002876
227	0x3d4fb714	0.050711706
228	0x3c8a94b4	0.01691661
229	0xbbf5b380	-0.0074982047
230	0x3a5d5d88	0.0008444418
231	0x3c16f3e2	0.00921342
232	0x3d555a46	0.052088045
233	0x3c91d137	0.017799957
234	0x3db1e0e6	0.08685474
235	0xbb3201a3	-0.002716162
236	0xbce72ef6	-0.028220635
237	0x3bf79b7f	0.0075563784
238	0x3c7f04f6	0.015565148
239	0x3db9f173	0.09079256
240	0x3d84ecb9	0.06490464
241	0xbc8ee714	-0.017444171
242	0x3cf65cb5	0.030073503
243	0x3d943f70	0.07238662
244	0x3cba6740	0.022754312
245	0x3e0ef1a6	0.13959369
246	0x3e3ded3d	0.1854753
247	0x3d8ab2ab	0.067723595
248	0xbd644041	-0.05572534
249	0x3d1f09ad	0.038827587
250	0xbd25f87c	-0.040520176
251	0xbdd1312e	-0.102144584
252	0x3dc9960e	0.09843074
253	0x3d7db7f8	0.061943024
254	0x3c094653	0.008378583
255	0x3dcb6481	0.09931279

network_body._body_endoder.seq_layers.2.bias f4 [128]
0	0xbb10072a	-0.0021976926
1	0x3aecb439	0.0018059082
2	0x3b0d40f3	0.0021553605
3	0x3abe4bef	0.001451848
4	0xbb8f2924	-0.004368918
5	0x3b036b86	0.0020053103
6	0x3b21bab5	0.0024677936
7	0xbb3db06b	-0.0028944265
8	0x3b0d1417	0.0021526867
9	0x3abb7af6	0.0014303613
10	0xbb5518d8	-0.0032516029
11	0x3adffe3c	0.0017089318
12	0x3b4b6869	0.0031037575
13	0x39988643	0.00029091732
14	0x3a9e132a	0.0012060155
15	0xbb72179e	-0.0036940346
16	0xbb048bde	-0.002022497
17	0xbb1e5988	-0.0024162252
18	0x3ac7b482	0.0015236291
19	0xbb72648a	-0.0036986195
20	0x3a22733a	0.00061969797
21	0xbb2fa5f1	-0.002680179
22	0xbb3f73dc	-0.0029213345
23	0xbb2cc441	-0.0026362094
24	0xbb3a542e	-0.0028431523
25	0xbb27ec77	-0.0025623122
26	0xbb25426f	-0.00252166
27	0xbb1d666d	-0.002401735
28	0xbb1e0716	-0.002411311
29	0x3af32129	0.0018549311
30	0xbb27ac6d	-0.0025584952
31	0x3afaaeb2	0.001912555
32	0x3b18eb84	0.0023333738
33	0x3bb5335a	0.005529803
34	0x3adf1940	0.0017021075
35	0xbb0c40ba	-0.0021400885
36	0xbb04cf46	-0.0020265146
37	0x3ad3b012	0.0016150496
38	0xbb5ca77c	-0.0033669164
39	0x3b10c2d5	0.0022088785
40	0x3aefef28	0.0018305527
41	0x3b1accab	0.0023620527
42	0x3b578d34	0.003289056
43	0xbb205fe1	-0.002447121
44	0xbaa0baa1	-0.0012262651
45	0x3ae0a07c	0.0017137672
46	0xbb1f3b8c	-0.0024296967
47	0x3b39725f	0.002829693
48	0x3a39160e	0.00070604763
49	0x3af45901	0.0018642248
50	0x3aeefae9	0.0018232736
51	0xbbbf4983	-0.0058376207
52	0xbb1040e3	-0.0022011332
53	0x3adec080	0.0016994625
54	0x3accf6f7	0.0015637566
55	0x3b1f3c86	0.002429755
56	0xbb0da525	-0.0021613326
57	0xbb13a466	-0.002252841
58	0xbb1c0c17	-0.0023810917
59	0x3b1a38c0	0.002353236
60	0x3b003664	0.001956367
61	0x3a3ff8b6	0.00073231326
62	0xbabec573	-0.0014554694
63	0x3acfb59b	0.0015846969
64	0xbb232203	-0.0024892099
65	0xbb235ddc	-0.002492777
66	0x3b16a88e	0.002298865
67	0x3b14133a	0.0022594468
68	0xbb15aa0b	-0.002283695
69	0xba71a1c2	-0.0009217524
70	0x3a93644f	0.0011245104
71	0xbb372406	-0.0027945056
72	0xbb24a75a	-0.0025124163
73	0x3b0c0b9b	0.0021369222
74	0x3a65f3fa	0.0008772012
75	0x3b077a04	0.0020672092
76	0x3b64b213	0.003489618
77	0x3b17fc0b	0.0023191
78	0xbb1f6128	-0.0024319384
79	0x3af76e61	0.00188775
80	0x3ae93f79	0.0017795406
81	0x3adf6354	0.0017043152
82	0xbb17c34b	-0.0023157175
83	0x3b08ebae	0.002089243
84	0xbb1ad50c	-0.002362552
85	0xbb13f85e	-0.0022578458
86	0xbb240ec9	-0.0025033227
87	0x3abfea62	0.0014641995
88	0xbb48e870	-0.0030656122
89	0x3ae012d8	0.001709546
90	0x3ac309c6	0.0014880232
91	0xbb3aaca5	-0.0028484252
92	0x3b38cfc9	0.0028200021
93	0x3af5e377	0.0018759806
94	0x3b042705	0.002016486
95	0xb9e93450	-0.000444802
96	0x3ac0d7f1	0.0014712793
97	0xbb138c53	-0.002251406
98	0xbb325a43	-0.0027214445
99	0x3b1bd4b6	0.0023777909
100	0x3b01f1df	0.0019828004
101	0x3b0e1be5	0.0021684107
102	0xbb13ef06	-0.002257289
103	0x3bb7e20d	0.005611664
104	0xbb1917be	-0.0023360099
105	0x3b010007	0.0019683854
106	0xbb0df5ec	-0.0021661473
107	0x3b00ce5e	0.0019654254
108	0xbb276c42	-0.0025546704
109	0x3a91b1c0	0.0011115596
110	0x3adb1686	0.0016715087
111	0xbb293691	-0.0025819878
112	0xbb1cae73	-0.002390769
113	0x3b60747a	0.0034249113
114	0x3b3bd8e7	0.002866322
115	0x3afa8897	0.0019114193
116	0xbb10e6b4	-0.0022110166
117	0xbb111a02	-0.0022140746
118	0xbb22d7b5	-0.002484781
119	0xbb124367	-0.0022318007
120	0x3af1cce8	0.0018447908
121	0x3a9dd39a	0.0012041212
122	0xbb34e144	-0.002760009
123	0x3b1ab62a	0.0023607113
124	0xbb8b3495	-0.0042482116
125	0x3b057cd6	0.0020368597
126	0x3b027760	0.0019907579
127	0x3aceca89	0.0015776913

action_model._continuous_distribution.mu.weight f4 [1, 128]
0	0xbce5f2ca	-0.028069872
1	0x3c34a478	0.0110255405
2	0x3cfefd36	0.0311266
3	0x3b777eab	0.003776471
4	0x38fa9eb7	0.00011950492
5	0x3d120723	0.035651337
6	0x3b3a4392	0.0028421623
7	0xbcdf2588	-0.027239576
8	0x3c6533ef	0.013989433
9	0xb9d3fc56	-0.0004043306
10	0x3a4ab7f3	0.0007733099
11	0x3cc2f75c	0.02379959
12	0x3a4011e9	0.00073268876
13	0xbaeb8220	-0.0017967857
14	0x3ba41275	0.005007083
15	0xbc96b8da	-0.018398691
16	0xbc41278b	-0.011789213
17	0xbc1ed92c	-0.0096953325
18	0x3be21d3e	0.0069004586
19	0x39b9677f	0.0003536306
20	0x3b05cdff	0.0020416973
21	0xbc7f668d	-0.015588415
22	0xbd11ace0	-0.035565257
23	0xbc90d5b8	-0.017680034
24	0xbd2ba930	-0.041909397
25	0xbc854c1c	-0.016271643
26	0xbcc35ee2	-0.023848955
27	0xbc946f87	-0.018119587
28	0xbc4d2595	-0.012521167
29	0x3c58932b	0.013218681
30	0xbc61a80c	-0.013772976
31	0x3ce13f18	0.027495906
32	0xbb942f56	-0.0045222444
33	0xbaa0afef	-0.0012259464
34	0x3d1ac37a	0.037784077
35	0xbcbe219b	-0.023209384
36	0xbb3baf2a	-0.0028638341
37	0x3b957317	0.004560839
38	0xbcc6fbd7	-0.024290008
39	0x3d27f608	0.041006118
40	0x3c33cb89	0.0109738195
41	0x3c573b71	0.0131367305
42	0x3935c584	0.00017335085
43	0xbc3e17f5	-0.0116023915
44	0xbb6b112b	-0.0035868387
45	0x3c40296f	0.011728629
46	0xbbfe8ca0	-0.0077682287
47	0xbb2a44d4	-0.0025980966
48	0x3b0393a2	0.002007701
49	0x3cef8f83	0.029243236
50	0x3d139eb6	0.03604003
51	0x3ac25c94	0.0014828616
52	0xbc88e550	-0.016710907
53	0x3c1c2942	0.009531321
54	0x3c09cdc6	0.008410877
55	0x3bf6300e	0.007513053
56	0xbd25c4ea	-0.040470995
57	0xbc7d7072	-0.015468704
58	0xbca20b27	-0.019780708
59	0x3ca1f0b9	0.019768106
60	0x3cfcf5f5	0.030879
61	0x3b5ff70b	0.0034174349
62	0xbcb28f32	-0.021796796
63	0x3bff2ab6	0.007787074
64	0xbbf4ac8b	-0.007466858
65	0xbc2a7a70	-0.010405168
66	0x3c3a4f20	0.011371404
67	0x3c84632a	0.016160566
68	0xbc865dc5	-0.016402135
69	0xbb47d288	-0.0030490477
70	0x3a942085	0.0011301195
71	0xbbcbb570	-0.0062166974
72	0xbbe69653	-0.007036963
73	0x3ba1f40e	0.0049424237
74	0x3b05f846	0.0020442172
75	0x3b8ce34a	0.004299556
76	0x39a6f964	0.00031847798
77	0x3ba20fe7	0.0049457434
78	0xbd09e621	-0.033666734
79	0x3c06b331	0.0082214335
80	0x3c4de5de	0.012567012
81	0x3ca59728	0.020213678
82	0xbc646887	-0.013940937
83	0x3d470df2	0.048597284
84	0xbba12a4f	-0.0049183737
85	0xbce8cc2d	-0.028417671
86	0xbc335ec1	-0.010947884
87	0x3bd6ba36	0.00655296
88	0xbb42682b	-0.002966414
89	0x3c623d51	0.013808564
90	0x3bfade80	0.0076559186
91	0xbc201dc6	-0.009772724
92	0x3bd7ab5d	0.0065817074
93	0x3c381a2e	0.0112367105
94	0x3cebed68	0.028799728
95	0x3ac70c1d	0.0015186105
96	0x3bcde26f	0.0062830965
97	0xbc81eca6	-0.015859913
98	0xbc52d560	-0.012868255
99	0x3c8322b2	0.016007755
100	0x3d03cf4e	0.032180123
101	0x3c3cd40a	0.011525163
102	0xbc33830b	-0.010956536
103	0xba4c22f0	-0.00077871885
104	0xbcc0a2f8	-0.02351521
105	0x3cd594ec	0.026071988
106	0xbccc6638	-0.024951085
107	0x3c9cd63b	0.019145122
108	0xbc82f152	-0.015984211
109	0x3b93ea75	0.0045140334
110	0x3c37242e	0.0111780595
111	0xbd3841e0	-0.0449847
112	0xbc14dea7	-0.009086288
113	0xba9eccff	-0.0012115537
114	0x3ccf2197	0.025284572
115	0x3d198521	0.037480477
116	0xbc35c458	-0.011094175
117	0xbc7bf2d3	-0.015377718
118	0xbca36662	-0.01994628
119	0xbd27040c	-0.040775344
120	0x3d305942	0.043053873
121	0x3b922b6d	0.004460743
122	0xbbd47ee1	-0.0064848517
123	0x3bc456b4	0.005991781
124	0x393fa168	0.00018275308
125	0x3cd841d2	0.026398573
126	0x3bbf787d	0.0058432207
127	0x3c87a47d	0.016557926

action_model._discrete_distribution.branches.0.weight f4 [1, 128]
0	0xbc3cb9c8	-0.011518903
1	0xbb7cb473	-0.0038559705
2	0xbc2bce4c	-0.010486197
3	0xbbbff063	-0.0058575138
4	0x3c277a4c	0.010222029
5	0xbc0bd49f	-0.00853458
6	0xbb13ba85	-0.0022541594
7	0xbb674eba	-0.0035294727
8	0x3b9930b4	0.0046749953
9	0xbac67212	-0.0015140197
10	0x3888ecc3	6.529086e-05
11	0x3a520330	0.0008011339
12	0xbbf489e8	-0.007462729
13	0xb8eb778b	-0.0001122794
14	0xbc8531be	-0.01625907
15	0x3c2f7a72	0.010710346
16	0x3bb41799	0.005495977
17	0x3be677fa	0.0070333453
18	0x3a80a4ce	0.0009814741
19	0x3be805f2	0.007080787
20	0x3b2fcca3	0.0026824854
21	0x3bb945a0	0.005654052
22	0x3ad0af33	0.0015921354
23	0xbb6242c0	-0.003452465
24	0x3b92a06f	0.0044746916
25	0xbb329c46	-0.002725379
26	0x3a9252fc	0.0011163647
27	0xbb77aad7	-0.0037791037
28	0x3bd51e47	0.0065038535
29	0x3b500f78	0.0031747501
30	0x3afe66d3	0.0019409306
31	0x3c105a52	0.008810597
32	0xbb32a019	-0.002725607
33	0x3bc9f248	0.0061629154
34	0x3ca42176	0.020035487
35	0x3b4b941f	0.003106363
36	0x3c6b7aad	0.01437251
37	0x3c32f4ce	0.010922624
38	0x3b57afe8	0.0032911245
39	0xbb826c47	-0.003980193
40	0xbb9687c3	-0.004593821
41	0x3c8cd1fe	0.017189976
42	0xbb373838	-0.0027957093
43	0xbc397f65	-0.011321877
44	0xbc0665f7	-0.008203021
45	0x3ba1b3ff	0.0049347873
46	0x3ab14f1a	0.0013527602
47	0x3a24c17b	0.00062849344
48	0xbab3296b	-0.001366896
49	0x3b92c928	0.004479546
50	0xbc1ee139	-0.009697252
51	0x3c3d51ca	0.011555145
52	0xbc528a8d	-0.012850416
53	0xbc3fd1c0	-0.011707723
54	0x3beebe9a	0.007285905
55	0x3c1223b7	0.008919648
56	0x3bdcebcb	0.006741976
57	0xbbd489b0	-0.00648614
58	0xbb8250d8	-0.0039769225
59	0xbbef45df	-0.0073020305
60	0x3bf1ca40	0.0073788464
61	0xbb8468ad	-0.0040407986
62	0xbc740ee5	-0.014896129
63	0x3b7ed263	0.0038882724
64	0xbbe75d40	-0.007060677
65	0xbc2fbcff	-0.0107262125
66	0x3c735ce7	0.014853693
67	0x3b179cb0	0.0023134165
68	0xbb2b6c44	-0.002615706
69	0x3c8322bb	0.016007772
70	0xbba31019	-0.004976284
71	0xbae24887	-0.0017264046
72	0xb995a81c	-0.00028544746
73	0xbb381547	-0.0028088854
74	0xbb1f9369	-0.0024349338
75	0xbc12323c	-0.00892311
76	0xbba9be33	-0.005180144
77	0x3be4d493	0.0069833486
78	0x3c68eca3	0.014216575
79	0xbc12c8b8	-0.008958988
80	0xbb0d12d3	-0.0021526113
81	0xbb902d42	-0.0043999264
82	0xbc2d0983	-0.01056135
83	0x3b7ee80a	0.003889563
84	0x3b049274	0.0020228894
85	0x3a5a8b48	0.00083367946
86	0xbc70e9cf	-0.014704182
87	0xbce79307	-0.02826835
88	0x3c277c57	0.010222516
89	0x3c007298	0.007839821
90	0x39854f7d	0.0002542696
91	0x3c90fb6a	0.017698009
92	0x3a1357a8	0.0005620667
93	0xbaf96060	-0.0019025914
94	0x3c6a24b8	0.014290981
95	0xbbbd8dc6	-0.005784723
96	0xba054ea8	-0.0005085268
97	0x39a01e06	0.00030539947
98	0xbba6fabb	-0.0050958074
99	0xbbee4cbb	-0.0072723306
100	0x3c03bf22	0.008041175
101	0x3be17465	0.0068803304
102	0x3c1223be	0.008919654
103	0x3a97d39a	0.0011583448
104	0xbc340a29	-0.0109887505
105	0x3b903d93	0.0044018715
106	0xbc10e0ef	-0.008842691
107	0xbb1a00d6	-0.0023499033
108	0x3c2a2fc2	0.010387363
109	0x3b3fdeb7	0.0029277036
110	0x3a21484b	0.0006152435
111	0xb9cfe2a2	-0.0003965097
112	0x3ba4ad8b	0.0050255707
113	0x3b8e06fa	0.0043343278
114	0x3c5fb2a0	0.013653427
115	0x3c16c56e	0.009202344
116	0xbc57650b	-0.013146649
117	0x3beabfe7	0.00716399
118	0xbbb57421	-0.0055375253
119	0xbaee773a	-0.0018193491
120	0xbc2d5fbb	-0.010581906
121	0x3a31f022	0.0006787797
122	0xbb8275d3	-0.003981331
123	0xbc63e44f	-0.0139094135
124	0xbc177ad0	-0.009245589
125	0xbc8d4d42	-0.017248753
126	0x3c1b99e3	0.009497139
127	0x3c232fe7	0.009960151

exp_avg f4 [128, 6]
0	0xb6b13159	-5.280756e-06
1	0x3714719a	8.847937e-06
2	0xb347baa2	-4.650304e-08
3	0x390db5d1	0.0001351454
4	0x372e7473	1.0398321e-05
5	0x00000000	0.0
6	0xb74e63c0	-1.2301782e-05
7	0xb6ce19dd	-6.1422893e-06
8	0xb48645a6	-2.501012e-07
9	0x36c1ccb3	5.7756783e-06
10	0xb6f089b8	-7.16859e-06
11	0x00000000	0.0
12	0xb8581f1a	-5.152738e-05
13	0xb746551d	-1.1821537e-05
14	0xb58ee69e	-1.0646943e-06
15	0x3978c2a5	0.00023723634
16	0xb7674ef6	-1.37870575e-05
17	0x00000000	0.0
18	0x36eb4369	7.0113933e-06
19	0x368eef43	4.2597835e-06
20	0x348a3939	2.5746138e-07
21	0xb7b615ca	-2.1706237e-05
22	0x36a72bf2	4.9821037e-06
23	0x00000000	0.0
24	0x358d4ecc	1.0528252e-06
25	0x36568c08	3.1969994e-06
26	0x34898c26	2.562021e-07
27	0x37805813	1.5299802e-05
28	0x36793fc6	3.7141012e-06
29	0x00000000	0.0
30	0xb7c3a33b	-2.3321822e-05
31	0xb6ddba47	-6.607999e-06
32	0xb506703b	-5.0082207e-07
33	0x38dd929b	0.000105654086
34	0xb70197b6	-7.724322e-06
35	0x00000000	0.0
36	0x37ca1b0b	2.409287e-05
37	0x370254ea	7.768374e-06
38	0x352ee9c6	6.5160236e-07
39	0xb8fd55f1	-0.00012079988
40	0x3717fc96	9.059111e-06
41	0x00000000	0.0
42	0xb547f453	-7.4488815e-07
43	0x36ade9a0	5.1829993e-06
44	0xb3220d43	-3.7730626e-08
45	0x37438b82	1.1655387e-05
46	0x36cdce53	6.1334954e-06
47	0x00000000	0.0
48	0xb71139b2	-8.656107e-06
49	0x369af1b8	4.6176974e-06
50	0xb43dda13	-1.7681332e-07
51	0x38f851e0	0.00011840812
52	0x36b71dcf	5.457295e-06
53	0x00000000	0.0
54	0xb7226b66	-9.680958e-06
55	0xb6242e37	-2.4464805e-06
56	0xb49b77e2	-2.8958226e-07
57	0x3706c79e	8.033499e-06
58	0xb63d152d	-2.817552e-06
59	0x00000000	0.0
60	0xb5d36861	-1.5751103e-06
61	0x34b1c1cb	3.3109822e-07
62	0x3420cbb8	1.4975274e-07
63	0x3816f209	3.59882e-05
64	0x34c36e4d	3.6401835e-07
65	0x00000000	0.0
66	0xb716761c	-8.968196e-06
67	0x370ab321	8.267148e-06
68	0xb42bc5d7	-1.599759e-07
69	0x3924b8fd	0.00015709172
70	0x37235180	9.734533e-06
71	0x00000000	0.0
72	0xb7f87284	-2.961723e-05
73	0xb7334f8f	-1.0687755e-05
74	0xb582a905	-9.734946e-07
75	0x3889aa81	6.564428e-05
76	0xb74f85b9	-1.2369296e-05
77	0x00000000	0.0
78	0x370496ed	7.902953e-06
79	0xb625dc89	-2.4715284e-06
80	0x33850b5e	6.195363e-08
81	0xb8e2083b	-0.00010778053
82	0xb63fe600	-2.8595096e-06
83	0x00000000	0.0
84	0x36fcaf70	7.530609e-06
85	0xb743332b	-1.1634819e-05
86	0x34291f36	1.5750706e-07
87	0xb9461c17	-0.00018893216
88	0xb7651b0c	-1.3655761e-05
89	0x00000000	0.0
90	0xb7b36733	-2.1386519e-05
91	0xb6fb69fc	-7.492721e-06
92	0xb45719f7	-2.0032881e-07
93	0x390a1d3e	0.00013171599
94	0xb714c1df	-8.866627e-06
95	0x00000000	0.0
96	0x389baed1	7.423538e-05
97	0x37a028f8	1.9092564e-05
98	0x35fe4108	1.8943401e-06
99	0xb9ae1f89	-0.00033211362
100	0x37ba2263	2.218894e-05
101	0x00000000	0.0
102	0x36c5397d	5.87775e-06
103	0x36e2f98b	6.7643755e-06
104	0x339b0a52	7.219627e-08
105	0x37dc06f1	2.6229276e-05
106	0x37054213	7.942802e-06
107	0x00000000	0.0
108	0xb6d573ca	-6.3613743e-06
109	0xb3b8c17d	-8.603363e-08
110	0xb3399577	-4.3209607e-08
111	0x37f047e2	2.8643703e-05
112	0xb3de9712	-1.036516e-07
113	0x00000000	0.0
114	0xb6ec853f	-7.04886e-06
115	0x3734681a	1.0753074e-05
116	0xb3bbacde	-8.7393104e-08
117	0x39353d8b	0.00017284432
118	0x37540f12	1.26396935e-05
119	0x00000000	0.0
120	0xb763cb8f	-1.3577649e-05
121	0xb5e677bd	-1.7171184e-06
122	0xb4c9371b	-3.7479262e-07
123	0x38b25465	8.503421e-05
124	0xb604a71d	-1.9766806e-06
125	0x00000000	0.0
126	0xb68f8cd7	-4.278128e-06
127	0x37169065	8.974316e-06
128	0xb3b3fb86	-8.381089e-08
129	0x3910e5d5	0.00013818529
130	0x3730e9b3	1.054483e-05
131	0x00000000	0.0
132	0xb78c7c8d	-1.6747299e-05
133	0xb6b6661c	-5.4359098e-06
134	0xb4dc3f1e	-4.1024117e-07
135	0x38839252	6.273821e-05
136	0xb6d4bc70	-6.3400294e-06
137	0x00000000	0.0
138	0xb7d9204f	-2.588346e-05
139	0xb6e7e95f	-6.9115044e-06
140	0xb5433c77	-7.273115e-07
141	0x38dcbf1c	0.000105260144
142	0xb7064c26	-8.004752e-06
143	0x00000000	0.0
144	0xb5be9b64	-1.4201328e-06
145	0x35b88fb5	1.3750893e-06
146	0x332ae7fb	3.9792194e-08
147	0xb70cbe9d	-8.389031e-06
148	0x35d97a65	1.6203381e-06
149	0x00000000	0.0
150	0xb7cc7811	-2.4374605e-05
151	0xb6fa3e66	-7.4578447e-06
152	0xb494133d	-2.7581146e-07
153	0x39172da1	0.0001441748
154	0xb71411ac	-8.825602e-06
155	0x00000000	0.0
156	0xb7d9a461	-2.594496e-05
157	0xb7376df5	-1.0933251e-05
158	0xb50fd1bb	-5.357685e-07
159	0x38966679	7.1716444e-05
160	0xb7564d07	-1.2773328e-05
161	0x00000000	0.0
162	0x37008678	7.660703e-06
163	0x36bec5fc	5.6854897e-06
164	0x34a38ed2	3.046503e-07
165	0x36b6b006	5.4445145e-06
166	0x36de7278	6.6294415e-06
167	0x00000000	0.0
168	0xb7795311	-1.4860897e-05
169	0xb75584b9	-1.2726691e-05
170	0xb51905aa	-5.7005184e-07
171	0xb87106b7	-5.746513e-05
172	0xb778b43c	-1.4823916e-05
173	0x00000000	0.0
174	0x3743a15a	1.1660473e-05
175	0x3699826d	4.574939e-06
176	0x345a6aca	2.0341682e-07
177	0xb8a29c57	-7.7538825e-05
178	0x36b4c179	5.386941e-06
179	0x00000000	0.0
180	0x36fcd445	7.5348967e-06
181	0x3611532a	2.1655092e-06
182	0x349fa9f4	2.9739715e-07
183	0xb80b5a53	-3.3224303e-05
184	0x3627b6db	2.4991375e-06
185	0x00000000	0.0
186	0xb60bfd1e	-2.0859948e-06
187	0x36dcc757	6.579717e-06
188	0xb3979975	-7.059399e-08
189	0x38be145a	9.063697e-05
190	0x3701c0b8	7.73387e-06
191	0x00000000	0.0
192	0xb66ddb85	-3.544353e-06
193	0xb55735af	-8.017186e-07
194	0xb331b464	-4.137509e-08
195	0xb72a4c9c	-1.0150627e-05
196	0xb578cd42	-9.268589e-07
197	0x00000000	0.0
198	0x385523c3	5.0816463e-05
199	0x376c6ecd	1.4092494e-05
200	0x35c24f10	1.4477137e-06
201	0xb968eb31	-0.0002221286
202	0x37892b02	1.63517e-05
203	0x00000000	0.0
204	0x384e9303	4.9251143e-05
205	0x37abec3d	2.0494796e-05
206	0x357da70a	9.449292e-07
207	0xb92972ea	-0.00016159905
208	0x37c90736	2.3964425e-05
209	0x00000000	0.0
210	0x36bc22e7	5.6069e-06
211	0xb7551878	-1.2701486e-05
212	0x34802a19	2.3872488e-07
213	0xb945f5d4	-0.00018878962
214	0xb77a9b81	-1.4937367e-05
215	0x00000000	0.0
216	0x35e82331	1.7295589e-06
217	0xb6a90d3f	-5.0381345e-06
218	0x3177d5da	3.6064791e-09
219	0xb8aaca60	-8.143927e-05
220	0xb6c5c3fc	-5.893873e-06
221	0x00000000	0.0
222	0x36eedab5	7.1184136e-06
223	0x361a498b	2.2990596e-06
224	0x34278384	1.5600932e-07
225	0xb85e6b26	-5.3028714e-05
226	0x3635044f	2.697361e-06
227	0x00000000	0.0
228	0x3622fe41	2.4287876e-06
229	0xb6c6f749	-5.9296476e-06
230	0x33aae9c9	7.958767e-08
231	0xb8c80bac	-9.538917e-05
232	0xb6e906d4	-6.944736e-06
233	0x00000000	0.0
234	0xb7e727da	-2.7555903e-05
235	0xb6d1b2eb	-6.249514e-06
236	0xb53f7331	-7.132067e-07
237	0x38cc6a5d	9.74729e-05
238	0xb6f2b089	-7.2327134e-06
239	0x00000000	0.0
240	0x3765bf75	1.3694041e-05
241	0x36893cb9	4.089987e-06
242	0x34b59d6a	3.382841e-07
243	0xb8810082	-6.151294e-05
244	0x369fe411	4.7651197e-06
245	0x00000000	0.0
246	0xb734f71e	-1.07863725e-05
247	0x372e4c52	1.0388978e-05
248	0xb44991a9	-1.8772575e-07
249	0x394bb42c	0.00019426708
250	0x374d0c80	1.2221863e-05
251	0x00000000	0.0
252	0xb5e17583	-1.6798007e-06
253	0xb631fc19	-2.6521795e-06
254	0xb3162d0d	-3.496557e-08
255	0xb795a3c6	-1.7838447e-05

exp_avg_sq f4 [128, 6]
0	0x2ec6a7e4	9.033821e-11
1	0x2ead7a76	7.8888826e-11
2	0x284b764a	1.12944136e-14
3	0x3284e86b	1.5472514e-08
4	0x2ef5d880	1.1179768e-10
5	0x00000000	0.0
6	0x2e166832	3.4198595e-11
7	0x2ec86a0d	9.1137854e-11
8	0x28f7b295	2.7499956e-14
9	0x321aaef9	9.003764e-09
10	0x2f0e09d2	1.2918314e-10
11	0x00000000	0.0
12	0x301b091c	5.6401617e-10
13	0x3092076e	1.062501e-09
14	0x2aff7ab1	4.5382234e-13
15	0x34a5c316	3.087559e-07
16	0x30cf5691	1.5085836e-09
17	0x00000000	0.0
18	0x2d60e3e3	1.2783527e-11
19	0x2e2fc590	3.9965864e-11
20	0x28859f9f	1.483519e-14
21	0x320cbb5b	8.191672e-09
22	0x2e790834	5.662333e-11
23	0x00000000	0.0
24	0x2e4104c8	4.3887366e-11
25	0x2ea5721e	7.5236026e-11
26	0x28a7d9d4	1.8635192e-14
27	0x32312658	1.0311474e-08
28	0x2eea42ae	1.0652933e-10
29	0x00000000	0.0
30	0x2eece4ba	1.07726675e-10
31	0x2f756812	2.2319593e-10
32	0x29c1dbc3	8.609044e-14
33	0x337419de	5.6834203e-08
34	0x2fae231b	3.167536e-10
35	0x00000000	0.0
36	0x2f59173f	1.9744294e-10
37	0x3061eab8	8.218808e-10
38	0x2a51040d	1.8564334e-13
39	0x345f465f	2.0794094e-07
40	0x309feaad	1.1635471e-09
41	0x00000000	0.0
42	0x2d194ee1	8.714558e-12
43	0x2ceac5c4	6.6726364e-12
44	0x27b33fa8	4.9751497e-15
45	0x311ecf81	2.3109978e-09
46	0x2d269d7d	9.470977e-12
47	0x00000000	0.0
48	0x2e118c94	3.309404e-11
49	0x2d3faf29	1.0895986e-11
50	0x2863829c	1.2629353e-14
51	0x32df53f1	2.5998789e-08
52	0x2d887c37	1.5516572e-11
53	0x00000000	0.0
54	0x2e26df7a	3.7942517e-11
55	0x2e600aa9	5.094117e-11
56	0x2903f519	2.930043e-14
57	0x3210ed07	8.435797e-09
58	0x2e9f9e52	7.258606e-11
59	0x00000000	0.0
60	0x2dde9280	2.5303537e-11
61	0x2d140d57	8.415788e-12
62	0x27a465c7	4.562949e-15
63	0x30821d12	9.467007e-10
64	0x2d52a225	1.1973121e-11
65	0x00000000	0.0
66	0x2ed03f5e	9.470001e-11
67	0x2e6103ff	5.1162626e-11
68	0x28a2ff5f	1.8096363e-14
69	0x3317a687	3.5308883e-08
70	0x2e9f8ab9	7.255125e-11
71	0x00000000	0.0
72	0x30169f9d	5.4796506e-10
73	0x30990fe7	1.1136735e-09
74	0x2ace1fb2	3.6614944e-13
75	0x344a0771	1.8815423e-07
76	0x30d9490b	1.5809588e-09
77	0x00000000	0.0
78	0x2e13dee4	3.3621897e-11
79	0x2ce26b62	6.4352282e-12
80	0x27bfc61a	5.322793e-15
81	0x3225d000	9.651558e-09
82	0x2d20d3df	9.141992e-12
83	0x00000000	0.0
84	0x2f237fa4	1.4870111e-10
85	0x2ec462f5	8.9306264e-11
86	0x29003fe1	2.8477116e-14
87	0x3303b194	3.066232e-08
88	0x2f0b5247	1.2671207e-10
89	0x00000000	0.0
90	0x2edf00e6	1.01410255e-10
91	0x2f16b5db	1.3707029e-10
92	0x290b65ab	3.0952383e-14
93	0x3349d8a3	4.699599e-08
94	0x2f559623	1.9425576e-10
95	0x00000000	0.0
96	0x30bacd11	1.3591565e-09
97	0x316aea1f	3.4184564e-09
98	0x2baff5d4	1.2502729e-12
99	0x3574e708	9.123328e-07
100	0x31a68994	4.8468767e-09
101	0x00000000	0.0
102	0x2de92e41	2.6509574e-11
103	0x2eaad023	7.7676775e-11
104	0x28308eed	9.800955e-15
105	0x310bff34	2.0372228e-09
106	0x2ef21f4e	1.1010447e-10
107	0x00000000	0.0
108	0x2d2b5707	9.739549e-12
109	0x2d216090	9.173232e-12
110	0x27bd7783	5.2587613e-15
111	0x31226295	2.363014e-09
112	0x2d654685	1.3032801e-11
113	0x00000000	0.0
114	0x2f177885	1.3776187e-10
115	0x2f06b48e	1.2251375e-10
116	0x28b61d69	2.0218814e-14
117	0x331178b4	3.3870222e-08
118	0x2f3ee7d1	1.7362757e-10
119	0x00000000	0.0
120	0x2e30c637	4.0193817e-11
121	0x2e5b268a	4.9829064e-11
122	0x292f75ce	3.8959985e-14
123	0x32d9937b	2.5329191e-08
124	0x2e9bf0bc	7.091347e-11
125	0x00000000	0.0
126	0x2e933cd3	6.6955906e-11
127	0x2ece0203	9.368153e-11
128	0x2882adab	1.4508216e-14
129	0x32d952f7	2.5299853e-08
130	0x2f11e335	1.3268393e-10
131	0x00000000	0.0
132	0x2e98bfa7	6.946204e-11
133	0x2f5c4b30	2.0035595e-10
134	0x298f44f9	6.3624405e-14
135	0x33345556	4.198713e-08
136	0x2f9c32fc	2.841246e-10
137	0x00000000	0.0
138	0x2f497fb8	1.8326218e-10
139	0x30119986	5.296886e-10
140	0x2a4f9062	1.8435386e-13
141	0x340d7cd1	1.3177056e-07
142	0x304e664e	7.5087747e-10
143	0x00000000	0.0
144	0x2cd37f0e	6.0110866e-12
145	0x2e23c2ba	3.723486e-11
146	0x280002f6	7.106069e-15
147	0x3211d24d	8.487928e-09
148	0x2e67a46c	5.2669355e-11
149	0x00000000	0.0
150	0x2ecea126	9.396421e-11
151	0x2ed81b50	9.8273945e-11
152	0x292ff204	3.906772e-14
153	0x330b0df3	3.2376146e-08
154	0x2f197c05	1.395933e-10
155	0x00000000	0.0
156	0x2f3549a9	1.6488023e-10
157	0x2fc7612f	3.6266942e-10
158	0x2a05baa0	1.1877522e-13
159	0x338abf66	6.460941e-08
160	0x300d6e9d	5.145269e-10
161	0x00000000	0.0
162	0x2dfbf4dc	2.8644136e-11
163	0x2ea2db49	7.40586e-11
164	0x28e3dc58	2.5297622e-14
165	0x3222647e	9.45249e-09
166	0x2ee6ce1d	1.0495802e-10
167	0x00000000	0.0
168	0x2fbe794b	3.4646983e-10
169	0x302f36ad	6.374233e-10
170	0x2a206f40	1.4249452e-13
171	0x333a39cb	4.3359062e-08
172	0x30789cb4	9.0444563e-10
173	0x00000000	0.0
174	0x2e1ef6da	3.614429e-11
175	0x2f39bda5	1.6893027e-10
176	0x28df0f1b	2.4764524e-14
177	0x333985da	4.3195406e-08
178	0x2f835b8d	2.3893812e-10
179	0x00000000	0.0
180	0x2dfefeaf	2.8989559e-11
181	0x2efa4d59	1.13824235e-10
182	0x29104bd7	3.2040204e-14
183	0x32f236fe	2.8197515e-08
184	0x2f312a81	1.6113157e-10
185	0x00000000	0.0
186	0x2d8c4e74	1.5950997e-11
187	0x2e053deb	3.0295693e-11
188	0x27e3267e	6.304689e-15
189	0x320a59a1	8.0530365e-09
190	0x2e3c9f33	4.288765e-11
191	0x00000000	0.0
192	0x2d1c7487	8.893448e-12
193	0x2e1f0429	3.615611e-11
194	0x280f4580	7.953165e-15
195	0x32472d53	1.159363e-08
196	0x2e611228	5.1175203e-11
197	0x00000000	0.0
198	0x304d2121	7.4625645e-10
199	0x310df7aa	2.0658981e-09
200	0x2b468a03	7.053526e-13
201	0x350bbe02	5.2058033e-07
202	0x3149361f	2.9280114e-09
203	0x00000000	0.0
204	0x302a2b31	6.190702e-10
205	0x3113b512	2.1494242e-09
206	0x2afdfbbd	4.5116507e-13
207	0x34cfc163	3.8697462e-07
208	0x31512294	3.0433158e-09
209	0x00000000	0.0
210	0x2e9d088d	7.141052e-11
211	0x2eaa942a	7.757024e-11
212	0x291544a1	3.3144172e-14
213	0x33292b6f	3.938788e-08
214	0x2ef1dd8e	1.0998767e-10
215	0x00000000	0.0
216	0x2e2f24e9	3.9823176e-11
217	0x2e20cdc8	3.656256e-11
218	0x27d499f5	5.900874e-15
219	0x319fa589	4.646328e-09
220	0x2e641cfd	5.1866945e-11
221	0x00000000	0.0
222	0x2db35899	2.038929e-11
223	0x2edfc0e0	1.01751274e-10
224	0x2890c6c9	1.6073421e-14
225	0x330096a0	2.9939315e-08
226	0x2f1e2c5c	1.4385776e-10
227	0x00000000	0.0
228	0x2df985e7	2.8367487e-11
229	0x2deaed56	2.6708118e-11
230	0x28258f60	9.1904295e-15
231	0x3213eff6	8.611087e-09
232	0x2e26b217	3.7902206e-11
233	0x00000000	0.0
234	0x2f64ad59	2.0798065e-10
235	0x2fcdd473	3.7440237e-10
236	0x2a4a7790	1.7982686e-13
237	0x33cc5348	9.514639e-08
238	0x30123a8c	5.319769e-10
239	0x00000000	0.0
240	0x2e7deaa3	5.773394e-11
241	0x2f653246	2.084529e-10
242	0x2973b9fa	5.4118148e-14
243	0x335ff26c	5.2141715e-08
244	0x2fa24ff6	2.9524444e-10
245	0x00000000	0.0
246	0x2f43beac	1.7802887e-10
247	0x2ebb23b4	8.5101176e-11
248	0x290550c9	2.9602002e-14
249	0x33612922	5.2424305e-08
250	0x2f04b748	1.2070445e-10
251	0x00000000	0.0
252	0x2d495e11	1.1446414e-11
253	0x2d16b3bd	8.566423e-12
254	0x2735eace	2.5246084e-15
255	0x30ab8a51	1.2481199e-09

exp_avg f4 [128]
0	0x38116109	3.4661065e-05
1	0xb7c872c5	-2.3895302e-05
2	0xb840c1c9	-4.5956844e-05
3	0x378b4f4b	1.6607015e-05
4	0x374fb528	1.238034e-05
5	0xb7d7fcd9	-2.5747739e-05
6	0x37fd4fa4	3.0197036e-05
7	0x37ab8144	2.0444983e-05
8	0x379898d5	1.819098e-05
9	0xb71d91a5	-9.39184e-06
10	0x35a2dbe9	1.2133943e-06
11	0x3808193f	3.244844e-05
12	0xb82cef6b	-4.123097e-05
13	0xb71fea59	-9.531702e-06
14	0xb83eebdf	-4.5519202e-05
15	0xb7f7edc8	-2.955542e-05
16	0x389b1ca4	7.396311e-05
17	0x37de18cc	2.647601e-05
18	0xb4b97e05	-3.4550627e-07
19	0x3830b739	4.213231e-05
20	0xb6dd1684	-6.5889344e-06
21	0x38136d6a	3.514943e-05
22	0xb7b147b1	-2.1133428e-05
23	0xb7dfd437	-2.6682492e-05
24	0x36b53b55	5.4011275e-06
25	0xb7f6c825	-2.9418685e-05
26	0xb8329588	-4.257777e-05
27	0x37b95f65	2.209814e-05
28	0xb84f40dc	-4.941305e-05
29	0x3796a138	1.7956467e-05
30	0x370bc311	8.330463e-06
31	0x37d84131	2.5779564e-05
32	0xb64f55b4	-3.089529e-06
33	0x38649d06	5.4505676e-05
34	0x38a78600	7.98814e-05
35	0xb850d6eb	-4.9791222e-05
36	0xb7a4cdfb	-1.964624e-05
37	0x3716d8e9	8.9912e-06
38	0xb7c2305d	-2.3149123e-05
39	0xb7ca3dcc	-2.4109053e-05
40	0x37853e0f	1.5883734e-05
41	0x382adfc0	4.0739542e-05
42	0xb72d379c	-1.0324551e-05
43	0xb72c53f3	-1.0271545e-05
44	0x36e98120	6.9589732e-06
45	0xb7cfd245	-2.4774237e-05
46	0xb829f80d	-4.0523755e-05
47	0xb8a70641	-7.9643454e-05
48	0x37840dc4	1.5742036e-05
49	0xb51570f0	-5.567117e-07
50	0xb7cec9c1	-2.4651063e-05
51	0x37899295	1.639993e-05
52	0xb742c152	-1.1608312e-05
53	0xb828e48c	-4.0267172e-05
54	0xb834d0ee	-4.3109925e-05
55	0xb76e87b5	-1.4217502e-05
56	0xb6b00d09	-5.2467262e-06
57	0xb88f4179	-6.8309666e-05
58	0xb8a73278	-7.972581e-05
59	0xb83878a2	-4.3981367e-05
60	0xb83e1993	-4.5323348e-05
61	0x38982e57	7.256556e-05
62	0x37d04714	2.482863e-05
63	0x374d6234	1.2241817e-05
64	0xb80f8eed	-3.4226967e-05
65	0x376f37e1	1.425852e-05
66	0xb71d2b8a	-9.3680665e-06
67	0xb860da47	-5.360905e-05
68	0x372beba7	1.0247261e-05
69	0xb7ee3570	-2.8396695e-05
70	0x36cf8702	6.1847977e-06
71	0x3679b822	3.721107e-06
72	0x38026bd0	3.1094823e-05
73	0x38255d0f	3.9425733e-05
74	0x37017391	7.715907e-06
75	0x379291f9	1.747253e-05
76	0xb79523f4	-1.7778926e-05
77	0x37bbce57	2.2388222e-05
78	0x382b536f	4.084728e-05
79	0xb68c233f	-4.1764283e-06
80	0x37ac74e4	2.055843e-05
81	0xb7926f95	-1.7456516e-05
82	0x367ef9d3	3.7994366e-06
83	0xb8051a6f	-3.173429e-05
84	0xb6ad70de	-5.1689412e-06
85	0xb78c4fe1	-1.6726497e-05
86	0x371b461f	9.255046e-06
87	0x389ab2f8	7.376628e-05
88	0xb750618b	-1.2420477e-05
89	0x38128870	3.493618e-05
90	0x37a9ab4b	2.0226134e-05
91	0xb60beb71	-2.084966e-06
92	0x38288d33	4.0185823e-05
93	0xb7987fd1	-1.8179331e-05
94	0x387a2ae6	5.9644597e-05
95	0xb8222b8d	-3.866437e-05
96	0x3850a486	4.974429e-05
97	0xb8028b5e	-3.112421e-05
98	0x381133a5	3.461879e-05
99	0xb76070a4	-1.3377667e-05
100	0x36ffb9ba	7.6212136e-06
101	0xb72608ce	-9.896421e-06
102	0xb82398c1	-3.900449e-05
103	0xb7416b18	-1.1528631e-05
104	0x37f2c63d	2.894096e-05
105	0x3705cecb	7.9755655e-06
106	0x37944aff	1.7677898e-05
107	0xb813f628	-3.5276782e-05
108	0xb73cc231	-1.1250887e-05
109	0xb7a883d8	-2.0088555e-05
110	0x37a0a899	1.9151996e-05
111	0xb79831c0	-1.8142979e-05
112	0xb71d6910	-9.382391e-06
113	0x37b53775	2.1602706e-05
114	0xb81c72dd	-3.7300273e-05
115	0xb68d5b12	-4.2127294e-06
116	0xb781b158	-1.546058e-05
117	0xb7fe0f74	-3.0286355e-05
118	0xb858013c	-5.1499563e-05
119	0xb897baed	-7.235059e-05
120	0x3671931c	3.5997427e-06
121	0x37be6dda	2.2700919e-05
122	0xb720cd3f	-9.584531e-06
123	0x37fba87a	2.9999985e-05
124	0x38250529	3.934387e-05
125	0xb80fe276	-3.4304765e-05
126	0x381ba63f	3.710971e-05
127	0x37a1cbc2	1.9287578e-05

exp_avg_sq f4 [128]
0	0x30aab9ee	1.2421972e-09
1	0x30c54688	1.4353683e-09
2	0x328ffc1b	1.6762035e-08
3	0x302cf057	6.291478e-10
4	0x30a2ae4b	1.1836588e-09
5	0x3171db6d	3.5194845e-09
6	0x325e1b48	1.2928304e-08
7	0x2ee768f1	1.0523305e-10
8	0x2f3d900f	1.724063e-10
9	0x305db13a	8.0651186e-10
10	0x2f1245ea	1.3303461e-10
11	0x305d9602	8.0612506e-10
12	0x3296e47e	1.7566204e-08
13	0x2edf5f24	1.0157766e-10
14	0x30c1807b	1.4079115e-09
15	0x311452e7	2.158396e-09
16	0x33674d53	5.3854205e-08
17	0x30a823f3	1.2233826e-09
18	0x2f1f3814	1.4480889e-10
19	0x310492be	1.9291941e-09
20	0x3058956d	7.879269e-10
21	0x30ca9f1d	1.4742657e-09
22	0x3158f177	3.1569394e-09
23	0x320f5542	8.343081e-09
24	0x3020dcdf	5.852154e-10
25	0x30d52c40	1.5510366e-09
26	0x31c46ef3	5.7169642e-09
27	0x30a04806	1.1662002e-09
28	0x322ca5b6	1.0049396e-08
29	0x313670e8	2.6548665e-09
30	0x30f6105f	1.7903509e-09
31	0x3002fcc2	4.7652915e-10
32	0x301c4c99	5.686132e-10
33	0x330bbae7	3.2533446e-08
34	0x33113b91	3.381462e-08
35	0x30a7f64d	1.2220852e-09
36	0x301e697b	5.762996e-10
37	0x30dbaf5b	1.5984186e-09
38	0x2fe78593	4.2113565e-10
39	0x31cb1868	5.9108523e-09
40	0x31616f0e	3.2804937e-09
41	0x30b853e3	1.3411604e-09
42	0x2f153086	1.356871e-10
43	0x2fdd259a	4.0226383e-10
44	0x2e80ce1d	5.857379e-11
45	0x31d15e78	6.0934404e-09
46	0x320baf22	8.1306855e-09
47	0x31870bd5	3.9303623e-09
48	0x31b53614	5.2739413e-09
49	0x2dd4391e	2.4126975e-11
50	0x31fb2b1f	7.3099637e-09
51	0x30b58589	1.3207436e-09
52	0x2ecec434	9.402648e-11
53	0x32232261	9.495666e-09
54	0x310db4ec	2.0621043e-09
55	0x2f064034	1.2210039e-10
56	0x30db383e	1.5950332e-09
57	0x320f8cbc	8.355695e-09
58	0x31db541e	6.383302e-09
59	0x30767b8c	8.966985e-10
60	0x31d009d9	6.0547163e-09
61	0x3188e603	3.9842702e-09
62	0x30205cd7	5.8339594e-10
63	0x2ebcc4b9	8.584195e-11
64	0x32092603	7.983092e-09
65	0x30ca0961	1.47001e-09
66	0x308f77a1	1.043862e-09
67	0x3115b41c	2.1784734e-09
68	0x312b8f4a	2.4965225e-09
69	0x31d39da3	6.1588294e-09
70	0x2e4ad849	4.6121582e-11
71	0x2fb08486	3.2108377e-10
72	0x3185aeb1	3.8906696e-09
73	0x324f4f69	1.2067042e-08
74	0x30ad3d93	1.2604907e-09
75	0x3079c343	9.0863156e-10
76	0x3138f260	2.6913298e-09
77	0x31c754c2	5.801298e-09
78	0x3222e637	9.481986e-09
79	0x2fad9099	3.157126e-10
80	0x309bd46b	1.1338107e-09
81	0x313aaee8	2.7165985e-09
82	0x2f7fb77a	2.3257299e-10
83	0x300e4da8	5.1769655e-10
84	0x2e109fbd	3.2883685e-11
85	0x2f4c14f7	1.856114e-10
86	0x2ef62f4b	1.1195186e-10
87	0x330d81d9	3.2947217e-08
88	0x30c1f67f	1.4112657e-09
89	0x30e5d516	1.6722506e-09
90	0x31205ded	2.3336455e-09
91	0x2eace004	7.8614476e-11
92	0x30e9fc55	1.7024698e-09
93	0x2f8cc92d	2.5608796e-10
94	0x3234c9cf	1.0523265e-08
95	0x30c0c9a5	1.4027149e-09
96	0x32b5fc31	2.1185857e-08
97	0x321a00c7	8.9641565e-09
98	0x31b5fb27	5.296346e-09
99	0x2fb5e9e7	3.3089906e-10
100	0x2f2f1c8a	1.5926296e-10
101	0x2e7db45d	5.7685735e-11
102	0x32126f9c	8.5236955e-09
103	0x2e9b1dbd	7.0538665e-11
104	0x31452fb9	2.86944e-09
105	0x2d9ffabb	1.8187554e-11
106	0x30860c9a	9.753365e-10
107	0x32738d05	1.4176526e-08
108	0x2f8e71be	2.5910468e-10
109	0x30bc58ec	1.3704073e-09
110	0x2fd7d368	3.9258485e-10
111	0x30f08fe0	1.750319e-09
112	0x2f3ea6af	1.7339617e-10
113	0x30872dfb	9.835611e-10
114	0x30a32173	1.1869318e-09
115	0x2e4fe235	4.7267263e-11
116	0x2f837de2	2.3918206e-10
117	0x309e6912	1.1525876e-09
118	0x30ea4506	1.7045358e-09
119	0x331950a4	3.569643e-08
120	0x2e9b722d	7.0688656e-11
121	0x3091c2bb	1.0605484e-09
122	0x2ee6dafe	1.049809e-10
123	0x307badc8	9.1560226e-10
124	0x32d12f6c	2.4352367e-08
125	0x30b75648	1.3339525e-09
126	0x30b9c832	1.351742e-09
127	0x31fc458f	7.342073e-09
