mlagents-env/results/=PelletGrabberRun3/Agent Controller/checkpoint.pt (torch, 445237 bytes, 33 tensors)

network_body._body_endoder.seq_layers.0.weight f4 [128, 6]
-0.36524945 0.6034427 0.9956726 0.42537612 -0.12876858 0.57502514 -0.4485967 -0.3044188
0.30314216 0.3284351 -0.40675452 0.10130543 -0.32776755 -0.21873935 -0.10415079 -0.058980178
0.029171284 0.8552919 -0.24354213 0.15288748 0.09083686 -0.3153687 -0.9495139 -0.097591706
0.5248492 -0.118015625 0.20035823 -0.8759327 -0.11370503 -0.313085 0.18180412 -0.06263317
0.17821698 -0.45919928 0.35400674 -0.08332877 -0.194414 0.38628086 0.0646364 0.10283349
-0.1194218 0.09550884 -0.28221783 -0.3279389 -0.69115096 -0.5081559 -0.6290338 0.67132413
0.15448436 0.32188612 0.17772758 0.012732119 0.33801374 0.084078185 -0.8461112 0.64782506
-0.76189196 0.33099768 -0.25454837 -0.42663956 0.2082858 0.12851386 0.39308327 0.6138203
0.5130153 0.43191788 0.5242093 0.5739628 -0.03632971 0.023597695 -0.056816977 0.042198043
-0.010410194 0.04146171 -0.41386577 -0.382064 -0.13323456 0.14855638 -0.6178196 0.123186894
-0.109137535 -0.29218584 0.06242386 0.5485523 0.032955017 -0.28130734 -0.43089426 -0.48608595
-0.13186711 -0.22311264 -0.7546886 -0.6374207 0.591714 -0.23259123 -0.44349414 -0.18416631
0.20299494 -0.4248747 0.14864728 0.39336166 -0.41271237 -0.6691664 -0.0035579111 -0.19395907
-0.0065091583 -0.23814784 0.039924387 -0.3824483 0.8831043 0.94106925 0.31187254 0.22264615
-0.36355698 0.28373322 -0.3995822 0.30449557 -0.36118877 -0.048377417 -0.8628623 0.019773746
-0.039712653 0.4319705 -0.3224289 -0.27722242 0.12440273 0.08272015 0.84095955 -0.3298155
-0.026356513 -0.21159185 0.61646986 0.10274577 -0.44203702 0.027073171 0.07342293 0.6002792
0.5665018 0.9454764 -0.22546797 0.76658106 -0.04658903 -0.21847366 0.07577535 0.19371563
0.7838868 -0.5142576 -0.59635997 0.07843071 0.0962153 0.12446991 0.37516624 0.44349626
0.10853273 0.022119053 -0.66471815 -0.018212605 0.048236452 -0.19259444 -0.15003873 -0.27592543
-0.080623955 0.20615338 0.49072158 0.23666412 0.08318666 0.15950614 0.42025957 0.16953488
-0.9383281 0.022489049 -0.9756014 -0.009046569 -0.0123187555 -0.77116764 -0.84457725 -0.767476
-0.06707047 0.28710154 -0.19301361 -0.021597406 0.2971959 0.54737717 0.77908015 -0.17545703
-0.18024577 -0.058616653 0.83246034 -0.013826059 -0.00680931 0.39363807 0.80871314 1.6458583
-0.24021116 -0.52524096 -0.48605436 0.3158821 -0.15018936 0.26446548 0.43788874 0.15205336
0.36137506 0.20439148 0.059941247 -0.6196545 0.79933864 0.26835856 0.7760585 0.24068506
-0.118004 0.7740812 0.55557865 0.05591401 0.5608181 -0.3157767 0.55232406 0.25390998
-0.7312345 -0.1306627 0.7706159 0.5698183 -0.42468634 -0.20549141 -0.49485272 0.66220814
-0.0914671 -0.59929603 0.643205 -0.08102371 0.10754963 0.75922245 -0.276654 0.41249117
-0.13872583 -0.39073652 0.7776649 0.46611238 -0.5514616 0.01662422 0.021160882 0.096964985
-0.16925015 -0.40835994 0.02374678 -0.16765435 -0.48818442 0.24172464 0.36817694 0.16184111
0.40285388 -0.1546893 0.20139237 -0.0019058231 -0.2677136 0.2727191 -0.27044302 0.23059186
00000000: fa01 bbbe 397b 1a3f 66e4 7e3f e6ca d93e
00000010: e9db 03be d934 133f 77ae e5be c8dc 9bbe
00000020: 7335 9b3e a528 a83e 2142 d0be 3979 cf3d
00000030: 26d1 a7be 35fd 5fbe 024d d5bd 3395 71bd
00000040: 9ef8 ee3c 69f4 5a3f 1c63 79be 898e 1c3e
00000050: ad08 ba3d 0278 a1be 5813 73bf 29de c7bd
00000060: 845c 063f 2db2 f1bd b52a 4d3e 203d 60bf
00000070: 2fde e8bd ad4c a0be dc2a 3a3e d245 80bd
00000080: 837e 363e 2b1c ebbe 5f40 b53e 46a8 aabd
00000090: 7714 47be 9bc6 c53e 1760 843d 5d9a d23d
000000a0: 6b93 f4bd 249a c33d db7e 90be 9ce7 a7be
000000b0: 45ef 30bf 8116 02bf 5c08 21bf e6db 2b3f
000000c0: 2631 1e3e 42ce a43e 38fe 353e 619a 503c
000000d0: 2310 ad3e 2f31 ac3d be9a 58bf ddd7 253f
000000e0: 5a0b 43bf 8778 a93e 2a54 82be 8070 dabe
000000f0: df48 553e 2399 033e 3642 c93e 5423 1d3f
00000100: f854 033f 5724 dd3e 9532 063f 3aef 123f
00000110: 76ce 14bd f44f c13c ebb8 68bd dbd7 2c3d
00000120: 858f 2abc c1d3 293d 37e6 d3be e59d c3be
00000130: a46e 08be 2a1f 183e 6d29 1ebf 6949 fc3d
00000140: 8083 dfbd 6299 95be 29b0 7f3d ec6d 0c3f
00000150: d7fb 063d 8407 90be 2c9e dcbe 42e0 f8be
00000160: 2c08 07be a477 64be 4633 41bf 012e 23bf
00000170: 927a 173f 652c 6ebe aa11 e3be 1896 3cbe
00000180: e8dd 4f3e 2d89 d9be fe36 183e b366 c93e
00000190: 094f d3be 7d4e 2bbf d82b 69bb 359d 46be
000001a0: c74a d5bb 07dd 73be c187 233d 43d0 c3be
000001b0: 2013 623f eae9 703f c2ad 9f3e 5afd 633e
000001c0: 2424 babe 7b45 913e 0a96 ccbe d8e6 9b3e
000001d0: bced b8be 6627 46bd 8be4 5cbf 8dfc a13c
000001e0: bca9 22bd 3d2b dd3e 6715 a5be 19f0 8dbe
000001f0: dcc6 fe3d 2f69 a93d 2049 573f 94dd a8be
00000200: 9de9 d7bc 89ab 58be f8d0 1d3f 606c d23d
00000210: ad52 e2be 8ec8 dd3c c35e 963d e6ab 193f
00000220: 4306 113f be0a 723f 13e1 66be a83e 443f
00000230: 24d4 3ebd 8fb7 5fbe 1b30 9b3d 645d 463e
00000240: ceac 483f 63a6 03bf 0cab 18bf 48a0 a03d
00000250: 870c c53d 15ea fe3d ca15 c03e f111 e33e
00000260: 6846 de3d 0433 b53c f82a 2abf 9a32 95bc
00000270: 9693 453d 7a37 45be c1a3 19be 1946 8dbe
00000280: 2c1e a5bd df19 533e dc3f fb3e 1458 723e
00000290: c55d aa3d 9455 233e 432c d73e 8d9a 2d3e
000002a0: 4536 70bf f43a b83c 03c1 79bf 0f38 14bc
000002b0: 9bd4 49bc 3e6b 45bf 3736 58bf 4f79 44bf
000002c0: 3e5c 89bd f9fe 923e 5ca5 45be 0bed b0bc
000002d0: 102a 983e e920 0c3f cc71 473f 02ab 33be
000002e0: 5992 38be 0418 70bd 1f1c 553f b286 62bc
000002f0: a220 dfbb ee8a c93e d307 4f3f 7cab d23f
00000300: eaf9 75be 3176 06bf 1edc f8be 4cbb a13e
00000310: 3dcb 19be 0568 873e f432 e03e e0b3 1b3e
00000320: 2706 b93e 004c 513e f484 753d ada1 1ebf
00000330: 75a1 4c3f 4b66 893e c5ab 463f 2576 763e
00000340: 15ac f1bd 2f2a 463f 673a 0e3f 1706 653d
00000350: c691 0f3f 7cad a1be 1c65 0d3f 7d00 823e
00000360: 2f32 3bbf 71cc 05be 1547 453f 9ddf 113f
00000370: 7d70 d9be 576c 52be 565d fdbe 7986 293f
00000380: 1a53 bbbd 776b 19bf 15a9 243f c2ef a5bd
00000390: fb42 dc3d 675c 423f 98a5 8dbe 0b32 d33e
000003a0: 250e 0ebe 9e0e c8be 0c15 473f 48a6 ee3e
000003b0: 962c 0dbf 842f 883c 9659 ad3c 9495 c63d
000003c0: e94f 2dbe 8e14 d1be 9b88 c23c 95ad 2bbe
000003d0: 4ff3 f9be aa86 773e b081 bc3e adb9 253e
000003e0: dd42 ce3e df66 1ebe cd39 4e3e d0cc f9ba
000003f0: c211 89be d6a1 8b3e 8277 8abe 4620 6c3e

network_body._body_endoder.seq_layers.0.bias f4 [128]
0.0016068044 -0.0015666008 0.00029495967 0.0043127052 -0.0025337182 0.0005307023 0.0068459623 -0.001687433
0.00084751565 0.008004928 -0.0043528816 -0.0008338707 0.004746025 0.0019302071 0.0008007152 -0.007017118
0.005696613 0.0051702727 -0.00027385692 0.0032843067 -0.0007836919 -0.005606186 0.00080562895 0.0036982335
-0.0007842616 8.216257e-05 -0.00453068 0.00435046 -0.0011267404 -0.0063771554 -0.0023685254 0.0024344209
-0.0063639474 -0.00043518384 0.0028415245 0.004049971 -0.0009388361 0.0052246675 -0.00055456127 -0.004517685
-0.0022109412 -0.00033347236 -0.00059910683 -0.0059107994 -0.0016793492 0.0013807542 0.0016003824 0.0012340684
-0.00086807157 0.003273936 0.00081073586 -0.00026602 3.1367838e-06 0.005887017 -7.3558745e-05 -0.0004908909
0.0016226101 0.003233326 -0.0031901768 -0.0018140298 -0.00018932206 -0.0023027428 5.628236e-05 -0.0009777922
-0.0041315127 -0.0010520933 -0.0007968328 0.0026597604 0.0037924412 0.0006366363 0.007060817 0.0058745705
-0.004277354 0.0025705379 0.00077865936 0.001795151 -0.00065271335 -0.006183882 0.001605454 -0.004371204
0.0011141264 0.00078901456 -0.00052228995 0.0014162576 -0.0023984145 0.00078481855 0.00033819425 -0.002316966
-0.0015855549 -0.005930774 -0.0011071273 0.0016147275 0.0074752723 0.00091499934 -0.00039829026 0.007880225
0.00262455 -0.006692366 0.0005964472 0.0013326792 -0.00014048537 -0.0005834673 0.00019541652 -0.0012568536
-0.00023147163 -0.005939135 -0.0009874349 0.00032129098 0.0016546152 0.0015187855 -0.003371489 0.005294542
-0.003925307 0.006577089 0.00041655925 -0.0042745466 -0.00051196787 -0.0038758588 -0.0037628917 0.00038523806
0.00094209175 -0.0011611207 -0.002983883 -1.2035939e-06 0.0008024962 -0.002174076 -0.00017623173 0.0008075423
00000000: 699b d23a 6656 cdba d1a4 9a39 9851 8d3b
00000010: bd0c 26bb d41e 0b3a 1854 e03b db2c ddba
00000020: d02b 5e3a 1a27 033c 9ea2 8ebb 1e98 5aba
00000030: 8b84 9b3b 01ff fc3a 16e7 513a daef e5bb
00000040: a7aa ba3b 646b a93b 7494 8fb9 863d 573b
00000050: ac70 4dba 19b4 b7bb d830 533a 105e 723b
00000060: e896 4dba b24e ac38 1976 94bb 4e8e 8e3b
00000070: 22af 93ba 75f7 d0bb 4339 1bbb ce8a 1f3b
00000080: a988 d0bb 6329 e4b9 df38 3a3b 9eb5 843b
00000090: 391c 76ba b033 ab3b fa5f 11ba 1709 94bb
000000a0: 70e5 10bb e7d5 aeb9 610d 1dba 61af c1bb
000000b0: 9c1d dcba 6cfa b43a ecc3 d13a 77c0 a13a
000000c0: 4c8f 63ba 888f 563b 9087 543a 9a78 8bb9
000000d0: 8981 5236 e1e7 c03b 8d43 9ab8 21af 00ba
000000e0: c3ad d43a 35e6 533b 4912 51bb bdc4 edba
000000f0: c184 46b9 9de9 16bb b910 6c38 4329 80ba
00000100: a461 87bb 65e6 89ba 8be2 50ba 604f 2e3b
00000110: 9b8a 783b f0e3 263a 6d5e e73b 787f c03b
00000120: 0c29 8cbb 7876 283b f21e 4c3a 464b eb3a
00000130: da1a 2bba 29a2 cabb 196e d23a 513c 8fbb
00000140: e107 923a dfd5 4e3a 49ea 08ba b8a1 b93a
00000150: b82e 1dbb 48bc 4d3a aa4f b139 3dd8 17bb
00000160: 65d2 cfba f056 c2bb 071d 91ba 44a5 d33a
00000170: 21f3 f43b 91dc 6f3a 9dd1 d0b9 0f1c 013c
00000180: a400 2c3b a34b dbbb e55a 1c3a 4bad ae3a
00000190: 414f 13b9 d4f3 18ba b9e8 4c39 02bd a4ba
000001a0: 31b7 72b9 139d c2bb d16c 81ba f272 a839
000001b0: acdf d83a fc11 c73a 33f4 5cbb d67d ad3b
000001c0: dd9f 80bb 9f84 d73b a365 da39 7f11 8cbb
000001d0: 9535 06ba 1f02 7ebb d99a 76bb c7f9 c939
000001e0: b5f6 763a bf30 98ba 408d 43bb 2c8b a1b5
000001f0: 9c5e 523a f17a 0ebb d8ca 38b9 3fb1 533a

network_body._body_endoder.seq_layers.2.weight f4 [128, 128]
0.053285018 0.06723265 0.036985375 -0.057649612 0.0062854732 0.09575116 -0.108792834 -0.006635643
-0.020657638 0.16373034 -0.031520884 -0.03029382 0.08893887 0.057138193 0.08645106 -0.11441242
0.13948965 -0.046390295 -0.066512644 0.08017913 -0.00082703476 -0.14777277 0.0851356 0.08507347
-0.045518916 -0.037646953 -0.13986185 -0.08481865 0.11926443 0.011365249 -0.07020538 -0.062206138
-0.01985688 -0.07008235 -0.13967192 0.062914126 -0.0650268 -0.0068370127 -0.05728391 0.12200681
0.01143519 0.09151321 -0.10855555 -0.12683967 -0.124695994 -0.08588083 0.051646225 -0.05824869
0.016990686 0.01561749 -0.110021 0.08304491 -0.015274967 0.09018222 -0.085855134 0.01340845
0.008532308 -0.008617665 -0.027047416 0.0072966893 0.07666924 -0.14514509 0.006552418 0.07105724
0.20035544 0.025448417 0.03471296 -0.13998806 -0.0018131483 0.058401678 -0.0401425 0.046184424
-0.059092063 -0.13419294 0.004525154 -0.074546635 -0.11959297 -0.09603834 -0.06963659 -0.030927323
0.14707172 0.025750497 -7.5420107e-06 -0.09302366 -0.05024676 -0.09365986 -0.056499623 -0.056094803
0.011760707 -0.034040496 0.015119799 -0.024617359 0.035827503 -0.05293504 -0.026307808 0.06859429
0.107012935 0.0040453584 0.048854366 -0.031663906 0.029803157 -0.012591388 0.00068366056 -0.07997499
0.095894516 -0.027604334 0.0800509 0.02264248 0.02079473 0.1869131 0.026310971 -0.08499784
-0.106148235 -0.10114678 0.01945421 0.006772436 -0.06543928 -0.08882406 -0.06283757 0.11142144
0.14230351 -0.08688337 -0.06639313 0.030671071 -0.032253042 -0.114988126 0.022428151 -0.043819264
-0.023220435 -0.0009304086 0.0708232 -0.013054438 -0.016588286 0.048800435 0.010598923 -0.13367522
-0.086604185 0.007985561 -0.006748256 0.06388442 -0.042184886 0.036707785 -0.03378948 -0.118127055
0.12529205 -0.10052984 0.089519255 0.04332352 0.015261763 0.13666436 0.116307944 -0.063358545
0.006337832 0.009773138 0.1818157 0.016028918 -0.036587216 0.12414368 0.02062405 0.11323176
0.022181658 -0.14720444 -0.054478448 -0.12046338 -0.21428399 0.03576424 0.018356185 -0.088038035
0.0028030719 -0.023935638 -0.011765603 -0.0191719 0.022821505 -0.10605344 0.09291929 -0.033856247
-0.09196918 0.06406601 0.0011525837 0.11570246 -0.007731725 0.1339861 -0.07743468 0.022088448
-0.01327651 -0.0043003336 -0.02192999 -0.005427404 0.006240228 -0.06726749 -0.24214944 -0.14686058
0.108814016 0.012447168 -0.28074193 0.1713312 0.05560419 0.27844366 -0.024675455 0.105606355
-0.04566353 0.07728127 -0.1097985 0.016864136 -0.010704273 -0.0155601045 -0.039744 0.04923728
-0.08843562 0.03332888 -0.012803197 -0.17238718 0.17426263 -0.019260606 0.102288395 0.04320012
0.0575569 0.003296006 -0.0007076968 -0.13124888 -0.022357546 -0.12331665 -0.059086148 -0.17010039
0.105169535 0.13746525 0.060354214 0.056933507 -0.001400703 0.0060126632 0.07896608 0.00072978553
-0.036698516 -0.04417877 -0.039983597 -0.069420576 0.08245728 0.2455328 0.059951644 0.044604566
-0.015806846 -0.052740622 0.042893603 0.0656086 0.082151175 -0.00028494513 0.13641353 -0.025746388
0.06398292 0.12963204 -0.046624787 0.022964241 0.00166937 0.13403752 -0.113080375 0.022439849
00000000: 6441 5a3d 46b1 893d fa7d 173d 0022 6cbd
00000010: 5ff6 cd3b 2f19 c43d c7ce debd cf6f d9bb
00000020: 353a a9bc eda8 273e 0b1c 01bd bf2a f8bc
00000030: 9525 b63d bd09 6a3d 410d b13d 0f51 eabd
00000040: 60d6 0e3e c003 3ebd c837 88bd f534 a43d
00000050: 5dcd 58ba bf51 17be 935b ae3d 003b ae3d
00000060: 0b72 3abd b133 1abd f237 0fbe 66b5 adbd
00000070: e940 f43d 4f35 3a3c d7c7 8fbd ddcb 7ebd
00000080: e5aa a2bc 5687 8fbd 2806 0fbe 1fd9 803d
00000090: c52c 85bd 0509 e0bb 89a2 6abd b5de f93d
000000a0: aa5a 3b3c 476b bb3d 5f52 debd 42e2 01be
000000b0: 9d60 ffbd 4ae2 afbd fe8a 533d 2e96 6ebd
000000c0: 0d30 8b3c 80e0 7f3c b152 e1bd 7313 aa3d
000000d0: db43 7abc 75b1 b83d d1d4 afbd 1eaf 5b3c
000000e0: 18cb 0b3c 1b31 0dbc 8b92 ddbc 1119 ef3b
000000f0: c304 9d3d eaa0 14be abb5 d63b 7586 913d
00000100: fa29 4d3e 3379 d03c 2d2f 0e3d 0859 0fbe
00000110: 29a7 edba 9936 6f3d 766c 24bd e12b 3d3d
00000120: 850a 72bd e069 09be be47 943b e8ab 98bd
00000130: 29ed f4bd c0af c4bd a19d 8ebd 4c5b fdbc
00000140: f899 163e b5f2 d23c 6111 fdb6 3083 bebd
00000150: 8ccf 4dbd bed0 bfbd 266c 67bd aac3 65bd
00000160: fbaf 403c 0c6e 0bbd 09b9 773c 58aa c9bc
00000170: dcbf 123d 6ad2 58bd 7983 d7bc 2a7b 8c3d
00000180: 9929 db3d ed8e 843b 841b 483d 03b2 01bd
00000190: c025 f43c 1c4c 4ebc af37 333a edc9 a3bd
000001a0: 5864 c43d 7c22 e2bc baf1 a33d b97c b93c
000001b0: b659 aa3c 2666 3f3e 1b8a d73c 5913 aebd
000001c0: 3f64 d9bd 0b26 cfbd 6f5e 9f3c 50eb dd3b
000001d0: 0705 86bd 64e9 b5bd fcb0 80bd ed30 e43d
000001e0: 03b8 113e e9ef b1bd 1ff9 87bd e641 fb3c
000001f0: c41b 04bd e57e ebbd 3ebb b73c d47b 33bd
00000200: c838 bebc aae6 73ba c10b 913d 48e2 55bc
00000210: 28e4 87bc f7e2 473d 1ba7 2d3c 28e2 08be
00000220: 895d b1bd dfd5 023c 7920 ddbb d6d5 823d
00000230: 0fca 2cbd e75a 163d d666 0abd 99ec f1bd
00000240: 8f4c 003e 97e2 cdbd df55 b73d 0174 313d
00000250: 790c 7a3c bef1 0b3e dc32 ee3d 20c2 81bd
00000260: 97ad cf3b 831f 203c e52d 3a3e 144f 833c
00000270: 7adc 15bd 0b3f fe3d c5f3 a83c 0ee6 e73d
00000280: 4fb6 b53c c3bc 16be cb24 5fbd 81b5 f6bd
00000290: 436d 5bbe 867d 123d b65f 963c 494d b4bd
000002a0: beb3 373b ac14 c4bc 84c4 40bc 630e 9dbc
000002b0: 2af4 ba3c 8c32 d9bd 784c be3d d9ac 0abd
000002c0: 565a bcbd 0a35 833d 4b12 973a 69f5 ec3d
000002d0: 695a fdbb a733 093e 1396 9ebd d5f2 b43c
000002e0: b885 59bc d0e9 8cbb 86a6 b3bc 5dd8 b1bb
000002f0: d47a cc3b 8ac3 89bd 06f6 77be 9f62 16be
00000300: e2d9 de3d 35ef 4b3c 68bd 8fbe 7271 2f3e
00000310: 38c1 633d 2b90 8e3e 2e24 cabc 2548 d83d
00000320: ae09 3bbd a445 9e3d 09de e0bd a826 8a3c
00000330: fa60 2fbc cfef 7ebc 9bca 22bd 08ad 493d
00000340: bc1d b5bd dd83 083d 80c4 51bc 4486 30be
00000350: e771 323e 6bc8 9dbc 947c d13d 9cf2 303d
00000360: c9c0 6b3d ce01 583b ba84 39ba 1b66 06be
00000370: 2c27 b7bc 718d fcbd 5104 72bd cc2e 2ebe
00000380: 2063 d73d b1c3 0c3e fb35 773d 1c33 693d
00000390: cb97 b7ba e005 c53b f8b8 a13d 144f 3f3a
000003a0: 2f51 16bd ccf4 34bd d7c5 23bd 602c 8ebd
000003b0: 5ddf a83d f36c 7b3e db8f 753d 47b3 363d
000003c0: 5c7d 81bc 8d06 58bd 34b1 2f3d cd5d 863d
000003d0: e03e a83d b064 95b9 fdaf 0b3e 17ea d2bc
000003e0: 7a09 833d 43be 043e a2f9 3ebd 811f bc3c
000003f0: c3ce da3a 2241 093e af96 e7bd c6d3 b73c

network_body._body_endoder.seq_layers.2.bias f4 [128]
0.0024944672 -0.0003965966 0.00034910964 0.0007247366 0.00047468013 0.007144224 -0.0045151897 -0.004269621
0.004735012 -0.0013870196 -0.0003843681 3.074048e-05 0.005784094 3.131038e-05 -0.0035658493 0.0013223719
0.000102248574 -0.00260224 0.00039693792 -0.0018235989 -0.006077241 0.00023496241 -5.6673085e-05 -0.0018879786
-0.0006404838 0.0012646893 0.0006580951 0.0002845687 0.0015341653 -0.0020249328 0.00472611 0.0021409616
0.0053594774 -0.0015186392 0.0013443189 0.00091324945 -0.0019317789 -0.0019616848 -0.0001876835 0.0034275453
9.19426e-05 -0.0017365827 -0.00020135293 -0.002448991 -0.0003876161 -0.004055792 0.0007953901 0.002139711
0.0019976187 0.0022929432 0.0033126841 0.00013534297 6.141853e-05 -0.00080544763 -0.00058260735 0.0018885005
-0.00038477744 -0.0018868601 -0.0014825454 0.0011297155 -0.0017459466 -0.0012419038 -0.0016826403 -0.0031658825
0.0017659445 -0.00011985562 0.00040701582 -0.0010890818 0.0021508934 0.007267868 0.0010879145 -0.0014096898
-0.0043554264 -0.00043759332 0.0004019275 -0.00022142536 0.004507553 0.0010962214 0.00011118425 0.0055040875
-0.0009094002 8.278733e-05 -0.00018601095 -0.0008835367 -0.0010962542 -0.0015057684 -0.003510909 0.00020237092
-0.0009826636 -0.002662247 0.0002733309 0.0048690448 -0.0014595018 -0.0017957909 -0.00016591494 -0.0008236586
-0.0014486094 -0.0030465713 0.0002708758 0.0029092112 0.00019429547 -0.00026983707 2.6492973e-05 0.002944161
-0.0024056633 0.00018656657 0.00024893694 -0.00183016 0.0014526319 0.0006583511 0.002325272 0.0003800009
-0.00013100241 -0.0008327809 -0.0013278348 -0.00045552477 0.007197345 -0.002451598 0.0009756892 0.00011927011
-0.00013136609 0.00052023516 9.008146e-05 0.0015570449 0.00019298452 -0.000985648 0.00032682877 0.0015965691
00000000: 377a 233b 4bee cfb9 b408 b739 40fc 3d3a
00000010: 7dde f839 181a ea3b 28f4 93bb 2de8 8bbb
00000020: 2928 9b3b a8cc b5ba 0385 c9b9 57ef 0038
00000030: 7f88 bd3b 4453 0338 06b1 69bb 7053 ad3a
00000040: 496e d638 588a 2abb 1b1c d039 d305 efba
00000050: 9823 c7bb 3e60 7639 43b4 6db8 0d76 f7ba
00000060: 24e6 27ba eec3 a53a 0484 2c3a 2a32 9539
00000070: 0c16 c93a bcb4 04bb 7cdd 9a3b 604f 0c3b
00000080: 8e9e af3b 130d c7ba db33 b03a 2267 6f3a
00000090: be33 fdba 9c8f 00bb e8cc 44b9 aba0 603b
000000a0: 4fd1 c038 0c9e e3ba 4422 53b9 407f 20bb
000000b0: f438 cbb9 73e6 84bb ba81 503a 653a 0c3b
000000c0: 7bea 023b 3445 163b 9e19 593b daea 0d39
000000d0: d2cd 8038 ad24 53ba 1eba 18ba 9087 f73a
000000e0: f4bb c9b9 8550 f7ba f851 c2ba f612 943a
000000f0: 3fd8 e4ba 60c7 a2ba 0a8c dcba b27a 4fbb
00000100: 4477 e73a ff5a fbb8 bd64 d539 85bf 8eba
00000110: 01f6 0c3b 4c27 ee3b 5a98 8e3a 57c5 b8ba
00000120: f7b7 8ebb c86c e5b9 ccb9 d239 6b2e 68b9
00000130: 18b4 933b 16af 8f3a 972b e938 a25b b43b
00000140: d064 6eba 1c9e ad38 ef0b 43b9 259d 67ba
00000150: 30b0 8fba 345d c5ba 4717 66bb 8833 5439
00000160: b8cc 80ba 1879 2ebb da4d 8f39 828c 9f3b
00000170: c14c bfba be60 ebba 74f9 2db9 cbea 57ba
00000180: 44df bdba fca8 47bb 5604 8e39 77a8 3e3b
00000190: cbbb 4b39 eb78 8db9 3a3d de37 d3f2 403b
000001a0: 55a8 1dbb 15a1 4339 c083 8239 fbe1 efba
000001b0: 3d66 be3a 3295 2c3a 9763 183b dc3a c739
000001c0: b15d 09b9 fb4e 5aba be0a aeba 80d3 eeb9
000001d0: b5d7 eb3b fdaa 20bb 65c5 7f3a a720 fa38
000001e0: 51bf 09b9 6460 083a 1eea bc38 c215 cc3a
000001f0: e35b 4a39 dc30 81ba 375a ab39 f843 d13a

action_model._continuous_distribution.mu.weight f4 [1, 128]
0.022366911 0.0007061376 0.007498555 -0.0002781319 -0.00393127 -0.002884513 0.00065571617 -0.016747538
0.0013764474 -0.025322603 0.017223142 0.060214516 0.023715325 -0.009536413 -0.0065420936 0.028833168
0.03259777 0.00411802 -0.024100246 -0.016266366 0.008638968 0.012159005 0.01329196 -0.0011764383
0.0043867924 0.032705247 -0.022557162 0.02397425 0.026336001 -0.021729045 0.0076942616 0.010921156
0.0061778254 0.010738236 0.022744158 0.030024996 -0.010290314 -0.00433825 -0.026295194 0.017950663
0.007982021 -0.0113861235 -0.008374741 0.0010790176 -0.014770169 -0.00036035033 -0.040794 0.035268746
-0.00095624535 -0.018062787 -0.016836597 0.01726789 -0.017428959 -0.0035219442 0.0075013693 0.014146614
-0.0050005536 0.00017330301 -0.008972326 0.0023343244 -0.0063381796 -0.0058944346 -0.0029473442 -0.011840985
5.7944086e-05 -0.004809909 0.0091901 -0.023867425 -0.023838935 -0.011952574 0.011802297 0.0019342924
0.0004498876 0.002878952 -0.03799221 -0.022105835 0.012450627 0.01655292 -0.031536393 0.0057010083
0.0070094243 0.01845658 -0.02352138 0.03055635 -0.011573124 -0.0070403153 0.01333681 0.023708845
-0.0063365386 0.0018678416 0.007575684 0.017985862 4.1069334e-06 0.009461866 0.0090152435 -0.018102158
-0.005135166 -0.0014382036 0.038336776 -0.0053028315 -0.011287242 -0.008807473 0.012842611 -0.012975782
-0.0016365838 -0.023238707 0.02817505 -0.039652377 -0.040684544 0.003194768 -0.018790752 0.020220695
-0.017078472 -0.0034465205 0.009143749 -0.008875061 -0.014710146 -0.019386023 0.004895256 -0.00960864
0.009983172 0.033721656 0.021905396 0.015768226 0.016311748 0.020976758 0.024080236 0.025797963
00000000: d03a b73c 181c 393a 70b6 f53b 3bd2 91b9
00000010: e2d1 80bb 190a 3dbb 5ee4 2b3a 2232 89bc
00000020: e969 b43a 5971 cfbc 8c17 8d3c 7fa3 763d
00000030: a446 c23c 9d3e 1cbc 0f5f d6bb 8933 ec3c
00000040: 3d85 053d 75f0 863b e16d c5bc 0b41 85bc
00000050: 758a 0d3c 9036 473c 85c6 593c b832 9aba
00000060: 15bf 8f3b f0f5 053d ccc9 b8bc a565 c43c
00000070: 99be d73c 1c01 b2bc 2520 fc3b a6ee 323c
00000080: 5b6f ca3b 6def 2f3c f551 ba3c fbf6 f53c
00000090: b598 28bc e127 8ebb 0569 d7bc 450d 933c
000000a0: 06c7 023c dd8c 3abc 3636 09bc d36d 8d3a
000000b0: 94fe 71bc 67ed bcb9 9c17 27bd f675 103d
000000c0: 8aac 7aba 69f8 93bc e7ec 89bc 6475 8d3c
000000d0: 2dc7 8ebc 6bd0 66bb 0cce f53b 33c7 673c
000000e0: afdb a3bb acb8 3539 aa00 13bc 77fb 183b
000000f0: 81b0 cfbb 1a26 c1bb 3b28 41bb b100 42bc
00000100: fd08 7338 719c 9dbb 1392 163c 9e85 c3bc
00000110: df49 c3bc bbd4 43bc 6c5e 413c 1588 fd3a
00000120: e4de eb39 cdac 3c3b b89d 1bbd 4c17 b5bc
00000130: b7fd 4b3c fd99 873c 4e2c 01bd 86cf ba3b
00000140: 50af e53b 4132 973c e9af c0bc 4f51 fa3c
00000150: 339d 3dbc 72b2 e6bb a382 5a3c 0d39 c23c
00000160: bda2 cfbb 5dd2 f43a 723d f83b 1657 933c
00000170: 4ace 8936 f105 1b3c acb4 133c fa4a 94bc
00000180: e544 a8bb 1b82 bcba 0607 1d3d 60c3 adbb
00000190: 20ee 38bc 384d 10bc d169 523c 6098 54bc
000001a0: a482 d6ba 1a5f bebc 5dcf e63c 886a 22bd
000001b0: d6a4 26bd 505f 513b 10ef 99bc dfa5 a53c
000001c0: 27e8 8bbc 05df 61bb aacf 153c b468 11bc
000001d0: d302 71bc 70cf 9ebc 6268 a03b 8f6d 1dbc
000001e0: 7590 233c b81f 0a3d f272 b33c 5e2c 813c
000001f0: 37a0 853c 73d7 ab3c ea43 c53c 4056 d33c

action_model._discrete_distribution.branches.0.weight f4 [1, 128]
0.00022241373 -0.0048568225 0.0031797823 0.002181634 -0.015222862 -0.0006799043 -0.00047436092 -0.0029184006
0.003518872 -0.011905086 -0.011105695 -0.0075473576 0.0020991089 -0.009465573 -0.0040190406 -0.022446131
0.0136966575 0.0024460673 -0.014267302 -0.009376773 -0.008301794 0.014519441 0.0077792923 -0.026303371
-0.008342133 0.004344189 0.00048350138 -0.0052995314 0.006365581 -0.0019035902 -0.007212106 -0.004438858
-0.01180605 0.011990184 0.0033153945 -0.00587134 0.026430994 0.0041876775 0.01826237 0.008980155
0.0048739696 -0.009869311 -0.009971079 -0.0061125723 -0.0033880435 -0.010076912 0.0055202846 -0.00030801803
0.004550956 0.01165361 0.0064844214 0.011665509 0.007987729 -0.0048751207 0.003829331 0.0020813548
-0.0067872466 -0.000828383 0.0070648626 0.0024416079 -0.012138234 0.0037605173 0.0021409108 0.013996812
-0.004880237 -0.0078061344 -0.017238883 -0.012000252 0.0075692246 -0.0061616264 -0.007612284 0.008040254
0.0015524215 -0.0013954435 -0.000589566 -0.0057409974 0.006208989 -0.006064942 0.023882192 0.0077215084
-0.013285338 0.00093492906 -0.0074689053 -0.0034302361 0.0018582729 -0.0028555412 6.76792e-05 0.004500208
-0.0034458642 -0.0028601023 0.0068031005 -0.015384756 0.002892084 0.0007665721 -0.005596859 0.0029806565
-0.006563416 -0.011628978 -0.02017865 -0.0012185242 -0.005620889 0.0065878383 0.0092139235 0.00537491
0.0023365328 0.0058608213 -0.014502001 0.0041031097 0.0021135618 0.018181242 -0.0070871315 -0.0042221686
-0.014457067 0.0069894358 -0.0014486467 0.0016125161 0.00042015422 0.010198809 -0.010620392 -0.0076182084
-0.003048946 -0.018357841 0.0018173859 -0.0026038024 -0.0057590576 0.008134144 -0.0022769186 0.0014374326
00000000: bb37 6939 fb25 9fbb e563 503b bff9 0e3b
00000010: 5069 79bc 9b3b 32ba a5b3 f8b9 a342 3fbb
00000020: e09c 663b 8d0d 43bc a9f4 35bc d34f f7bb
00000030: 3491 093b 7e15 1bbc 28b2 83bb f3e0 b7bc
00000040: f267 603c 334e 203b 67c1 69bc 09a1 19bc
00000050: 3f04 08bc f3e2 6d3c 6fe9 fe3b 2b7a d7bc
00000060: 71ad 08bc b359 8e3b 757e fd39 b1a7 adbb
00000070: 5d96 d03b e381 f9ba 8853 ecbb d773 91bb
00000080: 2a6e 41bc 7a72 443c 1747 593b 5f64 c0bb
00000090: d085 d83c c938 893b f79a 953c 8021 133c
000000a0: d2b5 9f3b e4b2 21bc bd5d 23bc f94b c8bb
000000b0: f009 5ebb a219 25bc 81e3 b43b 7b7d a1b9
000000c0: 3020 953b c8ee 3e3c 457b d43b b120 3f3c
000000d0: f7de 023c 7abf 9fbb 83f5 7a3b 5767 083b
000000e0: 8d67 debb d827 59ba 5d80 e73b 6203 203b
000000f0: 72df 46bc 0373 763b 864e 0c3b e252 653c
00000100: 65ea 9fbb 9aca ffbb 8f38 8dbc b49c 44bc
00000110: 4207 f83b 78e7 c9bb 7770 f9bb 45bb 033c
00000120: 9f7a cb3a 50e7 b6ba 1b8d 1aba fa1e bcbb
00000130: c674 cb3b 6cbc c6bb 96a4 c33c b504 fd3b
00000140: bfaa 59bc 0716 753a b8bd f4bb d0cd 60bb
00000150: 4b91 f33a 0824 3bbb feee 8d38 7b76 933b
00000160: 02d4 61bb 8e70 3bbb 8bec de3b 5810 7cbc
00000170: 1e89 3d3b c8f3 483a db65 b7bb 1e57 433b
00000180: ed11 d7bb 7887 3ebc b24d a5bc e3b6 9fba
00000190: 6f2f b8bb cbde d73b fff5 163c 0320 b03b
000001a0: 8420 193b 220c c03b cd99 6dbc 6173 863b
000001b0: af83 0a3b d4f0 943c 2b3b e8bb 1e5a 8abb
000001c0: 55dd 6cbc a307 e53b 84e0 bdba 105b d33a
000001d0: 2548 dc39 e818 273c 2701 2ebc 2aa2 f9bb
000001e0: d3d0 47bb 2f63 96bc 5a35 ee3a 8ea4 2abb
000001f0: 7ab6 bcbb 1345 053c 5b38 15bb 3c68 bc3a

exp_avg f4 [128, 6]
-8.377753e-05 -1.612379e-05 -2.2770545e-10 -0.00024392597 -1.9347879e-05 0.0 -7.91077e-05 -3.0315994e-06
-4.844682e-10 -0.00012467286 -3.6379413e-06 0.0 5.397144e-05 -4.8165293e-06 4.704048e-10 7.988858e-06
-5.7797492e-06 0.0 -2.7225184e-05 2.0086934e-06 -1.9085371e-10 -9.503926e-06 2.410726e-06 0.0
-2.981042e-06 4.9789435e-07 -6.950841e-11 4.4145895e-06 5.9734117e-07 0.0 -2.9031291e-05 4.2323327e-06
6.1564955e-11 -8.588949e-05 5.0794197e-06 0.0 1.1178574e-06 -2.589213e-06 7.175805e-11 -1.3143869e-05
-3.1068332e-06 0.0 -6.944266e-06 -5.235997e-07 -2.8044495e-10 2.1650816e-05 -6.288403e-07 0.0
6.959684e-05 9.0139365e-06 4.6011894e-10 0.00010234181 1.0816633e-05 0.0 3.4433879e-06 -9.043556e-06
2.2299743e-10 -6.836879e-05 -1.0851839e-05 0.0 1.9736375e-05 2.8367374e-06 7.168086e-11 4.6444333e-05
3.4039742e-06 0.0 -4.5861634e-05 -8.029889e-08 -4.6452023e-10 2.3665641e-05 -9.651959e-08 0.0
-3.3748838e-05 -2.3017228e-06 -4.3830006e-10 7.7444834e-05 -2.7622114e-06 0.0 1.0549209e-05 2.0371286e-07
4.1470154e-11 2.355554e-05 2.4450742e-07 0.0 -1.0366582e-05 -3.5137411e-06 -3.2979441e-10 9.934288e-05
-4.2172533e-06 0.0 4.894747e-05 1.6580132e-06 3.7432626e-10 1.1040862e-05 1.989384e-06 0.0
2.4484634e-05 1.3546456e-06 1.5809397e-10 2.201423e-05 1.6256987e-06 0.0 2.0832333e-06 -4.481971e-06
5.555572e-13 3.242235e-05 -5.3782524e-06 0.0 0.000115948016 2.191663e-05 3.111801e-10 0.0003508746
2.6299174e-05 0.0 -2.119325e-06 -5.2647204e-07 -7.948288e-12 -6.7039355e-06 -6.316903e-07 0.0
9.1568345e-06 -4.1083017e-06 -1.2141091e-10 3.934652e-05 -4.93049e-06 0.0 -4.7988855e-05 4.400684e-06
-4.380486e-10 -3.6128782e-05 5.280357e-06 0.0 -0.00015325143 -3.07584e-05 -3.9222284e-10 -0.00045808035
-3.6908885e-05 0.0 -7.379673e-05 2.0377972e-06 -5.6985344e-10 -3.4601217e-05 2.4458054e-06 0.0
0.0001939253 2.7602271e-05 9.989197e-10 0.00029666093 3.3122193e-05 0.0 0.00012507089 1.3383741e-05
8.440116e-10 0.00019687848 1.6060254e-05 0.0 8.73553e-05 1.3048616e-06 7.845645e-10 -2.5559468e-05
1.5658522e-06 0.0 2.4505258e-05 5.2023793e-06 -5.1485018e-11 0.00012092053 6.242768e-06 0.0
-4.6253932e-05 4.345367e-06 -4.0320827e-10 -6.934426e-06 5.2141227e-06 0.0 4.2527397e-05 -2.4019943e-07
2.6429414e-10 7.9733836e-05 -2.884636e-07 0.0 -5.7161476e-05 -9.524782e-07 -5.301477e-10 5.596165e-06
-1.1433185e-06 0.0 -0.0003136251 -3.497675e-05 -2.289157e-09 -0.00025486015 -4.1970874e-05 0.0
-1.987602e-05 2.0575728e-06 -2.138445e-10 7.1066675e-06 2.4688402e-06 0.0 0.00021750304 2.6548569e-05
1.3242887e-09 0.00029208962 3.185767e-05 0.0 -7.241471e-05 -8.2696515e-06 -6.1438976e-10 -6.65298e-05
-9.923089e-06 0.0 -1.8370813e-05 3.5138717e-06 -3.5638614e-10 0.0001159413 4.216574e-06 0.0
-2.4926499e-06 -1.5716146e-06 2.5286414e-11 -2.2416556e-05 -1.885852e-06 0.0 -6.0594477e-05 -1.2521733e-07
-4.361111e-10 -1.9740475e-05 -1.4962099e-07 0.0 -3.596529e-05 -5.614101e-06 -1.4722036e-10 -8.9107125e-05
-6.7367628e-06 0.0 7.805984e-05 6.5916374e-06 5.999491e-10 2.2717211e-05 7.909941e-06 0.0
3.8670758e-05 -2.3336945e-06 2.4272623e-10 2.3956021e-05 -2.8006687e-06 0.0 -4.3537428e-05 -5.979019e-06
-2.0320791e-10 -3.008362e-05 -7.174651e-06 0.0 -6.078652e-05 3.43205e-06 -5.249145e-10 -1.02539725e-05
00000000: b8b1 afb8 9341 87b7 635d 7aaf 61c6 7fb9
00000010: 414d a2b7 0000 0000 9fe6 a5b8 7b72 4bb6
00000020: 6b2b 05b0 9eba 02b9 5b23 74b6 0000 0000
00000030: 645f 6238 ac9d a1b6 cc4d 0130 e207 0637
00000040: abef c1b6 0000 0000 a361 e4b7 17cd 0636
00000050: 8bd8 51af 0d73 1fb7 f5c7 2136 0000 0000
00000060: e90d 48b6 0aa7 0535 c2d9 98ae 0921 9436
00000070: f958 2035 0000 0000 3988 f3b7 7603 8e36
00000080: fd61 872e 921f b4b8 e26f aa36 0000 0000
00000090: 4a09 9635 57c2 2db6 31cc 9d2e 7d84 5cb7
000000a0: fd7e 50b6 0000 0000 ca02 e9b6 7f8d 0cb5
000000b0: 1e2d 9aaf c69e b537 94cd 28b5 0000 0000
000000c0: 85f4 9138 903a 1737 fcf3 fc2f 57a0 d638
000000d0: 1679 3537 0000 0000 f414 6736 c7b9 17b7
000000e0: 3230 752f 3761 8fb8 4b10 36b7 0000 0000
000000f0: 8b8f a537 c75e 3e36 bda0 9d2e 39cd 4238
00000100: d56f 6436 0000 0000 8e5b 40b8 c870 acb3
00000110: 695f ffaf 9485 c637 3546 cfb3 0000 0000
00000120: 8a8d 0db8 4c77 1ab6 40f5 f0af e169 a238
00000130: 6e5e 39b6 0000 0000 82fc 3037 2abc 5a34
00000140: 3e63 362e 2399 c537 d844 8334 0000 0000
00000150: 21ec 2db7 9dcd 6bb6 704e b5af 4d56 d038
00000160: ee81 8db6 0000 0000 f24c 4d38 e688 de35
00000170: bdc9 cd2f 243c 3937 5b81 0536 0000 0000
00000180: 5a64 cd37 45d1 b535 7fd3 2d2f 33ab b837
00000190: 9532 da35 0000 0000 adcd 0b36 d663 96b6
000001a0: 1d60 1c2b 3cfd 0738 d676 b4b6 0000 0000
000001b0: 1e29 f338 9bd9 b737 b512 ab2f 97f5 b739
000001c0: 0c9d dc37 0000 0000 ba39 0eb6 e252 0db5
000001d0: e8d3 0bad 5ef2 e0b6 6d91 29b5 0000 0000
000001e0: 4ea0 1937 0bda 89b6 227e 05af 0108 2538
000001f0: 9670 a5b6 0000 0000 a447 49b8 96a9 9336
00000200: dcd1 f0af fc88 17b8 ec2d b136 0000 0000
00000210: 1eb2 20b9 9502 01b8 75a0 d7af 812a f0b9
00000220: 9dce 1ab8 0000 0000 51c3 9ab8 17c1 0836
00000230: dfa3 1cb0 c620 11b8 9e22 2436 0000 0000
00000240: 6d58 4b39 6d8b e737 5d4a 8930 2889 9b39
00000250: afec 0a38 0000 0000 7625 0339 bb8a 6037
00000260: 0900 6830 2a71 4e39 22b9 8637 0000 0000
00000270: 8532 b738 b422 af35 d2a8 5730 8a68 d6b7
00000280: 462a d235 0000 0000 a490 cd37 1990 ae36
00000290: fa6e 62ae b796 fd38 f878 d136 0000 0000
000002a0: c800 42b8 6bce 9136 85aa ddaf 44ae e8b6
000002b0: f9f4 ae36 0000 0000 725f 3238 c2f4 80b4
000002c0: 184c 912f c736 a738 23de 9ab4 0000 0000
000002d0: abc0 6fb8 cead 7fb5 d4b9 11b0 b1c6 bb36
000002e0: 2074 99b5 0000 0000 0c6e a4b9 00b4 12b8
000002f0: 474f 1db1 c09e 85b9 e209 30b8 0000 0000
00000300: 6ebb a6b7 d514 0a36 e01f 6baf cf75 ee36
00000310: 5aae 2536 0000 0000 8711 6439 9eb4 de37
00000320: 4402 b630 9b23 9939 ea9e 0538 0000 0000
00000330: 5add 97b8 e2bd 0ab7 d6e1 28b0 ea85 8bb8
00000340: 587b 26b7 0000 0000 051b 9ab7 dbcf 6b36
00000350: e4ec c3af 8325 f338 187c 8d36 0000 0000
00000360: 6647 27b6 44f0 d2b5 f16b de2d 300b bcb7
00000370: 621d fdb5 0000 0000 d326 7eb8 7a73 06b4
00000380: 2ec1 efaf 5998 a5b7 81a7 20b4 0000 0000
00000390: 70d9 16b8 c360 bcb6 d9de 21af 06df bab8
000003a0: 5a0c e2b6 0000 0000 0fb4 a338 bc2d dd36
000003b0: aae9 2430 d790 be37 f0b4 0437 0000 0000
000003c0: 6932 2238 919c 1cb6 ae70 852f 2af5 c837
000003d0: 1ff3 3bb6 0000 0000 f59b 36b8 629f c8b6
000003e0: f16d 5faf 155c fcb7 c8bd f0b6 0000 0000
000003f0: 07f5 7eb8 2c52 6636 9349 10b0 7a08 2cb7

exp_avg_sq f4 [128, 6]
2.6065357e-09 1.8230736e-11 8.180517e-20 4.5475157e-09 2.6251645e-11 0.0 5.06064e-10 2.524757e-12
2.5217641e-20 8.636716e-10 3.6356263e-12 0.0 4.564217e-10 2.7351712e-12 3.3831025e-20 7.03895e-10
3.9387365e-12 0.0 3.1817407e-10 2.7601285e-12 7.490459e-20 5.6765026e-10 3.9744505e-12 0.0
8.013378e-11 3.4388163e-13 3.3777617e-20 8.241426e-11 4.9519297e-13 0.0 2.7744105e-09 1.16026164e-11
8.768202e-19 2.9665927e-09 1.6707762e-11 0.0 7.7137276e-11 7.531856e-13 1.9168012e-21 1.2203642e-10
1.0844825e-12 0.0 1.5195248e-09 5.0878143e-12 5.55104e-19 1.2958901e-09 7.326551e-12 0.0
3.388693e-09 2.1603221e-11 1.505742e-19 6.1809855e-09 3.1108283e-11 0.0 9.477009e-11 1.9364337e-12
5.5501747e-21 3.3342157e-10 2.7882076e-12 0.0 7.9450425e-11 6.0902287e-13 2.9263976e-21 1.5253693e-10
8.769801e-13 0.0 1.0439489e-09 5.4506104e-12 2.6868475e-19 2.6662004e-09 7.8487035e-12 0.0
1.1944533e-09 3.880038e-12 3.9640948e-19 7.6174345e-10 5.58736e-12 0.0 4.884724e-11 3.0971113e-13
1.8123034e-21 7.761153e-11 4.4598098e-13 0.0 5.0928817e-09 1.5503987e-11 1.7837602e-18 3.8428047e-09
2.2326294e-11 0.0 1.2790549e-10 1.4580499e-12 9.547299e-21 4.377328e-10 2.099532e-12 0.0
3.7594242e-10 2.3812326e-12 1.099341e-20 6.2102273e-10 3.4289932e-12 0.0 1.2448047e-10 1.194489e-12
1.3690385e-20 3.1057176e-10 1.7200579e-12 0.0 9.833885e-09 6.0043956e-11 4.0391537e-19 1.404442e-08
8.646258e-11 0.0 4.2826875e-12 4.1049697e-14 2.7879455e-22 8.6998585e-12 5.9102544e-14 0.0
2.0602133e-09 8.471266e-12 7.0791466e-19 2.164806e-09 1.2198686e-11 0.0 6.275844e-10 4.3479556e-12
3.5238944e-19 1.0902074e-09 6.2604887e-12 0.0 1.5393615e-08 9.8055224e-11 4.9091e-19 2.4465118e-08
1.4119764e-10 0.0 9.693367e-10 6.843721e-12 1.4653259e-19 1.6918028e-09 9.854788e-12 0.0
1.4985222e-08 9.402226e-11 4.8170103e-19 2.4853898e-08 1.3539204e-10 0.0 5.5508647e-09 3.4339285e-11
2.6496012e-19 1.06300755e-08 4.944807e-11 0.0 1.0779899e-09 3.9310777e-12 3.6307834e-19 1.1055371e-09
5.6607267e-12 0.0 1.3227155e-09 7.0826955e-12 1.6821498e-19 1.4995513e-09 1.0199112e-11 0.0
6.650609e-10 3.7809686e-12 4.5837884e-20 7.9298773e-10 5.4446014e-12 0.0 1.1022428e-10 1.0680746e-12
5.7015484e-21 2.844342e-10 1.5380181e-12 0.0 7.4922785e-10 3.273863e-12 3.4779246e-19 9.892477e-10
4.714184e-12 0.0 2.2479876e-08 1.3793044e-10 2.6852497e-18 5.0117634e-08 1.9861895e-10 0.0
7.912158e-11 8.666636e-13 7.337218e-21 2.2319571e-10 1.2479443e-12 0.0 2.2885683e-08 1.3775216e-10
8.739603e-19 4.216152e-08 1.9836278e-10 0.0 1.6846499e-09 1.0351418e-11 2.773911e-19 4.142339e-09
1.4906097e-11 0.0 3.6003203e-09 1.8668986e-11 3.819349e-19 3.10528e-09 2.6883277e-11 0.0
1.8403142e-10 1.193798e-12 7.900028e-21 2.7990532e-10 1.71915e-12 0.0 9.407071e-10 7.21691e-12
2.2277796e-19 1.8915929e-09 1.0391966e-11 0.0 2.411573e-09 1.34672135e-11 7.053505e-20 3.5912808e-09
1.9392783e-11 0.0 6.015151e-10 3.3095397e-12 1.1133335e-19 1.1349317e-09 4.7656835e-12 0.0
5.461169e-10 2.8953606e-12 9.7543994e-20 7.9684287e-10 4.169386e-12 0.0 4.5983874e-09 2.3721039e-11
1.5230137e-19 7.4369613e-09 3.4158867e-11 0.0 4.6449325e-10 2.3444233e-12 3.310909e-20 6.595297e-10
00000000: a91e 3331 f85b a02d 3128 c11f 5f40 9c31
00000010: 73e9 e62d 0000 0000 171b 0b30 fba9 312c
00000020: 842c ee1e 7c67 6d30 9fd5 7f2c 0000 0000
00000030: a5eb fa2f 7778 402c 33c3 1f1f 357c 4130
00000040: fc94 8a2c 0000 0000 05eb ae2f 0e3a 422c
00000050: 0cdd b01f d608 1c30 abd6 8b2c 0000 0000
00000060: 4f37 b02e 9196 c12a a282 1f1f 1b3b b52e
00000070: 6a62 0b2b 0000 0000 f2a7 3e31 8a1d 4c2d
00000080: 5565 8121 dadc 4b31 89f6 922d 0000 0000
00000090: 6da0 a92e be00 542b 54d4 101d 332e 062f
000000a0: 9aa0 982b 0000 0000 87d7 d030 f502 b32c
000000b0: 79d6 2321 141b b230 dae3 002d 0000 0000
000000c0: 85de 6831 2106 be2d 42c4 3120 8660 d431
000000d0: d0d0 082e 0000 0000 d166 d02e b043 082c
000000e0: ffad d11d ea4c b72f e233 442c 0000 0000
000000f0: 9db6 ae2e b96c 2b2b c31c 5d1d 54b7 272f
00000100: 13d9 762b 0000 0000 b07a 8f30 bcc6 bf2c
00000110: 7e9a 9e20 4b38 3731 6b13 0a2d 0000 0000
00000120: 172a a430 4684 882c b5ff e920 ee62 5130
00000130: 7796 c42c 0000 0000 1ad5 562e 145a ae2a
00000140: 0cef 081d 68ab aa2e a210 fb2a 0000 0000
00000150: 76fd ae31 e05f 882d 479e 0322 ab09 8431
00000160: 5862 c42d 0000 0000 32a2 0c2f c933 cd2b
00000170: e857 341e 6aa5 f02f cebd 132c 0000 0000
00000180: 31ad ce2f 7990 272c dea8 4f1e 97b4 2a30
00000190: 404b 712c 0000 0000 23de 082f 001c a82b
000001a0: 524d 811e 17bd aa2f 9e13 f22b 0000 0000
000001b0: e2f1 2832 be09 842e f76d ee20 0348 7132
000001c0: 1b22 be2e 0000 0000 05af 962c 14df 3829
000001d0: 5e85 a81b ae0c 192d 4c16 8529 0000 0000
000001e0: a893 0d31 3107 152d 85f0 5021 abc3 1431
000001f0: ff99 562d 0000 0000 5382 2c30 e7fa 982c
00000200: 9603 d020 43d6 9530 7845 dc2c 0000 0000
00000210: eb3a 8432 2fa0 d72e 1ce4 1021 5d27 d232
00000220: 9a3f 1b2f 0000 0000 8139 8530 c2ca f02c
00000230: c2fe 2c20 0585 e830 055e 2d2d 0000 0000
00000240: dab8 8032 d4c1 ce2e 4d2c 0e21 4d7e d532
00000250: 79dd 142f 0000 0000 ecb9 be31 9906 172e
00000260: a467 9c20 919f 3632 9479 592e 0000 0000
00000270: 6628 9430 0050 8a2c d952 d620 a1f1 9730
00000280: 4b2b c72c 0000 0000 eaca b530 4033 f92c
00000290: dc97 4620 c518 ce30 b86c 332d 0000 0000
000002a0: 80cf 3630 f007 852c 9a76 581f 8df9 5930
000002b0: 9c90 bf2c 0000 0000 c162 f22e 7151 962b
000002c0: fe65 d71d 8e5e 9c2f f174 d82b 0000 0000
000002d0: 39f2 4d30 ac60 662c e94c cd20 0ff6 8730
000002e0: 98dd a52c 0000 0000 c519 c132 f8a7 172f
000002f0: ef22 4622 ec40 5733 4462 5a2f 0000 0000
00000300: 7dfd ad2e b2f1 732b 9c98 0a1e 0268 752f
00000310: efa1 af2b 0000 0000 2696 c432 c975 172f
00000320: 49f9 8021 1515 3533 291a 5a2f 0000 0000
00000330: 5989 e730 a41a 362d 28be a320 6654 8e31
00000340: 8c1d 832d 0000 0000 8169 7731 d236 a42d
00000350: 5f74 e120 aa64 5531 c277 ec2d 0000 0000
00000360: 3d58 4a2f 1b03 a82b 313a 151e 2ce1 992f
00000370: e8f2 f12b 0000 0000 304a 8130 25ec fd2c
00000380: 4181 8320 41fd 0131 41d1 362d 0000 0000
00000390: d7b8 2531 f0ea 6c2d d28b a61f 7bca 7631
000003a0: aa94 aa2d 0000 0000 dd57 2530 5ee3 682c
000003b0: 7170 0320 dcfb 9b30 76ad a72c 0000 0000
000003c0: 8f1d 1630 2ebe 4b2c ba51 e61f d508 5b30
000003d0: 7eb2 922c 0000 0000 d8ff 9d31 08a7 d02d
000003e0: 44ce 3320 3488 ff31 773b 162e 0000 0000
000003f0: 9d5b ff2f 60f9 242c 6f5a 1c1f 474a 3530

exp_avg f4 [128]
-6.4492924e-05 -1.212647e-05 -1.9265834e-05 8.035747e-06 1.9911372e-06 1.6931393e-05 -1.03561115e-05 -2.0961324e-06
3.6055448e-05 -3.61728e-05 1.134658e-05 -3.2173233e-07 -9.207369e-06 8.1502475e-07 -1.4057512e-05 6.6312846e-06
5.4189964e-06 -1.7927505e-05 8.766392e-05 -2.105634e-06 -1.6434959e-05 1.7601187e-05 -0.00012302959 8.15268e-06
0.000110407294 5.353418e-05 5.2195037e-06 2.080922e-05 1.7380411e-05 -9.615476e-07 -3.811072e-06 -0.00013990291
8.229466e-06 0.00010619224 -3.3076958e-05 1.4055238e-05 -6.2861714e-06 -4.987311e-07 -2.2455883e-05 2.636647e-05
-9.33556e-06 -2.3915502e-05 1.3727533e-05 1.9869512e-05 4.1308067e-05 -1.761062e-05 -3.3277145e-05 -6.1548155e-05
6.5482404e-06 -4.4963275e-07 4.472287e-05 2.0720316e-07 5.0635594e-05 2.0267316e-07 -0.000109517074 -0.00010409161
-7.954292e-08 -2.7227665e-05 4.305659e-05 -1.8699477e-05 -5.119295e-06 3.5945908e-05 -5.6563713e-05 2.9718847e-05
1.7800044e-06 1.1028965e-05 8.018012e-05 -1.6582304e-05 9.857249e-07 2.0409785e-05 -1.5186864e-05 -7.508409e-06
5.055353e-06 -2.4053332e-05 1.4588861e-05 -1.0921796e-05 -1.0580324e-05 1.6109081e-05 3.428322e-06 -7.364136e-06
-2.0786756e-05 8.839882e-06 0.00010565273 -1.065922e-06 -8.744007e-06 3.3864315e-05 1.3458406e-05 -1.4181031e-05
-3.846254e-05 3.5489995e-06 5.04717e-05 1.9281326e-06 -1.6482882e-05 5.4899603e-05 8.053156e-05 -2.7443277e-05
7.767358e-06 7.55777e-06 4.206519e-05 -4.941111e-05 -8.707429e-05 -3.1177828e-05 1.8257504e-05 0.00012302873
-7.1882176e-05 1.8618626e-05 5.8496902e-05 7.335517e-05 5.550088e-05 -8.099852e-06 -5.421241e-06 -1.0488829e-05
-3.8634247e-05 -3.3613103e-06 2.4203531e-05 2.6993455e-05 -4.4124645e-06 5.027326e-05 5.556151e-06 3.3382596e-05
1.1224804e-06 -1.8000654e-05 5.4798835e-05 -0.00010882837 -5.043907e-05 -1.3414941e-05 8.481815e-05 3.858104e-06
00000000: 6040 87b8 cb72 4bb7 109d a1b7 45d1 0637
00000010: 7a9f 0536 e407 8e37 29bf 2db7 48ab 0cb6
00000020: 3e3a 1738 40b8 17b8 315d 3e37 8eba acb4
00000030: 5979 1ab7 13c8 5a35 8ed8 6bb7 4d82 de36
00000040: d3d4 b536 0663 96b7 35d8 b738 844e 0db6
00000050: cedd 89b7 43a6 9337 8101 01b9 7ec7 0837
00000060: 778a e738 e389 6038 3223 af36 768f ae37
00000070: 26cc 9137 860e 81b5 b8c1 7fb6 e7b2 12b9
00000080: 4a11 0a37 86b3 de38 1dbc 0ab8 cace 6b37
00000090: cded d2b6 8ae0 05b5 a45f bcb7 902d dd37
000000a0: ed9f 1cb7 269e c8b7 4e4f 6637 74ad a637
000000b0: 3342 2d38 85ba 93b7 1093 0bb8 6a13 81b8
000000c0: f5b8 db36 0e65 f1b4 d194 3b38 927b 5e34
000000d0: 8e61 5438 609e 5934 88ac e5b8 c24b dab8
000000e0: 2fd1 aab3 f766 e4b7 a997 3438 d2dc 9cb7
000000f0: 69c6 abb6 a0c4 1638 d33e 6db8 bd4c f937
00000100: 7ce8 ee35 0b09 3937 6026 a838 3a1a 8bb7
00000110: 404d 8435 ae35 ab37 16cb 7eb7 bef0 fbb6
00000120: 27a1 a936 23c6 c9b7 aec2 7437 c23c 37b7
00000130: 2582 31b7 fd21 8737 2012 6636 7219 f7b6
00000140: 385f aeb7 014f 1437 e191 dd38 cd10 8fb5
00000150: 39b3 12b7 8809 0e38 6acb 6137 10eb 6db7
00000160: d652 21b8 592b 6e36 93b1 5338 1165 0136
00000170: b844 8ab7 0044 6638 0de3 a838 fd35 e6b7
00000180: 8c50 0237 c098 fd36 276f 3038 c63e 4fb8
00000190: a79b b6b8 f0c4 02b8 b127 9937 4601 0139
000001a0: 73bf 96b8 322f 9c37 925a 7538 42d6 9938
000001b0: 9ec9 6838 99e4 07b7 1be8 b5b6 2df9 2fb7
000001c0: 350b 22b8 df92 61b6 b008 cb37 0170 e237
000001d0: c80e 94b6 80dc 5238 f96e ba36 4a04 0c38
000001e0: 22a8 9635 1c00 97b7 cdd7 6538 c93a e4b8
000001f0: 8a8e 53b8 bc10 61b7 66e0 b138 dc74 8136

exp_avg_sq f4 [128]
2.9168484e-10 4.0395843e-11 4.3763746e-11 4.416055e-11 5.5021426e-12 1.8564181e-10 1.2049811e-11 8.1406104e-11
3.456474e-10 3.098008e-11 9.7442245e-12 8.720778e-11 6.208177e-11 4.9553443e-12 2.480698e-10 2.3328128e-11
3.8099905e-11 1.9111756e-11 9.606957e-10 6.566946e-13 1.3554098e-10 6.956096e-11 1.5688623e-09 1.0949761e-10
1.5043559e-09 5.494228e-10 6.289695e-11 1.13323434e-10 6.049556e-11 1.7089096e-11 5.237981e-11 2.206878e-09
1.3866046e-11 2.2040307e-09 1.6562329e-10 2.98703e-10 1.9101666e-11 1.1546627e-10 2.1547543e-10 5.2952056e-11
4.6326495e-11 3.7954295e-10 3.7510838e-11 1.09404055e-10 1.355638e-10 6.615798e-11 1.5725651e-10 6.940372e-10
5.6761408e-11 9.817878e-12 6.9643213e-10 3.1273363e-12 4.8893034e-10 4.5409267e-11 2.8718388e-09 2.7746503e-09
3.2728452e-11 2.3788792e-11 1.12163626e-10 1.8980363e-10 7.033522e-11 8.459439e-11 2.9280786e-10 7.967488e-11
1.2363569e-11 2.5177527e-11 9.1066676e-10 2.055409e-11 1.4556086e-10 2.7801877e-10 7.299462e-11 4.8985465e-11
2.0850332e-11 7.7759944e-11 1.7449664e-10 1.1491977e-10 7.711476e-11 5.7400293e-11 1.02884645e-10 5.097044e-11
1.9619025e-11 4.1022644e-11 1.7204635e-09 5.3963266e-12 1.5381162e-10 3.1799682e-10 6.387745e-11 4.9637107e-11
2.8519354e-10 3.0564815e-11 3.1000016e-10 1.88399e-11 2.2605274e-11 8.1016766e-10 1.1239942e-09 2.6152833e-11
5.382217e-11 4.2767716e-12 3.5889083e-10 7.8548536e-11 2.6273435e-09 2.7209704e-10 9.906719e-11 1.8274958e-09
1.5958633e-09 3.714228e-11 3.9636874e-10 1.175488e-09 6.881363e-10 7.904384e-11 2.1192626e-11 8.907382e-11
1.38696e-10 2.0946342e-11 8.043527e-11 5.297182e-11 1.2748159e-11 1.436383e-10 5.2136236e-11 2.1740602e-10
3.838199e-12 2.464868e-10 2.5788044e-10 2.1003341e-09 1.5170944e-10 1.2705816e-11 1.3093994e-09 1.3911111e-11
00000000: fe5a a02f ada9 312e 9979 402e 5c38 422e
00000010: e596 c12c 861d 4c2f 86fb 532d 9003 b32e
00000020: 8c05 be2f 7840 082e 166c 2b2d 9ec5 bf2e
00000030: ee84 882e c659 ae2c b860 882f 4632 cd2d
00000040: ae90 272e d91b a82d 7a09 8430 d5d7 382b
00000050: 6507 152f 57f7 982e 6f9f d730 adc9 f02e
00000060: d1c1 ce30 3106 1730 d64f 8a2e 6c33 f92e
00000070: f907 852e 3951 962d 6c5e 662e cfa7 1731
00000080: 1fef 732d b875 1731 d01a 362f b636 a42f
00000090: 2105 a82d bbe9 fd2e f1ea 6c2f b7e2 682e
000000a0: ffbe 4b2e eca7 d02f 73f9 242e 0295 f02e
000000b0: d10d 152f a27b 912e c6e7 2c2f 87c6 3e30
000000c0: aaa3 792e cbb7 2c2d 0e6f 3f30 1511 5c2c
000000d0: 6a65 0630 4ab6 472e ec59 4531 2aac 3e31
000000e0: f6f0 0f2e 993f d12d 82a6 f62e f9b0 502f
000000f0: 35ab 9a2e 6806 ba2e 0bf9 a02f f834 af2e
00000100: 9180 592d c076 dd2d 7a52 7a30 b2cb b42d
00000110: bd0b 202f aad7 982f 5184 a02e bb70 572e
00000120: c666 b72d f5fe aa2e 70dc 3f2f 14b6 fc2e
00000130: c093 a92e fc72 7c2e e83e e22e 9d2b 602e
00000140: 1e92 ac2d 646b 342e 6e75 ec30 cadd bd2c
00000150: 1f1e 292f 13d2 ae2f cf77 8c2e 6a4e 5a2e
00000160: 6cc9 9c2f ec6c 062e a56c aa2f afb7 a52d
00000170: 8dd6 c62d 7bb2 5e30 087b 9a30 f20a e62d
00000180: 60b6 6c2e bc79 962c 654d c52f e5ba ac2e
00000190: b78c 3431 4196 952f dfd9 d92e 4b2b fb30
000001a0: 7355 db30 7d5a 232e f1e7 d92f cf8e a130
000001b0: 4a27 3d30 bad1 ad2e 8d69 ba2d 1ae0 c32e
000001c0: 747f 182f f83e b82d 08e1 b02e f8f8 682e
000001d0: 9b44 602d 96ee 1d2f 2f4c 652e 5b0a 6f2f
000001e0: 6c0b 872c ef81 872f 72c5 8d2f 7855 1031
000001f0: 69ce 262f e885 5f2d 65f6 b330 13ba 742d
