mlagents-env/results/=PelletGrabberRun11/Agent Controller/Agent Controller-499992.pt (torch, 446250 bytes, 33 tensors)

network_body._body_endoder.seq_layers.0.weight f4 [128, 6]
000000 1d 0f 22 be 13 e6 ce be 31 76 4c 3e c2 7a 4a bf
       -0.15826078 -0.40409908 0.19966961 -0.79093564
000010 76 a1 42 be 7a d7 eb 3e 82 19 52 3e 64 82 b9 3e
       -0.19006905 0.46062833 0.20517543 0.36232293
000020 13 6b d3 be 54 82 04 3e 4b 7a fa 3e 3a 6e ca bd
       -0.4129263 0.12940341 0.48921427 -0.09884305
000030 21 d0 2d 3f e5 e5 d6 bd 69 25 b1 bd 1b 08 bd 3e
       0.67895705 -0.10493068 -0.086497135 0.36920246
000040 ab 4b 65 be e2 2a 4e 3e 20 a4 30 3f 7d e6 b3 be
       -0.22392146 0.20133546 0.69000435 -0.35136786
000050 d6 99 1e bd f3 c3 3d 3f 60 2c 0b 3f 16 ca b4 be
       -0.038720928 0.7412712 0.54364586 -0.3531043
000060 87 b8 8f be 24 ec ae 3e 23 2b 15 be 24 d6 12 3c
       -0.2807047 0.34164536 -0.14567237 0.008962188
000070 f1 b8 3b 3c bd b6 ae 3e 9d 62 27 3f 25 d6 51 3f
       0.011457668 0.34123793 0.65384847 0.81967384
000080 ff 0e 75 bf 63 75 b3 be 80 5e 43 bf 3c ac 62 be
       -0.9572601 -0.35050496 -0.7631607 -0.22136015
000090 06 f9 65 3f 95 80 e9 3e 24 56 24 bf 05 28 4e be
       0.89833105 0.45605913 -0.6419394 -0.20132454
0000a0 ac 7d c4 be 2d a1 0c bf 33 22 8e 3f e1 87 e7 bd
       -0.3837713 -0.54933435 1.1104187 -0.11305214
0000b0 42 a5 5d 3e f0 57 8d 3d 4f 93 20 be 0f 03 08 bf
       0.21645072 0.06901538 -0.15681194 -0.5312967
0000c0 1b 5e 51 3f 2f 2d a8 3e 9e 53 0c bc c4 48 35 3d
       0.8178422 0.32846972 -0.008564858 0.044258848
0000d0 de a1 e3 3d 88 2f 7f bd aa 81 49 3f 1e a0 a3 3e
       0.11114858 -0.06230119 0.78713477 0.31958097
0000e0 2e 87 c1 3d 77 d1 57 3f 27 e5 56 bc 96 94 d8 bb
       0.094496116 0.84303993 -0.013116158 -0.0066095097
0000f0 23 e9 08 3f 0b fd 2e 3f d4 b7 da be 99 c8 a7 3e
       0.5348074 0.6835486 -0.42718375 0.3277023
000100 ea 54 e8 3e 21 b7 cb bd 77 2c d6 bd 13 62 9f 3e
       0.45377284 -0.099470384 -0.104577 0.31129512
000110 29 37 30 3e 01 4c 96 be 1f 47 50 3e 53 c2 31 bf
       0.17208542 -0.2935486 0.2033963 -0.6943714
000120 8b 2e a7 bd e7 e5 ec 3e 2e ab c8 be c4 2e 2c bf
       -0.08163174 0.46269152 -0.391931 -0.6725886
000130 db 26 6f 3d 8b 0a 59 be a5 4b a1 be ee e3 7d be
       0.058386665 -0.21195428 -0.31503025 -0.2479398
000140 2f 04 42 bf cc 40 9a 3d 0d 8f 2d 3e 91 0d 1c be
       -0.75787634 0.0753189 0.16949101 -0.1523955
000150 9b 58 3f 3e 98 68 cb bd 51 d3 ea be f2 fd d9 3d
       0.18686144 -0.09932059 -0.45864347 0.10644139
000160 d1 4a d2 be 26 a3 35 be 01 d5 da be 3f de b2 3e
       -0.41072705 -0.17738017 -0.42740634 0.34935185
000170 e1 4c 20 bf 54 95 89 3e 1a 6e 03 3e 28 86 99 be
       -0.6261731 0.2687174 0.12834969 -0.29985166
000180 f2 ea d3 be 3d d3 cc be 8e 71 2f bf 5d a7 98 be
       -0.41390187 -0.40004912 -0.68532646 -0.29815188
000190 f3 ad 0e bf 5d 8b bf 3c b5 6d 4e 3e b3 4b 44 bf
       -0.55734175 0.023381883 0.20159037 -0.7667801
0001a0 fd 8a 66 3e fd 14 c5 3e e6 bf 9b 3e d4 f8 01 bf
       0.22513957 0.38492575 0.30419844 -0.50770307
0001b0 0a 1d 09 bf b3 c9 67 be 5a d2 b3 3e 69 44 18 3c
       -0.53559935 -0.22635536 0.35121423 0.009293654
0001c0 d4 51 a8 be c6 08 6a bf 4f 36 15 be 92 5e e3 bd
       -0.3287493 -0.9141964 -0.14571498 -0.11102022
0001d0 ed d2 bb be 5a 89 f6 bd 10 32 ad 3e e6 59 39 3d
       -0.3668436 -0.120379165 0.33827257 0.04525175
0001e0 9a ea 2e 3e 05 18 b8 be 46 36 96 3e 65 d2 3d 3e
       0.17081681 -0.35955825 0.29338282 0.1853729
0001f0 8a 79 46 3e 4b 4a 4a 3b 32 68 1b bf 89 de 02 bf
       0.19382301 0.0030867036 -0.60705864 -0.5112081
000200 d5 f9 b2 3e 1d 35 83 3b d2 96 a5 3d 19 00 af be
       0.34956232 0.0040041343 0.08085407 -0.34179762
000210 72 42 0b 3f 12 18 12 be fd fb 10 be 12 1c f7 3d
       0.5439826 -0.14266995 -0.14158626 0.12065901
000220 c2 39 a6 3d 8e 08 6a 3e 21 0d 9c 3e 3a b1 56 bf
       0.08116485 0.22854826 0.30478767 -0.83864176
000230 7b f7 40 3f 80 d6 66 3e cc 93 03 bf e0 3c ba 3e
       0.75377625 0.22542763 -0.51397395 0.3637457
000240 43 d1 1f 3e ca 53 43 3f d5 98 29 bd b4 3d 8e be
       0.15607171 0.76299727 -0.041405518 -0.2778145
000250 bb 24 d3 be a4 2f 71 3d 72 4f b9 3e 6e 57 ab 3d
       -0.4123896 0.058883324 0.36193424 0.08366285
000260 b7 84 97 3d 2e fb 74 be 20 7b 21 3d a7 c7 13 bf
       0.0739836 -0.23923942 0.03942406 -0.5772652
000270 9c 14 1f bf 57 d2 e6 3d 95 fa 2d 3d d8 e3 e8 3e
       -0.6214082 0.11270588 0.0424753 0.4548633
000280 56 aa 34 3e 48 b8 08 be de 53 13 bf 31 ab 5c 3d
       0.17643103 -0.13351548 -0.57549846 0.0538742
000290 9b 83 e7 3e 83 14 11 bf fb f5 8f 3e 0b 08 ad be
       0.45217595 -0.56671923 0.28117356 -0.337952
0002a0 fe 38 35 3e 41 1f 2d 3e 8d 85 ea be 9c e5 c4 be
       0.17697522 0.16906454 -0.45805016 -0.38456428
0002b0 1c 10 62 3f 35 a6 f5 bd 95 ed 13 be d1 96 0e 3e
       0.8830583 -0.11994592 -0.14446099 0.1392472
0002c0 6b d9 1f 3f b2 c7 4a 3f b6 7e 62 3e f7 85 83 3f
       0.6244113 0.7921096 0.22118649 1.0275258
0002d0 94 2c 93 bd 3d 44 1f be ef 7f e2 bd de d8 7c bf
       -0.07186237 -0.15553375 -0.11059558 -0.98768413
0002e0 6a 63 89 3d 20 95 38 bf 47 8f 01 be 6a 19 3f 3f
       0.06708415 -0.72102547 -0.12652312 0.74648154
0002f0 30 be 6c 3e 7f 91 26 3e 16 22 84 3e e3 db 1d 3e
       0.23119426 0.1626644 0.25807256 0.15415911
000300 9b 6b c8 3e e7 8a 2a be 86 e6 5b 3d 0d 75 d9 3e
       0.39144596 -0.1665455 0.05368664 0.42472115
000310 1e d9 c4 3e 9f 52 5a be 2d a5 20 3b 3d 77 a8 be
       0.38446897 -0.2132058 0.0024512515 -0.32903472
000320 f3 a9 c9 3e 73 21 37 3e e4 87 39 3f f6 e4 88 3e
       0.39387473 0.17883854 0.7247298 0.26737183
000330 80 c9 b1 3e 3e 7f 18 be 82 33 90 3e c7 72 6b 3d
       0.34724045 -0.14892289 0.28164297 0.057482507
000340 67 45 26 bd 1f 6f 08 3f 97 2b 3e 3e ae ff 9c bc
       -0.04059353 0.5329456 0.18571316 -0.019164886
000350 d1 39 19 3d 01 62 11 3f c8 7c 46 be 98 6f 0b bf
       0.037408654 0.5679017 -0.19383538 -0.54467154
000360 28 15 f5 be 79 e5 8b 3d bd bd 44 bb 12 ce 99 be
       -0.47867703 0.06830878 -0.003002032 -0.30040032
000370 2e 6a ca be 9d 38 0a 3f f4 8a ae be 6e 8d 6e 3e
       -0.39534134 0.53992635 -0.34090388 0.23296139
000380 ee a3 18 bf ad ec c8 3e c9 48 aa 3e c1 8a 2d be
       -0.59625137 0.3924307 0.33258656 -0.16947462
000390 93 48 01 3f ca 80 9d be ca 15 1f 3f 6b 38 83 be
       0.50501364 -0.3076232 0.6214262 -0.2562898
0003a0 79 b6 2d 3f 1a 12 eb 3d 21 9e 48 be cd f2 56 3e
       0.67856556 0.11478062 -0.19591571 0.20991059
0003b0 f4 da 88 be ca cc 20 bf a3 2c e4 bd 7a 4b 13 3f
       -0.26729548 -0.62812483 -0.11141326 0.57537043
0003c0 6a 78 ba be 2a 7c 2b 3f f4 65 84 bd d0 9f da be
       -0.36419994 0.66986334 -0.064647585 -0.42700052
0003d0 bd 15 dc 3e 68 7b 1a be 9c e2 29 bf 05 46 b8 3e
       0.42985335 -0.15086138 -0.66361403 0.3599092
0003e0 39 28 0a 3f 2b 32 ec be d9 b0 bd be 40 13 43 3f
       0.53967625 -0.46132025 -0.37048987 0.7620125
0003f0 1e b5 be 3e af 49 d4 3e 06 38 33 3e 6d 65 b2 3e
       0.37247556 0.41462466 0.1750184 0.34843007

network_body._body_endoder.seq_layers.0.bias f4 [128]
000000 2d 6b 8b 3c 6e 56 a2 bc aa 27 d1 3c de 8d 6e 3c
       0.017018879 -0.019816604 0.025531609 0.014560191
000010 9c a5 05 bc 5b ac f3 3c 07 0b 54 bc e3 b5 e5 bc
       -0.00815716 0.029745271 -0.012942082 -0.028040832
000020 65 45 a2 3c df bd c9 3c a5 b1 d4 3c 1c 32 d0 3c
       0.01980848 0.02462667 0.025963614 0.025414519
000030 4d 12 96 3c 3d 12 bc bc 98 2a b5 3c 8c 32 f3 3c
       0.018319273 -0.022957915 0.022115037 0.029687189
000040 8b 82 aa bc f5 c7 be 3c 5a 18 02 bd 72 a3 b0 3c
       -0.0208142 0.023288706 -0.031761505 0.021562312
000050 34 78 be 3c d1 b6 a2 3b 1f f4 a5 3c 59 ff a9 bc
       0.023250677 0.004965641 0.020258008 -0.020751642
000060 3e 46 c4 3c 7c 41 4c bc 13 94 1b 3d 52 d2 71 3c
       0.023959275 -0.012466785 0.03798301 0.014759617
000070 5c fa 35 3c 84 ac ce 3c 28 8e fc ba 5d c9 e2 3c
       0.011107054 0.025228746 -0.001926844 0.027683908
000080 ec b5 d4 3c 41 e0 b1 3c bc 3d f2 bb 35 68 cb 3c
       0.025965653 0.021713378 -0.007392613 0.024829963
000090 7d 1b aa 3c 75 19 f0 3c 22 b1 24 ba b5 95 b5 3c
       0.02076506 0.029309014 -0.00062824984 0.022166112
0000a0 12 8b a5 3c 45 8d 61 3c fd 70 d2 3c 64 f3 0b 3d
       0.020207915 0.013766591 0.025688643 0.034167662
0000b0 11 a5 07 3c 42 05 87 3c 7d 6a 38 3c ff 47 1f 3c
       0.008279101 0.016482 0.011255858 0.009721755
0000c0 4d dd be 3c a9 9d bd 3c d3 49 cc 3c 46 66 59 bc
       0.023298884 0.023146467 0.024937546 -0.013269013
0000d0 6a 28 a1 3c 76 04 69 3c 67 ef 9e 3c c6 3b 2c bb
       0.019672591 0.014222255 0.019401265 -0.0026280745
0000e0 00 10 aa 3c 7f fb 75 bc 22 4b 8e 3a ff b5 d3 bc
       0.020759583 -0.015013575 0.0010856132 -0.025843618
0000f0 b5 1b c3 3c 11 8d ac 3c 27 ec d8 3c 69 ac 45 3c
       0.023816923 0.02106336 0.026479794 0.012065032
000100 63 41 b9 3c a0 3f d6 3c 71 a6 49 bc 17 df 3d 3b
       0.022614187 0.026153386 -0.012307749 0.0028972083
000110 56 15 09 3b 95 69 f9 39 03 1e c1 3c f0 41 20 3d
       0.0020917258 0.00047571646 0.023573881 0.039125383
000120 bc 2f 96 3c bc 42 ae bb 07 a7 be bc 52 e8 77 3c
       0.018333308 -0.005318014 -0.023273004 0.015131073
000130 06 9c b4 bc 6b a9 31 3c 38 fe da bb ff 1f 56 3c
       -0.022047054 0.010843615 -0.0066831373 0.013069152
000140 5b 41 d9 3c c1 bc bc 3c 6e dd 78 ba 4c 9b fa bb
       0.026520422 0.023039224 -0.0009493445 -0.0076479074
000150 65 ed d0 3c b6 46 f8 bc d1 f3 b9 bc 8e 8b bf 3c
       0.025503824 -0.030307155 -0.022699269 0.023381975
000160 74 16 d4 3c dd 50 db bb 64 71 f9 bc 48 6d 4c 3b
       0.025889613 -0.0066929893 -0.030449577 0.0031193066
000170 9e 94 e3 3c 1d 94 e3 ba 64 3e 45 bc 02 23 cc 3c
       0.027780827 -0.0017362867 -0.012038801 0.024919037
000180 e4 fe 3e 3c 65 b2 b7 3c 35 bc b5 3c 59 7b ea bb
       0.01165745 0.022423932 0.02218447 -0.0071558175
000190 c4 47 b3 3c 10 78 c6 bb 26 23 c1 3c 9b cc 80 3c
       0.021884806 -0.006056793 0.02357633 0.015722563
0001a0 94 13 99 3b f3 f3 5a bb 7f 23 1e 3c 17 fd 99 3c
       0.0046715233 -0.0033409565 0.009652018 0.01879744
0001b0 a8 94 81 3c b6 e7 72 3c 30 ae d0 3c e6 0b b7 bc
       0.015817955 0.014825752 0.025473684 -0.02234454
0001c0 53 dd b5 3c ef 00 6f bb 36 6d c6 3c a0 2c cb bc
       0.022200262 -0.0036469062 0.024221998 -0.024801552
0001d0 e7 a3 9f bc 3d 93 c7 3c 37 48 14 bc 24 cb 06 3d
       -0.019487334 0.0243622 -0.0090504205 0.032908574
0001e0 a7 37 d1 bc 7b 0a c1 3c 0e ed b5 3c f7 1c c0 38
       -0.025539232 0.023564568 0.022207763 9.1606686e-05
0001f0 64 cb 79 3c c5 ce cc 3c 40 13 e9 bc 5e 28 a3 bc
       0.015246246 0.02500094 -0.028451562 -0.01991671

network_body._body_endoder.seq_layers.2.weight f4 [128, 128]
000000 fb 49 6d bb c6 02 82 39 e5 86 3d 3b 3a ee 8c bc
       -0.0036207426 0.000247976 0.0028919515 -0.017203439
000010 e8 bf a9 bd 82 a0 83 3d af 92 81 3c d9 5b 82 be
       -0.08288556 0.06427099 0.015817015 -0.254607
000020 4e a7 d3 bd 20 67 b2 bd d4 a1 02 3d 0c 9c c0 3d
       -0.10334645 -0.08711076 0.031892613 0.094047636
000030 d0 9d 78 3c ff 6d 88 3c d9 19 00 be 5c 85 90 bd
       0.015174344 0.016654013 -0.1250986 -0.07056686
000040 a1 ca 8e bd 70 34 22 3d 60 32 f3 bb a6 fd 72 bd
       -0.06972242 0.03960079 -0.0074217767 -0.05932393
000050 7d 7a b5 3c 59 39 a4 bc 28 4a 49 be cb c1 ce bd
       0.022153134 -0.020046877 -0.19657195 -0.10095557
000060 54 da 85 bd 4b 35 99 bd 8f 3f 78 bd be 2b c5 bb
       -0.065357834 -0.07480868 -0.06060749 -0.0060171774
000070 92 9b 61 be f9 c3 1c 3e f7 59 33 3e 76 10 dd bd
       -0.22032002 0.15309133 0.17514788 -0.10794155
000080 9c 6a d2 ba 42 6c 05 bc b9 ca 92 bd bd b1 44 be
       -0.0016053501 -0.008143486 -0.071675725 -0.19208427
000090 fa 6b 61 3d 60 c7 3d 3c 77 fa e3 3b 5a 36 5f be
       0.055034615 0.011583179 0.006957348 -0.21798077
0000a0 59 43 92 3d d5 fc 41 3d 95 27 c0 3d c7 d5 27 3e
       0.07141752 0.04736026 0.0938255 0.16390143
0000b0 91 61 11 ba 9b a0 59 3d 0d ca d9 bc c1 30 91 3d
       -0.00055458496 0.05313168 -0.026585603 0.07089377
0000c0 3f 18 2b 3e 3b 23 3f 3e 83 30 99 3d 6d 67 c6 3b
       0.16708468 0.18665783 0.07479956 0.00605481
0000d0 df fb 2e 3c 46 b1 aa bd c9 88 8a bd 35 23 9c bd
       0.010680168 -0.083345935 -0.06764371 -0.07623903
0000e0 6c a9 6e 3d 5d 5f b5 bc d3 2f 63 be 63 a4 b5 bc
       0.058267042 -0.0221402 -0.22186212 -0.022173112
0000f0 e7 38 53 3e c5 ea da 3b 44 85 ba bd 39 65 8e 3b
       0.20627175 0.0066808187 -0.0910745 0.004345563
000100 77 83 9b bd 07 51 f6 bd 75 38 64 be 57 02 fd 3d
       -0.07593434 -0.120271735 -0.22287162 0.12353962
000110 15 5f c5 3d d4 35 ef bd 65 66 a7 bd 36 42 2d 3c
       0.09637276 -0.11680189 -0.08173827 0.010574868
000120 d3 d9 0f be a8 12 a4 bd a9 dd ad 3c 47 12 b6 bd
       -0.14047937 -0.08011371 0.02122386 -0.08890205
000130 95 02 bf bc 75 2f 8e bd e1 8f bf bd 27 da b6 bd
       -0.02331666 -0.069426455 -0.093536146 -0.08928328
000140 5a a9 02 3e e8 24 05 be a5 41 e3 bd 6d 18 1a bd
       0.12759915 -0.1300236 -0.11096505 -0.03762095
000150 82 bf 89 bd 69 b1 ae bd b2 2f 39 3d 88 dd 16 3e
       -0.0672598 -0.08529932 0.0452115 0.14732945
000160 74 c0 cd 3d 97 22 d1 3d 75 11 18 3d d7 d2 77 3d
       0.10046473 0.102116756 0.037126023 0.060503807
000170 c0 21 fc bd ad f3 04 bd 83 9d ce 3d d0 dd b3 3c
       -0.12311125 -0.03245895 0.10088637 0.021956354
000180 8b a7 00 be 05 cd 0c bd 4c 14 9c bc 36 f9 17 3e
       -0.12563913 -0.03437521 -0.019052647 0.1484116
000190 e0 b8 c4 bc 87 b8 2e bc 69 95 20 bd d1 e8 88 3c
       -0.024013937 -0.010664112 -0.03920499 0.016712578
0001a0 9b 37 b5 bc 25 91 a1 bd 9d 04 5f 3d f1 c1 b2 bd
       -0.022121241 -0.07889012 0.05444776 -0.08728398
0001b0 c7 83 d5 3b 05 2d 91 bd 04 ef 23 3c 80 e1 1d 3d
       0.006515953 -0.07088665 0.010005716 0.03854513
0001c0 97 38 88 3c 2a f7 c8 3d 94 d5 6e bc 12 9b 91 bd
       0.016628547 0.09812768 -0.014577288 -0.071096554
0001d0 f4 d4 09 be dc 2e 04 3e 84 a8 33 bd 7d 38 31 3d
       -0.13460141 0.129085 -0.04386188 0.043266762
0001e0 24 43 87 be a9 26 7a 3d dd 59 b6 bd 70 44 9b 3d
       -0.26418412 0.061072025 -0.08903859 0.07581413
0001f0 10 a8 ae bd cf 53 d6 3c ae 96 dc bd 9d 3c 98 3d
       -0.08528149 0.02616301 -0.10770927 0.07433436
000200 63 be 5d bd 29 a4 c9 bc c7 74 0e 3e 98 ab 9e 3c
       -0.054136645 -0.02461441 0.13911735 0.019368932
000210 57 38 72 bb 4d e5 78 3e 01 86 15 bd 97 46 b1 3c
       -0.003695985 0.24306221 -0.03650475 0.021640105
000220 2d 02 05 3d 9e e1 b4 bc ae c4 a5 bd 1d 8f af 3b
       0.032472778 -0.022080239 -0.08094154 0.0053576366
000230 41 c2 b1 3d fb 45 12 3e a4 24 c3 bd 07 66 02 be
       0.08679629 0.14284508 -0.09528473 -0.12734233
000240 a0 cd 03 3d 63 42 36 bc e6 06 94 3d db ee c5 3c
       0.03217852 -0.011124226 0.07227878 0.024161747
000250 f9 64 73 bd 33 42 5c bd f1 5c 61 3d e6 61 8c bd
       -0.059422467 -0.05377407 0.055020276 -0.0685461
000260 59 8b b9 bb a7 80 1f be 41 14 0c be 17 d3 15 3d
       -0.0056623635 -0.1557642 -0.13679601 0.036578264
000270 cc 61 44 3d f6 87 04 3e 5a 6b 28 3e f1 73 69 3d
       0.04794483 0.1294249 0.16447201 0.056995336
000280 e1 62 91 bd c0 ae 3b 3c e4 c4 08 3e 09 56 d2 ba
       -0.07098938 0.011455238 0.13356358 -0.0016047369
000290 ea 82 ec 3d 5b 60 00 3e f3 d3 91 bc d4 ab 6f 3d
       0.115484074 0.12536757 -0.01780126 0.058513477
0002a0 ca e3 e9 3d 2c bd 56 3a 1f 75 1e 3c 64 63 24 bd
       0.114204004 0.0008191641 0.0096714785 -0.04013385
0002b0 4b fb de bd db 23 2b 3c c2 78 a5 3d 5d 9b 7d 3d
       -0.10887774 0.01044556 0.08079673 0.061915744
0002c0 29 57 92 3d ff 4e 6f 3d 50 74 43 3c 7b dd 53 ba
       0.07145531 0.058424946 0.0119295865 -0.00080820144
0002d0 cd 5a bb bb c4 38 fa bd b0 ff 9b bd 0d 0c c5 bd
       -0.0057176114 -0.122178584 -0.07617128 -0.09621439
0002e0 c0 07 00 be 4e 94 41 bc 22 b4 3b 3d af cc bb 3d
       -0.12502956 -0.011815144 0.045826085 0.091699
0002f0 1a 70 ce 3c 06 d2 1b be c4 6c 7f 3d 26 17 15 be
       0.025199939 -0.15216836 0.062359586 -0.14559612
000300 fa 1e 86 3d 1d a5 9b bd 81 54 19 3c f3 62 a1 3c
       0.06548877 -0.07599852 0.009358526 0.019700503
000310 b5 96 48 3d 27 0f 17 bc 9e 1b ef 3d 73 21 28 3e
       0.04897185 -0.009219921 0.116751894 0.1641901
000320 71 5b 0b 3e 79 2e 93 bd a7 13 5f 3d e1 25 c8 3d
       0.13609101 -0.07186598 0.0544621 0.0977285
000330 c4 30 64 bc 25 4b c7 3c ab bc 56 3d 26 cc a1 bc
       -0.013927642 0.024327824 0.05242602 -0.019750666
000340 4d 4f 14 bd 01 2a 26 3e 6d fa f5 3d db 44 f4 bd
       -0.03620844 0.1622696 0.120106556 -0.11927196
000350 6b 49 91 bc c3 63 81 3c 33 11 e1 bd 20 b5 08 3d
       -0.017735204 0.01579464 -0.109896086 0.03337586
000360 6e 45 83 3c dc 41 d7 3d 11 a0 fc 3b 69 3f ca bd
       0.016024318 0.105106086 0.007709511 -0.09875376
000370 01 17 03 be 39 16 54 3e ca 13 12 3d 9e 44 22 3e
       -0.12801744 0.20711602 0.035663404 0.15846488
000380 24 98 5e 3d a0 c0 61 3e 47 fc 39 3e 99 1d 86 bd
       0.05434431 0.22046137 0.18162642 -0.06548614
000390 9d 3f c7 3b 33 b1 f5 bc a3 0b 81 3d ed a8 3d 3e
       0.0060805813 -0.029991722 0.06301048 0.18521471
0003a0 d4 a3 e0 3d f8 13 cf bd 12 bd 38 3e 3f c0 32 be
       0.10968748 -0.101112306 0.18040875 -0.17456149
0003b0 0b fc bc bd e8 d2 69 be c1 2d 0c be 06 08 ec 3d
       -0.09227761 -0.2283436 -0.13689329 0.11524968
0003c0 62 e5 3b 3e 1d ae 90 bd a5 f8 fd bd d4 b5 28 bc
       0.18349221 -0.070644595 -0.12400941 -0.010297257
0003d0 38 75 1b bd bf 4e 93 bc 91 c7 86 bd ea d9 45 3d
       -0.037953585 -0.017981885 -0.06581033 0.048303522
0003e0 27 e1 23 bc f6 a7 74 be 76 c9 a8 bc 7f da fc 3d
       -0.010002411 -0.23892197 -0.020603877 0.12346362
0003f0 0f 0c ae 3d 41 1b fe 3d 5f d0 9c 3d e5 52 10 be
       0.08498394 0.12407542 0.07656931 -0.14094122

network_body._body_endoder.seq_layers.2.bias f4 [128]
000000 95 56 89 3c e0 aa 31 3c 29 1e 7b bc 52 87 c3 3c
       0.016764918 0.010843962 -0.015327015 0.023868237
000010 a8 c7 08 3c bb dc 1b 3b b9 bd b2 3b b1 6f c8 3c
       0.008348383 0.0023782689 0.0054547456 0.024467321
000020 b2 61 ca 3c 4e 09 ca 3c 32 0e 9c bc 3c 8e df 3c
       0.024704788 0.02466264 -0.019049738 0.027289502
000030 38 fc 7f 3b 67 7c 7c 3b 31 bd 13 3c 3c f5 73 3b
       0.0039060246 0.0038526298 0.009017275 0.0037225028
000040 c3 a7 be 3c f4 b1 a3 3c 05 7d fc bb b4 08 83 bb
       0.023273354 0.019982316 -0.007705333 -0.00399884
000050 05 7f bf 3c 41 f1 2f 3c 22 ce d0 3c d8 f7 c0 3c
       0.023375997 0.010738672 0.025488917 0.023555681
000060 07 4e cc 3c b7 4c 07 3c 54 ad 70 3c e3 b2 7c 3a
       0.02493955 0.008258036 0.014689762 0.00096396933
000070 17 45 67 bc 1a 68 92 3c d2 6b 4b bc d6 be bc 3b
       -0.014115593 0.017871905 -0.012415843 0.005760054
000080 97 84 b8 3c 4c dc c5 3c 8c 43 c1 3c 1e ae a0 3b
       0.022524161 0.024152897 0.02359178 0.004903569
000090 91 7e dd 3b cb 30 c0 3c e4 a6 fa ba e8 b3 be 3c
       0.0067594727 0.023460766 -0.0019123224 0.023279145
0000a0 5c 00 a0 bb 03 80 cd 3c dc 0d d2 bc 00 95 0d b9
       -0.0048828553 0.025085455 -0.025641374 -0.00013502315
0000b0 19 64 c8 3b 44 ba be 3c 32 19 99 3c c7 05 da 3b
       0.006115448 0.023282178 0.018688772 0.0066535207
0000c0 5d 8b c9 3c 3d cd 64 3c f9 c5 ad 3c 0b 93 64 bc
       0.024602586 0.013964948 0.021212565 -0.013951073
0000d0 a9 4c 55 3b aa 07 c3 3c 33 3a 15 3b 0c 51 75 3c
       0.0032546914 0.023807365 0.0022770285 0.014972936
0000e0 d2 64 bb 3c 74 73 f8 bc 11 46 71 3c f8 2a 04 3c
       0.022875223 -0.03032849 0.014726178 0.008066885
0000f0 97 57 24 3c 9e 6b bc 3c ca fe cf 3c bb fa 5d 3c
       0.010030649 0.023000535 0.025390048 0.013548548
000100 52 a7 9b bc 1a b5 c5 3c c3 31 c3 3c f6 9c e1 b9
       -0.019000683 0.024134208 0.02382744 -0.0004303229
000110 3e 0c 91 3c 07 09 8e 3c 17 c2 a1 3c 9a aa 28 bb
       0.017706033 0.017338289 0.01974587 -0.0025736452
000120 81 11 09 3c 7e 24 cb 3c c4 47 c7 3c 8f df ca 3c
       0.00836599 0.024797674 0.024326213 0.024764804
000130 3a 91 c2 3c f3 82 4a 3c 37 7c ea 3c 76 2c a8 3c
       0.02375089 0.012360322 0.028623683 0.020529013
000140 73 02 8d bc b4 97 86 3c 80 b7 f6 3a a9 ea a6 3c
       -0.017213082 0.01642976 0.0018822998 0.020375567
000150 eb 69 25 bc 5c 03 21 bb e1 20 1b 3c bc a1 a0 3c
       -0.010096054 -0.0024568653 0.009468288 0.019608371
000160 75 92 d0 bc 77 08 96 3c b6 87 02 bc c6 e9 8e 3c
       -0.025460461 0.018314583 -0.007966926 0.017445456
000170 10 30 67 3b 95 9a ee 3a e1 26 d0 3c 05 00 d5 3c
       0.003527645 0.0018204028 0.025409164 0.026000986
000180 61 37 03 3c e9 1e c9 3c 71 a5 a0 bc d9 9e ac 3c
       0.008008809 0.024550872 -0.019610139 0.021071838
000190 6f 41 c7 3c a6 35 cd 3c 90 16 d4 3c be f4 93 bb
       0.024323193 0.025049996 0.025889665 -0.0045152595
0001a0 00 19 b4 3c ac 81 c5 3c ac 1c ce 3c f6 3f 88 3c
       0.021984577 0.024109684 0.025160156 0.016632061
0001b0 45 ed f7 3b c2 44 c3 3c 6e f1 c2 3c 75 28 c9 3c
       0.0075661265 0.023836497 0.023796763 0.024555424
0001c0 94 97 b5 3c e7 da df 3b ab 47 c3 3c d4 5d cb 3c
       0.022167005 0.006831515 0.023837885 0.024825014
0001d0 67 0f 3e 3c 04 db 0b 3c 96 70 b7 b9 a3 da bb 3c
       0.011600352 0.008536104 -0.00034988363 0.022931403
0001e0 61 a6 cb 3c fc 2c 2a bc c6 d8 23 bc 37 e9 46 3b
       0.02485961 -0.010386702 -0.010000413 0.003035141
0001f0 92 10 c8 3c 4a 62 a0 bc c4 9d 94 3c e9 44 8b bc
       0.024421964 -0.019578118 0.018141635 -0.017000632

action_model._continuous_distribution.mu.weight f4 [1, 128]
000000 ac 40 04 bd ca 26 91 bc 0b 64 81 bc 2f 5b f2 bc
       -0.03228824 -0.017718691 -0.015794775 -0.029584495
000010 29 8a 97 bc 49 44 84 3c 0e ba 53 3c c6 06 ed bc
       -0.018498497 0.016145842 0.012922777 -0.028933894
000020 a9 df 26 bd e6 27 43 bd 56 8e 01 3d ed 79 1a bd
       -0.040740643 -0.047645472 0.031629883 -0.037713934
000030 d1 9f 21 bc 6c ea 00 bd 30 bd c7 3c 57 f2 00 3c
       -0.009864763 -0.031473562 0.024382204 0.007870278
000040 c5 e6 70 3d 1c c6 21 bd 45 dd 52 bc 2d 21 b4 3b
       0.05881383 -0.039495572 -0.012870138 0.005497119
000050 6b 32 05 bd 4f 83 99 3c 09 c3 44 bd e7 f5 53 bd
       -0.032518785 0.01873937 -0.048037563 -0.051748183
000060 83 57 31 3d fc 2e 4d 3c 37 51 4b bd ee 2c 2e 3c
       0.04329635 0.012523409 -0.049638 0.010630829
000070 d2 dd be bc e7 20 02 3d 26 e4 5e bc ba 62 af bc
       -0.023299132 0.03176966 -0.0136041995 -0.021409381
000080 e5 f1 17 bd 1d 3e 61 bd ac f8 10 3d 84 b6 c9 bc
       -0.037095923 -0.054990876 0.035393402 -0.024623163
000090 fe 7e 2e bc 24 56 ea 3c 5b b2 5c bc ea 3f 8b bd
       -0.0106503945 0.028605528 -0.013470258 -0.067993
0000a0 c4 86 42 3c f1 b5 3d bd 59 19 20 bc 86 a9 99 bc
       0.011872951 -0.04631609 -0.009771668 -0.018757593
0000b0 14 59 cf bb e9 01 07 3d b7 b3 d7 3c 8c 9f 87 3c
       -0.0063277576 0.032960806 0.026330812 0.01655557
0000c0 9d ef 50 bd 21 f5 12 bd 83 12 12 bd fe a7 97 3c
       -0.051009763 -0.035878304 -0.035662185 0.018512722
0000d0 a5 ec ee bc f2 f4 12 3d b8 69 8e 3b a0 7f 21 3d
       -0.029165575 0.03587813 0.0043460988 0.039428353
0000e0 56 58 b6 3c 9e 90 ea 3c 36 83 f4 bc f8 7f 95 3c
       0.022258919 0.028633412 -0.029847723 0.018249497
0000f0 21 5a 28 bd c8 bb 18 3d d3 53 36 3d b1 f3 be 3c
       -0.04110158 0.037288457 0.044513535 0.02330956
000100 40 03 37 ba 93 20 40 bd e2 90 09 bd fa df 42 3c
       -0.000698138 -0.046906065 -0.033585437 0.0118942205
000110 45 79 3a 3d c4 b3 d0 3c d8 95 13 3d 1e 7f a0 bc
       0.045525808 0.025476344 0.036031574 -0.019591864
000120 ca 44 ad 3c b0 ef 1f bd 24 17 03 bd 14 61 6d 3d
       0.021150965 -0.039046943 -0.03200449 0.05795391
000130 f9 89 37 3d 4c 4d fa 3c 39 60 4b bd e8 12 fb bc
       0.044809315 0.030554436 -0.049652312 -0.030648664
000140 a3 8e 5e bd c4 b6 0e 3d c6 39 e2 3b 6f 6f b7 bc
       -0.054335248 0.034842268 0.00690386 -0.022392003
000150 f4 56 a5 bb 16 cb 6e 3c 7f 64 f0 3c 82 b0 bb 3c
       -0.005045766 0.014574787 0.029344795 0.022911314
000160 60 5a a3 bc 25 d5 f3 3c 30 06 e2 bb f6 e9 46 bd
       -0.019940555 0.029764721 -0.0068977103 -0.048562966
000170 44 9d fd bc 65 98 82 3c 71 b1 3b bd 26 c6 26 3d
       -0.03095878 0.015941808 -0.04582352 0.040716313
000180 82 47 0c bd 42 10 0b 3d 8f 07 fd 3c 81 b3 d4 bc
       -0.034247883 0.03395105 0.030887393 -0.0259645
000190 df 30 72 3d ca 99 73 bd 37 1c 83 3d e2 4d 47 bc
       0.05912864 -0.059472837 0.06401866 -0.012164565
0001a0 d8 7d 0d 3d 31 f7 35 3d 94 57 06 3d d4 61 f9 3c
       0.034543842 0.044425193 0.032798365 0.030442156
0001b0 0c 34 ba bc 6a ab 20 bd fc b8 04 bd b8 3a 10 bd
       -0.022729896 -0.039225973 -0.032402977 -0.03521225
0001c0 05 6f e2 3c d4 ce 07 bd 2b 16 20 3d 4c 8b ff bc
       0.027640829 -0.03315623 0.03908364 -0.031194352
0001d0 da be df bc 38 e7 ba bc be ea 8f bc 42 ec 08 3d
       -0.027312685 -0.022815332 -0.017567988 0.033428438
0001e0 e9 f0 52 3d b5 1f c3 bc 2e 1d 0d bd 05 8a 16 bd
       0.05149928 -0.02381883 -0.034451656 -0.03675272
0001f0 0e 1c 16 bd 68 c4 f7 bc 25 0f 99 3c 9c 7b 02 bb
       -0.03664785 -0.030245021 0.01868398 -0.0019910103

action_model._discrete_distribution.branches.0.weight f4 [1, 128]
000000 5a e1 d7 3b 13 3e 84 ba 2f a8 2b 3c ef 08 14 39
       0.0065881433 -0.00100893 0.01047711 0.00014117708
000010 98 03 2f 3c 66 62 02 3c ab 52 0f bc 92 4b ca 3b
       0.010682009 0.00795803 -0.008747737 0.0061735595
000020 b3 c2 95 bc e5 0e 4f b9 30 68 d8 38 57 ce d2 bb
       -0.018281316 -0.00019746607 0.00010319089 -0.006433289
000030 5a ab 72 38 17 dc cc 3b a8 f4 a7 3b 30 21 cf bb
       5.785688e-05 0.0062518227 0.005125601 -0.006321095
000040 33 43 0e bc b5 6a 1e bc f3 4e 1d 3b 85 3f c0 3b
       -0.008683014 -0.009668996 0.0024003356 0.005866947
000050 4d 86 d9 bb ae ea a1 3b 83 9d 2b 3c eb 13 6b bb
       -0.0066383244 0.004941306 0.010474565 -0.0035870026
000060 91 0e 27 bb 50 29 b5 bc e7 c9 cf b9 36 fe 24 3c
       -0.002549086 -0.022114426 -0.00039632546 0.010070374
000070 04 5d a3 bc 67 8b 6f bb 06 14 17 ba 18 42 24 3c
       -0.019941814 -0.0036551596 -0.00057631766 0.010025524
000080 8e ef 46 bc 79 6e 0e 3a 92 fa 52 3c 26 16 82 39
       -0.012142075 0.0005433332 0.012877123 0.00024812034
000090 f5 e6 5a bb 3b 85 0c bc 06 b9 c6 3b 42 42 e1 bb
       -0.0033401821 -0.0085766865 0.006064537 -0.0068743536
0000a0 5f 9a b3 bb 98 e4 14 3b 5b 65 32 3b 5b 84 66 3c
       -0.005481049 0.002271926 0.0027221057 0.014069642
0000b0 53 4f 86 bc 92 9b f0 3b d3 7b 20 36 13 e9 1f 3c
       -0.016395247 0.007342764 2.3913933e-06 0.009760159
0000c0 71 8d 90 3b 8b f1 14 bc 22 fd 6b 3c 70 e1 31 bc
       0.0044113924 -0.009090791 0.014403613 -0.010856971
0000d0 e6 02 37 3a 83 e9 f7 bb ae 57 0f bb 98 04 e6 bb
       0.0006981328 -0.0075656786 -0.002187233 -0.0070195906
0000e0 88 92 5b bb 7d 75 ac 3b 6a 5a 36 bc c0 ed 53 3c
       -0.0033504087 0.005263029 -0.011129955 0.012935102
0000f0 32 63 8f b9 e9 6d 83 bb 75 9b dd bb db 36 cb 3b
       -0.00027348992 -0.004010905 -0.0067629167 0.0062016076
000100 cc 81 31 39 b5 28 c9 3a 78 d4 0a bc 08 58 29 bb
       0.00016928389 0.0015347215 -0.008473508 -0.0025839824
000110 66 b5 4b bc 03 85 3b bb 08 1c 60 3b cb 8f 0f bc
       -0.0124333855 -0.0028613217 0.0034196395 -0.00876231
000120 6c 76 89 3a 8a 2f 5e 3c 13 fc b8 bb 9b af df 3b
       0.0010487563 0.013561139 -0.005645284 0.0068263537
000130 9f 98 5c ba df f7 9a bb 13 0b 3a bc 2c 96 87 bc
       -0.00084150763 -0.0047292556 -0.011355179 -0.0165511
000140 45 aa 9c bb 23 b7 fb bb 5e 95 c1 3b dd 0b 44 bb
       -0.00478104 -0.0076817437 0.0059076985 -0.0029914298
000150 c2 37 82 ba ec a2 2f 3c c1 23 34 ba 73 8f 64 3c
       -0.000993483 0.010719996 -0.0006871783 0.013950217
000160 07 18 db bb b3 8b 65 bb df 74 1d 3c 21 24 a7 3b
       -0.006686214 -0.0035025894 0.009610384 0.0051007424
000170 4c f2 b8 bb 5d b6 e2 3a 5b b7 fd ba 92 d6 4f 3b
       -0.0056441184 0.001729678 -0.0019357012 0.0031713587
000180 cf 94 1e bc a3 b4 ed 3b 7a 9a 02 bc 35 ea f2 3b
       -0.009679033 0.0072541996 -0.0079714 0.0074131736
000190 79 ca 89 bc 00 e6 7f 3c f2 27 d0 b9 4b ae 89 3c
       -0.01682018 0.015618801 -0.00039702613 0.016806742
0001a0 93 f6 15 bc 6f 0b 2d bc 73 a4 2b 3c d2 92 fb bb
       -0.009153026 -0.010561808 0.0104762195 -0.0076774145
0001b0 0a 50 47 bb c5 70 28 3c ff 70 53 bc e3 c2 97 3b
       -0.0030412697 0.010280793 -0.012905358 0.0046313866
0001c0 7b c3 e2 3b 25 0a 18 3c df 41 8a bb a5 2f db 3b
       0.0069202757 0.009279762 -0.004219278 0.0066890293
0001d0 f2 08 20 3c 19 2c 96 bc e4 6f 4b bb 79 67 3e 3b
       0.009767758 -0.018331574 -0.0031042034 0.0029053374
0001e0 6b ea ff 3a 83 0a c4 3b 90 be 59 bb f1 88 0b bb
       0.0019524818 0.0059826984 -0.0033225156 -0.002129134
0001f0 13 35 c4 bc 55 ee 92 3a fb 5e 69 3b fb 7e 53 bc
       -0.023951089 0.0011209944 0.0035609591 -0.0129086925

exp_avg f4 [128, 6]
000000 24 c4 ce 39 8b e1 32 b9 8a e8 0b af 51 e6 27 3b
       0.00039437518 -0.00017059424 -1.2724591e-10 0.0025619457
000010 8a 88 50 b9 00 00 00 00 b3 f8 8b b8 0b 8b 51 36
       -0.0001988729 0.0 -6.67436e-05 3.122436e-06
000020 79 57 c2 2d 17 31 71 b9 9b 1a 71 36 00 00 00 00
       2.2094092e-11 -0.00023001838 3.5927285e-06 0.0
000030 d1 c1 8a ba fd e4 09 b9 a3 54 d5 2f 51 a5 f6 ba
       -0.0010586326 -0.00013150643 3.8804612e-10 -0.0018817579
000040 58 c2 21 b9 00 00 00 00 91 78 94 ba 2e 1d 0e b9
       -0.00015426555 0.0 -0.0011327435 -0.00013553046
000050 19 85 e2 2f 72 90 09 bb 85 59 26 b9 00 00 00 00
       4.1203732e-10 -0.0020990637 -0.00015864342 0.0
000060 de 90 a1 39 e0 c3 c8 b7 36 1d 09 af 89 c6 a6 3a
       0.00030816247 -2.393307e-05 -1.2470455e-10 0.0012723963
000070 18 f1 f0 b7 00 00 00 00 7d cc c0 3a d7 8b 00 b9
       -2.8722498e-05 0.0 0.001470938 -0.00012259126
000080 c0 20 e9 af a3 95 94 3b 86 bc 11 b9 00 00 00 00
       -4.2405723e-10 0.0045344396 -0.00013898508 0.0
000090 dc 5b 3b 39 f1 bb 0e 39 28 50 a8 ae 34 64 96 ba
       0.0001786793 0.00013612189 -7.653994e-11 -0.0011473955
0000a0 d5 c4 25 39 00 00 00 00 67 9f 56 3a 7f 05 c1 38
       0.00015808952 0.0 0.0008187205 9.203981e-05
0000b0 d8 ed 9e af 6b f5 98 3a 04 6b e3 38 00 00 00 00
       -2.890903e-10 0.001166982 0.00010844137 0.0
0000c0 31 81 c8 37 20 1a 28 38 3a 1a 64 ac 4d 59 31 ba
       2.3902017e-05 4.0078652e-05 -3.2415307e-12 -0.0006765321
0000d0 8a 33 42 38 00 00 00 00 ad 5d bc ba c5 59 34 b9
       4.6301204e-05 0.0 -0.0014371179 -0.0001719958
0000e0 15 59 10 30 f8 f6 2d bb c7 38 53 b9 00 00 00 00
       5.251349e-10 -0.002654491 -0.0002014368 0.0
0000f0 73 56 ac ba f5 49 28 b9 bd 25 06 30 df 83 24 bb
       -0.0013148322 -0.0001604928 4.8802545e-10 -0.0025103015
000100 1d 21 45 b9 00 00 00 00 65 4d 04 3a db f8 56 b9
       -0.0001879972 0.0 0.0005046933 -0.00020501336
000110 05 00 2e af 1b 65 51 3b 73 9b 7a b9 00 00 00 00
       -1.5825215e-10 0.0031951133 -0.00023899767 0.0
000120 04 7b e0 39 b3 6f 60 b9 0e 7a 14 af 3d 55 47 3b
       0.00042816263 -0.00021403916 -1.3503884e-10 0.0030415796
000130 61 d0 82 b9 00 00 00 00 bf 34 17 39 5d 85 65 38
       -0.00024950787 0.0 0.00014420132 5.472206e-05
000140 a0 10 a7 ae 36 eb cf 39 aa 57 83 38 00 00 00 00
       -7.597234e-11 0.00039657363 6.2628955e-05 0.0
000150 86 d0 a2 ba f8 63 f8 b8 49 f1 ee 2f 03 51 14 bb
       -0.0012421764 -0.00011844182 4.346339e-10 -0.0022631295
000160 47 a0 12 b9 00 00 00 00 76 14 69 ba e5 96 9b b8
       -0.00013983353 0.0 -0.00088912935 -7.419082e-05
000170 d5 23 c8 2f 42 c4 0e bb 66 8f b3 b8 00 00 00 00
       3.6405248e-10 -0.002178446 -8.562095e-05 0.0
000180 63 fc 3b b9 6a 52 fb 37 76 22 7d 2e 96 a4 42 ba
       -0.00017927731 2.9959909e-05 5.7556147e-11 -0.0007425038
000190 02 dd 11 38 00 00 00 00 4e 4b 4b ba a7 bc db b8
       3.4776524e-05 0.0 -0.0007755057 -0.00010477873
0001a0 6e 14 95 2f f5 3b 99 ba 15 16 01 b9 00 00 00 00
       2.7117458e-10 -0.0011690842 -0.00012310625 0.0
0001b0 ee 76 53 b9 af 00 63 38 8a 88 6a 2e 2a e0 f4 b9
       -0.00020166833 5.4121654e-05 5.332671e-11 -0.00046706322
0001c0 d8 b7 81 38 00 00 00 00 72 a1 a4 39 1f 4b c1 b8
       6.185443e-05 0.0 0.00031400804 -9.2169495e-05
0001d0 1c 61 e7 ae 53 c0 dc 3a d5 bb e1 b8 00 00 00 00
       -1.0521914e-10 0.0016841985 -0.000107638225 0.0
0001e0 72 66 cc ba a1 cb 24 b9 ca 1f 19 30 2f 17 45 bb
       -0.0015594496 -0.00015716116 5.570625e-10 -0.0030073633
0001f0 fb d1 41 b9 00 00 00 00 a3 64 21 38 1d 51 da b7
       -0.00018484138 0.0 3.8479116e-05 -2.6025396e-05
000200 8b 38 ad ad 36 98 18 3a 85 82 04 b8 00 00 00 00
       -1.9692933e-11 0.0005821021 -3.159281e-05 0.0
000210 c9 f5 83 b8 93 b0 65 37 9a 92 c9 2d d6 af fd b9
       -6.292348e-05 1.36905755e-05 2.2916159e-11 -0.00048386928
000220 d9 dd 82 37 00 00 00 00 b1 56 a6 39 2b b8 ee 37
       1.5600514e-05 0.0 0.00031726577 2.845757e-05
000230 77 0e f1 ae 53 f7 05 3a a5 72 0d 38 00 00 00 00
       -1.09619806e-10 0.00051104015 3.372379e-05 0.0
000240 28 3d 7c 3a dc 9a 8d b9 f6 53 a4 af 61 93 a1 3b
       0.000962215 -0.00027008995 -2.9891084e-10 0.004930899
000250 ac 97 a4 b9 00 00 00 00 40 ef d1 3a 9d 59 96 37
       -0.00031393522 0.0 0.0016016737 1.7923123e-05
000260 4d 38 0b b0 a6 51 67 3b ab 00 d0 37 00 00 00 00
       -5.0647914e-10 0.003529647 2.4795843e-05 0.0
000270 7a 8d 88 ba 7d 03 17 b9 f6 0b fc 2f 7c 4e 16 bb
       -0.001041814 -0.00014401782 4.5847032e-10 -0.0022934964
000280 ec 04 2f b9 00 00 00 00 82 53 8e 39 bd 2a e1 b8
       -0.00016691134 0.0 0.0002714657 -0.00010736797
000290 61 39 be ae 11 e3 da 3a 47 54 03 b9 00 00 00 00
       -8.650392e-11 0.0016699751 -0.0001252453 0.0
0002a0 75 fe 0b 3a f7 55 78 b8 d5 64 3f af 19 d1 e9 3a
       0.0005340346 -5.920787e-05 -1.7407172e-10 0.0017838805
0002b0 96 c3 8e b8 00 00 00 00 8c d8 08 bb 73 f1 7c b9
       -6.8075184e-05 0.0 -0.0020881025 -0.0002412254
0002c0 c4 3d 4f 30 1f fd 73 bb a5 7e 94 b9 00 00 00 00
       7.5393936e-10 -0.003722973 -0.00028323117 0.0
0002d0 74 4e 16 39 f5 f4 9b b8 10 1e 3f ae 09 19 89 3a
       0.00014334341 -7.436603e-05 -4.3455073e-11 0.0010459732
0002e0 f7 c5 b5 b8 00 00 00 00 f8 2a c1 ba 61 3e 12 b9
       -8.6676264e-05 0.0 -0.0014737537 -0.00013946883
0002f0 b2 fe 14 30 54 14 49 bb e6 39 2b b9 00 00 00 00
       5.420403e-10 -0.0030682283 -0.000163294 0.0
000300 79 b9 3e ba a4 d2 c4 b8 a9 36 8f 2f 0b 05 9f ba
       -0.00072755624 -9.385243e-05 2.6050387e-10 -0.001213224
000310 39 fe e6 b8 00 00 00 00 c3 f0 98 ba be 10 cd b8
       -0.00011014607 0.0 -0.0011668432 -9.77828e-05
000320 1a 53 e9 2f 3d 3b 25 bb e2 73 f0 b8 00 00 00 00
       4.24415e-10 -0.002521231 -0.00011465677 0.0
000330 ae 81 a3 b9 81 3c 1d 37 66 af d9 2e a4 d8 76 ba
       -0.00031186402 9.372016e-06 9.8991745e-11 -0.0009416437
000340 22 9c 29 37 00 00 00 00 7a ba fc ba ab b7 7b b9
       1.01095375e-05 0.0 -0.0019281649 -0.00024005647
000350 0e aa 3f 30 e1 b5 59 bb 33 9d 93 b9 00 00 00 00
       6.972706e-10 -0.003321998 -0.00028155147 0.0
000360 c4 94 89 39 88 79 1a b9 e5 c4 b5 ae d9 9c 04 3b
       0.00026241515 -0.00014731858 -8.2659025e-11 0.002023509
000370 1e 91 34 b9 00 00 00 00 ab 94 e4 ba 95 46 58 b9
       -0.00017220198 0.0 -0.0017439326 -0.00020625659
000380 39 af 34 30 b9 f4 56 bb f0 5d 7d b9 00 00 00 00
       6.5732625e-10 -0.0032799675 -0.00024162955 0.0
000390 36 7a cc 3a 53 87 93 b6 b4 51 06 b0 79 b7 6e 3b
       0.0015600387 -4.396695e-06 -4.8865023e-10 0.0036425276
0003a0 6a d5 9c b5 00 00 00 00 00 94 83 39 a5 2b 18 b9
       -1.1685017e-06 0.0 0.00025096536 -0.00014512108
0003b0 2c 1e a9 ae ec 0c 00 3b 51 60 31 b9 00 00 00 00
       -7.69059e-11 0.0019538952 -0.00016915916 0.0
0003c0 00 6c dd 39 ae 3f 5d b9 1e 4a 0f af 96 73 47 3b
       0.0004223287 -0.00021099925 -1.3032106e-10 0.0030433885
0003d0 99 08 81 b9 00 00 00 00 ff 0b d8 38 f5 84 dc b8
       -0.00024611203 0.0 0.00010301917 -0.00010515183
0003e0 b2 56 ae ad d0 81 98 3a 0c 79 00 b9 00 00 00 00
       -1.982001e-11 0.0011635367 -0.00012252125 0.0
0003f0 e2 29 90 ba 1a 1a 1a b9 4e f8 e2 2f 12 c1 0c bb
       -0.001099881 -0.00014696308 4.1285592e-10 -0.0021477384

exp_avg_sq f4 [128, 6]
000000 f4 6f 24 36 ab bc 71 33 81 7a a7 20 00 53 5a 37
       2.450307e-06 5.6283778e-08 2.8371967e-19 1.30131375e-05
000010 76 bd a7 33 00 00 00 00 1c 8d 0f 33 a3 c5 1a 30
       7.811006e-08 0.0 3.342312e-08 5.630573e-10
000020 0e 7e b5 20 3c 03 2d 34 db 68 5b 30 00 00 00 00
       3.0746009e-19 1.6113057e-07 7.9820744e-10 0.0
000030 52 c6 7d 36 af 33 97 33 56 b4 24 22 4c 4d 90 37
       3.7815375e-06 7.0408866e-08 2.2321614e-18 1.7202132e-05
000040 15 a4 d6 33 00 00 00 00 b0 ce 57 36 01 f4 70 33
       9.994998e-08 0.0 3.2157805e-06 5.6101275e-08
000050 ba 58 c7 20 ec f5 6b 37 6e 95 aa 33 00 00 00 00
       3.3770626e-19 1.406435e-05 7.943423e-08 0.0
000060 86 79 82 35 1c 8a e9 31 73 7c d7 1f 81 be bc 36
       9.721123e-07 6.7968937e-09 9.1261926e-20 5.625014e-06
000070 8c 5c 24 32 00 00 00 00 c6 f6 39 36 74 cf 1f 33
       9.567099e-09 0.0 2.771079e-06 3.720875e-08
000080 40 19 c8 20 d6 ba 81 37 3b 27 56 33 00 00 00 00
       3.3898027e-19 1.5465e-05 4.9861438e-08 0.0
000090 b8 2b a6 34 3e e3 85 32 f9 d2 61 21 1c 0b 9c 36
       3.095172e-07 1.5586576e-08 7.6512185e-19 4.6504556e-06
0000a0 9c a0 ad 32 00 00 00 00 a8 b5 d4 35 4b 90 ab 32
       2.0212887e-08 0.0 1.58481e-06 1.9972637e-08
0000b0 b1 fc fa 20 e0 44 a7 36 29 85 f4 32 00 00 00 00
       4.2518865e-19 4.985006e-06 2.8465893e-08 0.0
0000c0 b0 be e8 33 3a b0 a0 31 db 8d 83 20 7a 6b 06 36
       1.0838028e-07 4.6766475e-09 2.2286135e-19 2.0030116e-06
0000d0 f3 45 d8 31 00 00 00 00 67 6d b2 36 11 ab c6 33
       6.2943797e-09 0.0 5.3175495e-06 9.25121e-08
0000e0 5e 50 5c 21 2d 1f c1 37 5e cf 0c 34 00 00 00 00
       7.4645264e-19 2.302191e-05 1.3113956e-07 0.0
0000f0 7a 7e a2 36 3a fb c0 33 8e cb b1 21 60 1d ba 37
       4.8427e-06 8.9863946e-08 1.2047867e-18 2.2186607e-05
000100 2f f5 08 34 00 00 00 00 5c 38 60 36 01 56 a9 33
       1.2755184e-07 0.0 3.3411407e-06 7.88532e-08
000110 44 3f e6 20 6e 81 a3 37 c4 61 ea 33 00 00 00 00
       3.900538e-19 1.9491385e-05 1.09142576e-07 0.0
000120 70 b2 78 36 a0 1f c7 33 5b d5 03 21 77 45 ab 37
       3.7058744e-06 9.272412e-08 4.46669e-19 2.0417136e-05
000130 e6 2f 0a 34 00 00 00 00 48 dd 37 35 83 b4 6b 32
       1.2869677e-07 0.0 6.849482e-07 1.3719844e-08
000140 05 76 d2 20 72 c7 e7 36 2d e6 a3 32 00 00 00 00
       3.5653483e-19 6.907555e-06 1.908037e-08 0.0
000150 17 0a 8a 36 14 63 6c 33 89 79 a3 21 1d 98 83 37
       4.113895e-06 5.5038143e-08 1.107748e-18 1.568725e-05
000160 28 7b a8 33 00 00 00 00 92 b0 0c 36 71 5d ba 32
       7.8455116e-08 0.0 2.0964403e-06 2.1695742e-08
000170 a4 b3 57 20 92 8d 1e 37 96 e1 03 33 00 00 00 00
       1.8270646e-19 9.450496e-06 3.0705984e-08 0.0
000180 e7 81 3f 34 7c dd 1c 31 5e 5c af 1f a7 0d 86 35
       1.783552e-07 2.2826887e-09 7.426819e-20 9.987751e-07
000190 01 70 58 31 00 00 00 00 db 08 ca 35 89 3e 06 33
       3.1495804e-09 0.0 1.505275e-06 3.125618e-08
0001a0 64 53 d7 20 1b 84 c3 36 62 1c 3e 33 00 00 00 00
       3.64776e-19 5.826832e-06 4.4263636e-08 0.0
0001b0 f1 90 a4 34 fd b5 22 32 0f bc 4b 1f f1 d2 ac 35
       3.065284e-07 9.47102e-09 4.314248e-20 1.2876391e-06
0001c0 9f fb 61 32 00 00 00 00 16 1e 92 35 6d 78 a6 32
       1.3153936e-08 0.0 1.0886604e-06 1.9379707e-08
0001d0 77 48 18 20 41 cd c0 36 02 ed e7 32 00 00 00 00
       1.2898877e-19 5.7459406e-06 2.6999718e-08 0.0
0001e0 c0 25 e2 36 0b 6c e0 33 85 41 29 22 5b e9 f7 37
       6.7397195e-06 1.0450466e-07 2.2938457e-18 2.955336e-05
0001f0 81 87 1f 34 00 00 00 00 40 08 87 34 1c 56 6f 31
       1.4857325e-07 0.0 2.5151712e-07 3.4828025e-09
000200 f2 f9 14 1f e9 bd d5 35 3a fc a9 31 00 00 00 00
       3.154697e-20 1.5925008e-06 4.947222e-09 0.0
000210 61 c4 18 34 48 4f 88 31 25 9f 0a 21 51 3d b0 35
       1.4227545e-07 3.967134e-09 4.6966845e-19 1.3130867e-06
000220 71 cb be 31 00 00 00 00 c7 04 92 34 11 45 5f 31
       5.5528564e-09 0.0 2.7198095e-07 3.249003e-09
000230 a6 5c 9d 20 e4 23 7c 35 5a 31 9f 31 00 00 00 00
       2.6658144e-19 9.3929543e-07 4.6331197e-09 0.0
000240 1a 3d d5 36 f1 3b 0d 34 0f 62 7d 21 8d fc 21 38
       6.355008e-06 1.3153455e-07 8.5849514e-19 3.8620597e-05
000250 68 2c 42 34 00 00 00 00 fd c2 8e 36 be b3 ee 32
       1.8083813e-07 0.0 4.2546294e-06 2.7788584e-08
000260 ba 60 26 21 be 14 55 37 c1 ab 29 33 00 00 00 00
       5.6371004e-19 1.2700619e-05 3.9504588e-08 0.0
000270 d0 28 68 36 fc 39 5f 33 0d d3 e8 20 60 60 91 37
       3.459445e-06 5.197397e-08 3.944199e-19 1.7330225e-05
000280 74 6a 9d 33 00 00 00 00 8e 3f 9f 35 99 db d4 32
       7.330246e-08 0.0 1.186492e-06 2.477991e-08
000290 0f d0 24 20 a6 b5 d7 36 6e 10 14 33 00 00 00 00
       1.3960181e-19 6.428646e-06 3.4473878e-08 0.0
0002a0 4f 0b 8c 35 8c 4e 31 32 aa 84 0a 20 24 50 9a 36
       1.0434104e-06 1.03206155e-08 1.173295e-19 4.5988872e-06
0002b0 9e 37 74 32 00 00 00 00 25 66 2b 37 59 d6 2f 34
       1.4215315e-08 0.0 1.0216177e-05 1.6376124e-07
0002c0 af be 04 22 f0 83 29 38 92 b5 79 34 00 00 00 00
       1.7990283e-18 4.0415616e-05 2.3255987e-07 0.0
0002d0 1d 4b 78 34 f3 d2 cf 31 16 9f 5d 1f c1 d6 aa 35
       2.3124126e-07 6.048475e-09 4.6930163e-20 1.2728489e-06
0002e0 48 6e 0e 32 00 00 00 00 18 38 ab 36 88 8b a4 33
       8.290563e-09 0.0 5.1027273e-06 7.662226e-08
0002f0 fb b5 64 21 6a b3 bd 37 c3 6b e9 33 00 00 00 00
       7.7490254e-19 2.2614102e-05 1.086951e-07 0.0
000300 7c d2 a4 35 8d 32 c8 32 60 42 82 20 e0 d9 a6 36
       1.2280211e-06 2.3306052e-08 2.206678e-19 4.9725495e-06
000310 a3 d1 0d 33 00 00 00 00 76 0a 65 36 83 2a 29 33
       3.3019784e-08 0.0 3.4129748e-06 3.9387043e-08
000320 e3 96 4b 21 c9 ac 83 37 2a 31 70 33 00 00 00 00
       6.897877e-19 1.5696876e-05 5.592407e-08 0.0
000330 9f 44 68 34 fc d8 14 31 ab da 34 1f 77 57 b2 35
       2.1631648e-07 2.1660176e-09 3.829736e-20 1.3287489e-06
000340 56 80 4d 31 00 00 00 00 b1 64 14 37 ac 99 26 34
       2.9904377e-09 0.0 8.8449315e-06 1.551586e-07
000350 0e 7d 1c 22 ce 9a 13 38 e7 45 6c 34 00 00 00 00
       2.1208146e-18 3.5191704e-05 2.2004643e-07 0.0
000360 ba 61 fe 35 2e eb 3d 33 13 97 92 20 40 e2 22 37
       1.8952917e-06 4.4218886e-08 2.4833335e-19 9.70863e-06
000370 77 7b 84 33 00 00 00 00 d6 cd ed 36 b9 8b f1 33
       6.169187e-08 0.0 7.087113e-06 1.12478524e-07
000380 de 90 56 21 96 45 f7 37 b7 7e 2b 34 00 00 00 00
       7.269775e-19 2.9477098e-05 1.5971715e-07 0.0
000390 7b 25 79 36 59 a5 cd 32 91 59 03 21 e8 0b 4b 37
       3.7125708e-06 2.3940332e-08 4.4503067e-19 1.2102515e-05
0003a0 9f b3 10 33 00 00 00 00 9b fe b9 35 5f 31 24 33
       3.3690977e-08 0.0 1.3857674e-06 3.822913e-08
0003b0 8c f3 57 20 eb e5 fe 36 b4 9d 63 33 00 00 00 00
       1.8291791e-19 7.596556e-06 5.2995986e-08 0.0
0003c0 2b 61 67 36 68 3b bd 33 fd 84 f3 20 ae 8f a8 37
       3.4478242e-06 8.811804e-08 4.1253805e-19 2.0094067e-05
0003d0 c2 41 03 34 00 00 00 00 f8 5b af 34 6f ac 77 32
       1.2224248e-07 0.0 3.2663206e-07 1.4416499e-08
0003e0 81 d4 90 1f 2c 11 04 36 15 dc aa 32 00 00 00 00
       6.133793e-20 1.9679528e-06 1.9890686e-08 0.0
0003f0 6c aa 5a 36 01 17 9e 33 df 03 55 21 ca 86 8c 37
       3.258373e-06 7.361633e-08 7.217233e-19 1.6752067e-05

exp_avg f4 [128]
000000 1e c7 2d ba 8a eb 48 37 a0 cc 06 ba f1 9f 0a ba
       -0.0006629097 1.197577e-05 -0.0005142186 -0.00052881154
000010 e3 c8 c8 b8 dc e4 f2 b9 05 24 0a 3a da 83 bd 39
       -9.574161e-05 -0.0004632835 0.00052696496 0.00036147126
000020 9f d5 21 39 a5 04 30 ba 45 46 24 ba e0 d6 50 ba
       0.00015433737 -0.0006714559 -0.00062665745 -0.0007966589
000030 f7 05 5a ba 6f e7 5a 39 79 60 f4 b9 28 a2 95 b9
       -0.0008316929 0.00020876316 -0.00046611184 -0.0002854031
000040 03 1b f3 38 ce 24 d7 b9 69 32 58 39 83 1c bc b9
       0.00011592174 -0.00041035417 0.00020618144 -0.00035879397
000050 4f 84 21 ba 85 d9 dc b8 6a 1c 5a 38 13 bf eb 38
       -0.0006161378 -0.00010530934 5.2001713e-05 0.000112412636
000060 10 29 89 ba eb 55 ad 38 70 d9 11 ba ce e1 da b9
       -0.0010464508 8.265286e-05 -0.0005563712 -0.00041748438
000070 a4 f0 6d b9 bb 7d 77 ba 4d 7a 97 b9 3f b0 0e ba
       -0.00022691727 -0.00094410375 -0.00028892086 -0.0005443133
000080 84 7e c0 b9 91 60 c8 b9 77 57 0d 38 fe 05 76 ba
       -0.00036715355 -0.0003821892 3.3698478e-05 -0.0009385048
000090 ed 78 16 ba 99 23 53 ba 6d b1 82 b6 42 d0 13 ba
       -0.0005740065 -0.00080543157 -3.894957e-06 -0.0005638638
0000a0 54 0e 57 ba 14 1f d6 b9 39 f5 15 ba b4 3d 2c ba
       -0.0008203734 -0.00040840416 -0.000572044 -0.0006570474
0000b0 95 a0 06 ba e2 28 08 ba 56 05 6a ba 28 f6 0d ba
       -0.0005135623 -0.00051940803 -0.0008927187 -0.0005415403
0000c0 22 36 85 ba f8 f4 33 ba 58 dd 19 ba 34 37 0c 3a
       -0.0010163228 -0.00068648113 -0.00058694696 0.0005348802
0000d0 33 04 72 35 ab 13 04 ba d5 2a b9 b9 0a ff 28 b9
       9.0158136e-07 -0.0005038331 -0.00035317862 -0.00016116738
0000e0 66 2e 22 ba 0a 1f 42 39 c1 61 a5 b8 6b f6 19 b9
       -0.00061867235 0.00018512845 -7.886021e-05 -0.00014683015
0000f0 4b 8e a0 b9 3e 4f b5 b7 19 40 ba b8 e0 cb e6 b9
       -0.00030623595 -2.1613781e-05 -8.88111e-05 -0.00044020917
000100 05 57 4a ba 34 15 1f ba 82 f8 84 b9 51 68 93 b9
       -0.00077186554 -0.0006068528 -0.00025362155 -0.00028115747
000110 87 8d 19 ba 22 46 44 b9 4c 3b f9 b9 bd b3 49 ba
       -0.0005857576 -0.00018718143 -0.0004753716 -0.00076943246
000120 73 b0 7e ba 3c 34 fa b8 e4 4e 36 3a 4f b5 c9 37
       -0.0009715624 -0.000119306584 0.00069545046 2.4045496e-05
000130 f1 b6 6b 39 d7 13 e0 b9 a9 89 08 b9 e7 0a a5 b9
       0.00022479497 -0.0004273939 -0.00013021253 -0.00031479375
000140 3a a2 56 ba 1b a3 f1 b9 d4 3b c7 b8 85 7e c0 b8
       -0.0008187626 -0.00046088625 -9.500203e-05 -9.1788395e-05
000150 57 ea 19 ba e7 95 b6 38 0f a5 4f b9 99 75 84 ba
       -0.0005871406 8.706358e-05 -0.00019802547 -0.0010105848
000160 19 b9 2a ba 49 41 83 b9 c1 ed 8d 38 2e ac 2f ba
       -0.0006512567 -0.00025034908 6.767689e-05 -0.0006701377
000170 17 15 83 b9 23 3a 89 b7 a5 88 ff 38 10 b4 ef b9
       -0.0002500198 -1.6358745e-05 0.000121847996 -0.0004571979
000180 83 6a a5 b5 29 66 5d ba bf d5 38 ba 07 a3 81 b9
       -1.2324457e-06 -0.0008445704 -0.00070508936 -0.00024726262
000190 c4 c2 42 ba 48 92 58 b9 55 c1 11 ba 87 34 41 39
       -0.0007429535 -0.00020653859 -0.000556012 0.00018425482
0001a0 df 11 e8 b9 cd d1 84 b9 d2 3e b6 b9 e0 78 38 ba
       -0.00044263803 -0.00025333316 -0.0003476055 -0.0007037055
0001b0 87 29 65 b9 f6 aa 66 b8 d0 13 77 ba 82 ae 99 38
       -0.00021854612 -5.4995493e-05 -0.00094252545 7.328113e-05
0001c0 82 ca 26 ba 03 8c 9e b9 65 fa 0b ba 29 fc 7d b8
       -0.00063625735 -0.00030240425 -0.0005339741 -6.0554743e-05
0001d0 e8 c1 26 39 dc 9b bf b9 84 08 43 b9 5a f6 97 b9
       0.0001590323 -0.00036546483 -0.00018599821 -0.0002898451
0001e0 14 87 33 39 f2 1f ef b6 af 7d 7e ba 2a 95 c9 38
       0.00017121091 -7.126474e-06 -0.00097080594 9.612211e-05
0001f0 9a 68 f7 b8 49 7c 6c ba 2e 46 88 b8 f8 bb a8 b8
       -0.000117973614 -0.00090212055 -6.498057e-05 -8.045876e-05

exp_avg_sq f4 [128]
000000 ea f8 68 35 27 5e 18 32 69 0e 95 35 07 ec 6c 35
       8.678895e-07 8.868972e-09 1.1105559e-06 8.8260316e-07
000010 a6 47 e4 33 ab b7 14 35 36 26 71 34 3f ce a9 34
       1.063011e-07 5.540157e-07 2.2458775e-07 3.1628767e-07
000020 8d 30 96 33 df 91 c3 35 1c 38 be 35 dc c3 a2 35
       6.993751e-08 1.4571086e-06 1.4172433e-06 1.2126943e-06
000030 3b ed bf 35 3c a3 63 34 63 00 6a 35 15 2b b7 34
       1.4299652e-06 2.1200407e-07 8.7172356e-07 3.4117753e-07
000040 d2 4d 16 33 7e 05 04 35 b7 ee 1c 34 48 0f a1 34
       3.4995374e-08 4.9181824e-07 1.4615476e-07 2.9999705e-07
000050 7b 91 dd 35 3d 17 6c 33 23 7f 84 33 f1 19 5d 33
       1.6508124e-06 5.4969167e-08 6.169855e-08 5.1479166e-08
000060 a4 d7 06 36 5e a7 eb 34 17 a2 5a 35 ee a4 cd 34
       2.0093075e-06 4.3893937e-07 8.14472e-07 3.8304228e-07
000070 53 98 29 34 c0 68 2d 36 f6 d1 c5 33 12 19 a2 35
       1.5794767e-07 2.5839981e-06 9.211719e-08 1.2077237e-06
000080 74 f8 c4 34 e2 cc 26 35 8c b5 0e 33 28 14 24 36
       3.6688618e-07 6.213796e-07 3.3227067e-08 2.4449637e-06
000090 bd 00 38 35 e4 2f ee 35 71 f9 c8 34 06 11 1e 35
       6.8546416e-07 1.774632e-06 3.7434395e-07 5.888436e-07
0000a0 12 4d b6 35 20 4e 6d 34 61 4b 9b 35 93 e3 2e 35
       1.3582487e-06 2.2100767e-07 1.1570338e-06 6.5151215e-07
0000b0 e9 f2 d7 34 5a 9c 37 35 4c c0 a2 35 11 94 35 35
       4.022361e-07 6.8400334e-07 1.2125906e-06 6.764322e-07
0000c0 a1 fa 0f 36 e2 12 a5 35 ee be 8f 35 fb 12 dc 34
       2.1454546e-06 1.2298954e-06 1.0709898e-06 4.0992003e-07
0000d0 e1 45 06 33 e6 49 31 35 6a cb 23 35 4f b9 63 33
       3.126286e-08 6.6045175e-07 6.101824e-07 5.3021093e-08
0000e0 ed 22 6b 35 36 e3 39 34 b9 3b 51 33 52 05 3c 34
       8.7595146e-07 1.7312126e-07 4.8715922e-08 1.75108e-07
0000f0 3e aa 6d 34 c4 bf 4c 34 7a 3e f7 33 99 ee d0 34
       2.2134279e-07 1.9068744e-07 1.1513198e-07 3.8916622e-07
000100 30 be 90 35 64 03 5d 35 9b 8a 04 34 c0 d2 31 34
       1.0784188e-06 8.233385e-07 1.2343882e-07 1.656108e-07
000110 a0 ba 03 35 f7 92 9a 33 e2 32 f4 34 29 8e c4 35
       4.907288e-07 7.1979166e-08 4.5485564e-07 1.4644512e-06
000120 0c 0f 02 36 df 76 8e 33 d8 c0 9f 35 b1 6a 0d 33
       1.9380268e-06 6.634013e-08 1.1902548e-06 3.2926156e-08
000130 c3 93 7d 34 0f 29 21 35 1b 20 5c 33 76 99 66 34
       2.3616217e-07 6.003692e-07 5.125194e-08 2.1476248e-07
000140 53 58 30 36 41 63 42 35 4a 3c 96 32 04 dc 09 33
       2.6277455e-06 7.2415065e-07 1.7489715e-08 3.20979e-08
000150 f7 07 81 35 2e a6 ee 32 c4 74 2e 34 6b 1a 1f 36
       9.613567e-07 2.7782416e-08 1.6247492e-07 2.3708224e-06
000160 7d cc 84 35 d7 07 c1 33 42 63 94 32 6a 23 54 35
       9.89428e-07 8.988689e-08 1.7274605e-08 7.902769e-07
000170 06 ea 5b 34 f0 d3 04 33 e8 60 8a 32 08 aa f7 34
       2.0481102e-07 3.09264e-08 1.6109382e-08 4.613105e-07
000180 7c 1c 78 32 1a 55 e5 35 d2 6f 69 35 c8 67 2f 33
       1.44419765e-08 1.7086597e-06 8.6961984e-07 4.083975e-08
000190 38 af 8c 35 3c 63 c8 33 77 da a6 35 ce bf 94 33
       1.0481808e-06 9.3312764e-08 1.2431545e-06 6.926676e-08
0001a0 35 1b 89 34 5b f2 bd 33 a8 c0 5d 34 ad 98 db 35
       2.5538034e-07 8.8450825e-08 2.0652317e-07 1.6361206e-06
0001b0 7a e3 07 34 49 c5 9c 33 da eb 37 36 e2 1f b8 33
       1.265561e-07 7.300202e-08 2.7406409e-06 8.573967e-08
0001c0 0b 4d b2 35 65 bd 5c 34 84 01 92 35 5c 4c fc 32
       1.3284456e-06 2.0557998e-07 1.0878289e-06 2.9371385e-08
0001d0 71 09 24 34 cf a5 ff 34 52 04 04 34 66 da 05 34
       1.5277125e-07 4.7618093e-07 1.229503e-07 1.2466043e-07
0001e0 22 32 8a 33 79 f3 b6 32 92 be 2a 36 fb ff 8b 34
       6.435245e-08 2.1298307e-08 2.54429e-06 2.6077018e-07
0001f0 08 fe 37 34 77 60 e2 35 60 08 2b 33 40 09 b2 32
       1.7135619e-07 1.6866387e-06 3.9821657e-08 2.0726134e-08
