mlagents-env/results/=PelletGrabberRun2/Agent Controller/Agent Controller-2078.pt (torch, 146217 bytes, 11 tensors)

network_body._body_endoder.seq_layers.0.weight f4 [128, 1]
-0.018145075 -1.9400234 0.70673484 1.4941043 -1.4389751 0.2798213 -0.36519462 -0.34065464
-0.200237 0.019564422 1.0558269 0.16211557 1.2543162 1.0470093 -1.653006 1.2644689
0.6378743 1.6118327 0.010532156 0.69112957 -0.6856077 2.487277 0.7675414 0.3536441
-0.5530643 -0.666667 -0.040940966 -1.4127458 -0.0138581665 0.31714416 0.58496547 -0.53469586
-0.14686787 0.51157755 0.6125157 -0.7337564 0.00077990285 -0.47485933 -1.1875174 0.22945276
-0.760774 -1.9302663 2.1835666 -0.4009941 -0.5705223 -0.8996869 1.6346306 -0.90871525
1.1132498 -0.117694005 -1.0244375 -1.0839064 1.5147351 1.767316 2.0677018 0.9241727
0.9571966 1.0417597 -0.12944707 0.53336066 0.5062938 -1.3731596 0.50009817 0.9838159
1.9837358 -1.3157017 1.1617035 -1.273701 -0.88033706 1.0550278 -1.9872376 -0.47239563
0.2911036 -0.6172501 1.4122235 0.3264098 -0.92804426 0.45645136 0.3632913 -0.59055746
0.6768017 -0.9376068 2.689699 -1.6156439 -1.8987216 0.78015685 1.3511764 -1.861527
-0.40087107 0.062106628 1.5386164 -1.2789936 0.5736653 0.25130263 0.4491833 -0.34848696
1.4909965 0.69990283 0.50446206 1.5834051 0.18319784 -0.58261025 -0.4052753 -1.0319042
0.8475065 0.8098142 -0.7906351 -0.30422541 -1.1533607 0.085042246 0.99675655 -0.044201896
-0.24337354 -1.1717094 -0.4735042 -0.058732215 0.10790015 0.08769585 1.0530039 0.057515647
1.6020665 -0.87918466 -0.37506244 1.4674647 1.3763709 -0.1478863 0.38257036 -0.14046578
00000000: fba4 94bc b052 f8bf 93ec 343f cf3e bf3f
00000010: 5630 b8bf bd44 8f3e cafa babe 496a aebe
00000020: ee0a 4dbe 9145 a03c 5625 873f a001 263e
00000030: 6f8d a03f 6704 863f b395 d3bf 1eda a13f
00000040: bb4b 233f 8950 ce3f 108f 2c3c deed 303f
00000050: fc83 2fbf 8c2f 1f40 987d 443f d710 b53e
00000060: 9f95 0dbf b0aa 2abf b7b1 27bd dbd4 b4bf
00000070: 5d0d 63bc b860 a23e 4cc0 153f d4e1 08bf
00000080: 8864 16be bff6 023f d4cd 1c3f 76d7 3bbf
00000090: 6572 4c3a c320 f3be 9200 98bf aaf5 6a3e
000000a0: 16c2 42bf f712 f7bf 8ebf 0b40 194f cdbe
000000b0: c00d 12bf e151 66bf 933b d13f 90a1 68bf
000000c0: f87e 8e3f 8e09 f1bd c520 83bf 72bd 8abf
000000d0: d7e2 c13f 6937 e23f 3a55 0440 9596 6c3f
000000e0: d60a 753f 6258 853f c68d 04be 538a 083f
000000f0: 789c 013f b2c3 afbf 6f06 003f 5cdb 7b3f
00000100: 0eeb fd3f ea68 a8bf b3b2 943f a208 a3bf
00000110: c55d 61bf 270b 873f cd5d febf d7dd f1be
00000120: 880b 953e 1a04 1ebf bdc3 b43f 2f1f a73e
00000130: 4f94 6dbf feb3 e93e 5101 ba3e c62e 17bf
00000140: e042 2d3f 0007 70bf 0724 2c40 6bcd cebf
00000150: 4f09 f3bf 5cb8 473f 59f3 ac3f 8446 eebf
00000160: f93e cdbe 8563 7e3d 62f1 c43f 10b6 a3bf
00000170: bbdb 123f bdaa 803e 5afb e53e e26c b2be
00000180: f9d8 be3f d52c 333f 6d24 013f 05ad ca3f
00000190: 3798 3b3e f225 15bf 3e80 cfbe 7015 84bf
000001a0: 30f6 583f fc4f 4f3f 1067 4abf 6fc3 9bbe
000001b0: 53a1 93bf a12a ae3d 702b 7f3f 0c0d 35bd
000001c0: ea36 79be 93fa 95bf 246f f2be 3191 70bd
000001d0: c1fa dc3d e299 b33d d5c8 863f 8795 6b3d
000001e0: 8410 cd3f 3f12 61bf 2f08 c0be e2d5 bb3f
000001f0: ec2c b03f 826f 17be 43e0 c33e 43d6 0fbe

network_body._body_endoder.seq_layers.0.bias f4 [128]
0.0 0.0 0.0 0.0 0.0 0.0 0.0 0.0
0.0 0.0 0.0 0.0 0.0 0.0 0.0 0.0
0.0 0.0 0.0 0.0 0.0 0.0 0.0 0.0
0.0 0.0 0.0 0.0 0.0 0.0 0.0 0.0
0.0 0.0 0.0 0.0 0.0 0.0 0.0 0.0
0.0 0.0 0.0 0.0 0.0 0.0 0.0 0.0
0.0 0.0 0.0 0.0 0.0 0.0 0.0 0.0
0.0 0.0 0.0 0.0 0.0 0.0 0.0 0.0
0.0 0.0 0.0 0.0 0.0 0.0 0.0 0.0
0.0 0.0 0.0 0.0 0.0 0.0 0.0 0.0
0.0 0.0 0.0 0.0 0.0 0.0 0.0 0.0
0.0 0.0 0.0 0.0 0.0 0.0 0.0 0.0
0.0 0.0 0.0 0.0 0.0 0.0 0.0 0.0
0.0 0.0 0.0 0.0 0.0 0.0 0.0 0.0
0.0 0.0 0.0 0.0 0.0 0.0 0.0 0.0
0.0 0.0 0.0 0.0 0.0 0.0 0.0 0.0
00000000: 0000 0000 0000 0000 0000 0000 0000 0000
00000010: 0000 0000 0000 0000 0000 0000 0000 0000
00000020: 0000 0000 0000 0000 0000 0000 0000 0000
00000030: 0000 0000 0000 0000 0000 0000 0000 0000
00000040: 0000 0000 0000 0000 0000 0000 0000 0000
00000050: 0000 0000 0000 0000 0000 0000 0000 0000
00000060: 0000 0000 0000 0000 0000 0000 0000 0000
00000070: 0000 0000 0000 0000 0000 0000 0000 0000
00000080: 0000 0000 0000 0000 0000 0000 0000 0000
00000090: 0000 0000 0000 0000 0000 0000 0000 0000
000000a0: 0000 0000 0000 0000 0000 0000 0000 0000
000000b0: 0000 0000 0000 0000 0000 0000 0000 0000
000000c0: 0000 0000 0000 0000 0000 0000 0000 0000
000000d0: 0000 0000 0000 0000 0000 0000 0000 0000
000000e0: 0000 0000 0000 0000 0000 0000 0000 0000
000000f0: 0000 0000 0000 0000 0000 0000 0000 0000
00000100: 0000 0000 0000 0000 0000 0000 0000 0000
00000110: 0000 0000 0000 0000 0000 0000 0000 0000
00000120: 0000 0000 0000 0000 0000 0000 0000 0000
00000130: 0000 0000 0000 0000 0000 0000 0000 0000
00000140: 0000 0000 0000 0000 0000 0000 0000 0000
00000150: 0000 0000 0000 0000 0000 0000 0000 0000
00000160: 0000 0000 0000 0000 0000 0000 0000 0000
00000170: 0000 0000 0000 0000 0000 0000 0000 0000
00000180: 0000 0000 0000 0000 0000 0000 0000 0000
00000190: 0000 0000 0000 0000 0000 0000 0000 0000
000001a0: 0000 0000 0000 0000 0000 0000 0000 0000
000001b0: 0000 0000 0000 0000 0000 0000 0000 0000
000001c0: 0000 0000 0000 0000 0000 0000 0000 0000
000001d0: 0000 0000 0000 0000 0000 0000 0000 0000
000001e0: 0000 0000 0000 0000 0000 0000 0000 0000
000001f0: 0000 0000 0000 0000 0000 0000 0000 0000

network_body._body_endoder.seq_layers.2.weight f4 [128, 128]
-0.05958527 0.08485984 0.013874844 0.1118944 0.0042328467 -0.049852446 -0.013371192 0.01566647
0.024126932 -0.0022539417 0.022261404 -0.0994743 0.029359799 0.0112461895 -0.0009088626 0.06459842
0.050591115 0.14088397 0.04006111 -0.018181035 0.0030529096 0.07892294 -0.06655085 -0.025032979
-0.051900912 -0.062125128 0.03816205 0.0794066 0.16511388 -0.07271808 -0.046825048 0.11711958
-0.14256988 -0.13604549 -0.12866122 0.10108265 -0.02063098 0.06808435 -0.0252185 0.21339442
-0.012994671 -0.10650734 -0.017370453 0.0031985997 0.020241635 -0.06210784 -0.07835548 -0.12404949
0.037419096 0.06703894 -0.13544372 -0.11894773 0.01642109 0.09642537 -0.020552032 0.1480818
-0.09982635 -0.11038814 -0.22800927 -0.035839424 0.070205085 0.013828689 -0.07672672 -0.057627976
0.02377407 -0.10058403 -0.082074024 -0.10520612 -0.0026002412 0.0018065632 0.0354514 -0.13451907
0.031576972 -0.01494714 0.014313087 -0.04121568 0.05015222 0.0637076 0.004479702 -0.20698118
-0.09282794 -0.051597767 0.04476838 0.04435443 -0.120153226 0.04613854 0.051917203 -0.0041946224
0.04373031 -0.016224755 0.08385329 0.014489747 -0.15444103 0.0414869 0.024332333 0.047728714
0.02696211 -0.023808427 0.027805397 -0.01158493 0.06910549 -0.045372114 0.07035405 -0.15508403
0.1448287 0.04583673 -0.024581827 -0.13475125 0.077491276 0.1522423 -0.059772693 0.13362342
-0.049405783 -0.047715753 -0.044357393 -0.012283839 0.05136891 -0.008607115 -0.03294622 0.116881356
0.053032286 -0.07204546 -0.025750991 -0.07938628 -0.013870523 0.013668801 0.060551807 -0.14558905
0.03944706 -0.03915557 0.023900516 -0.065419555 -0.050628476 0.09012211 0.040711615 0.09990094
-0.018990194 -0.04292094 -0.06752049 -0.051301237 -0.08416256 -0.06134122 0.030624116 -0.14836645
0.12528503 0.04900053 0.022789454 0.010914141 -0.1740867 -0.048112076 -0.085561015 -0.13066247
0.03561709 -0.04394702 0.0044989884 -0.060024675 -0.061016403 0.18373659 -0.017788162 0.14655131
-0.01653886 -0.07870702 0.077000245 -0.0619776 0.081409305 0.12636724 -0.08274914 -0.072667785
0.0060608666 0.051603694 -0.1529367 -0.0020304446 -0.042521764 0.1601412 -0.08921352 0.025561312
-0.059193347 -0.116412714 -0.07436503 -0.10718243 0.13954248 0.004799266 0.020244299 0.15051429
-0.16249743 -0.08522295 0.09257161 0.022869194 0.03603054 0.09865739 -0.24719992 0.06049016
-0.06603447 0.014713442 0.080416396 -0.05594425 -0.04241063 -0.00035232698 0.07769861 0.03365875
-0.040112566 -0.0839413 0.019162683 0.062761396 0.044017207 0.019314835 -0.08440413 -0.05004132
-0.0021624719 -0.12387906 0.082205795 0.027679732 -0.069335334 -0.0048938747 0.12442259 0.06282566
0.10363069 0.061379418 0.03773876 -0.050669994 0.035284545 0.06631599 -0.13026561 0.104703516
-0.093274474 -0.07994691 0.05163122 0.12446716 0.044586398 -0.22670673 -0.0944328 0.0014155568
0.029557152 -0.04478904 0.023074422 -0.15601382 0.037166964 -0.04168844 0.06492282 -0.042156894
0.039589953 0.07324709 0.14517456 -0.03661946 0.19002323 0.115804024 -0.121787764 -0.017130023
-0.060932368 -0.14864358 -0.08676586 0.045367625 -0.11325418 -0.020882254 0.03245755 -0.11616118
00000000: af0f 74bd ffca ad3d 5053 633c e428 e53d
00000010: b1b3 8a3b 1432 4cbd d812 5bbc f856 803c
00000020: d8a5 c53c deb6 13bb 8c5d b63c 2fb9 cbbd
00000030: f683 f03c f041 383c bd40 6eba 2d4c 843d
00000040: a138 4f3d e343 103e 1e17 243d 65f0 94bc
00000050: 5313 483b 5aa2 a13d d04b 88bd f611 cdbc
00000060: 0d96 54bd eb76 7ebd cf4f 1c3d ed9f a23d
00000070: 9d13 293e 37ed 94bd 9fcb 3fbd 64dc ef3d
00000080: d7fd 11be 824f 0bbe c4bf 03be 6c04 cf3d
00000090: 4d02 a9bc cf6f 8b3d 0797 cebc 1184 5a3e
000000a0: 9ae7 54bc 8520 dabd 7b4c 8ebc 999f 513b
000000b0: c9d1 a53c ca64 7ebd d778 a0bd a90d febd
000000c0: c444 193d b64b 893d c2b1 0abe de9a f3bd
000000d0: 8685 863c aa7a c53d bc5c a8bc c1a2 173e
000000e0: c271 ccbd 2d13 e2bd 437b 69be 5ccc 12bd
000000f0: afc7 8f3d ba91 623c e622 9dbd 500b 6cbd
00000100: d7c1 c23c 00ff cdbd 6d16 a8bd 4e76 d7bd
00000110: cf68 2abb 34ca ec3a 7d35 113d 5ebf 09be
00000120: db56 013d d9e4 74bc 7081 6a3c c6d1 28bd
00000130: 6a6c 4d3d 2179 823d 77ca 923b e0f2 53be
00000140: 931c bebd 2e58 53bd 0c5f 373d feac 353d
00000150: e512 f6bd c4fb 3c3d 22a7 543d 0b73 89bb
00000160: 8e1e 333d c7e9 84bc 46bb ab3d 6766 6d3c
00000170: ca25 1ebe 2bee 293d 9a54 c73c 2f7f 433d
00000180: a5df dc3c e409 c3bc 25c8 e33c b8ce 3dbc
00000190: 2e87 8d3d 1cd8 39bd c915 903d 59ce 1ebe
000001a0: fa4d 143e 4cbf 3b3d d45f c9bc 3bfc 09be
000001b0: bfb3 9e3d 68e5 1b3e 36d4 74bd 94d4 083e
000001c0: b85d 4abd 9871 43bd 19b0 35bd 2842 49bc
000001d0: 3568 523d db04 0dbc 9ef2 06bd 7e5f ef3d
000001e0: 6238 593d 928c 93bd bef3 d2bc 4695 a2bd
000001f0: 3141 63bc 1bf3 5f3c 2c05 783d 4c15 15be
00000200: 3e93 213d 9761 20bd 04cb c33c b0fa 85bd
00000210: ce5f 4fbd f191 b83d 39c1 263d dd98 cc3d
00000220: 5391 9bbc decd 2fbd 2f48 8abd 3f21 52bd
00000230: 6c5d acbd ee40 7bbd 6ddf fa3c 60ed 17be
00000240: b84a 003e c8b4 483d f3b0 ba3c 3ad1 323c
00000250: c943 32be 2b11 45bd 9d3a afbd 62cc 05be
00000260: 3ae3 113d ca01 34bd 406c 933b 6fdc 75bd
00000270: 56ec 79bd 7225 3c3e 7bb8 91bc 8c11 163e
00000280: 817c 87bc 2531 a1bd 4eb2 9d3d 39dc 7dbd
00000290: ecb9 a63d 6a66 013e 6278 a9bd d9d2 94bd
000002a0: 3c9a c63b 655e 533d 709b 1cbe 3511 05bb
000002b0: 4d2b 2ebd 0efc 233e 94b5 b6bd f565 d13c
000002c0: b974 72bd ca69 eebd b14c 98bd 7682 dbbd
000002d0: 39e4 0e3e 2943 9d3b 5fd7 a53c 6b20 1a3e
000002e0: ba65 26be 5f89 aebd 2f96 bd3d 2d58 bb3c
000002f0: c294 133d e30c ca3d fa21 7dbe 88c4 773d
00000300: 153d 87bd a610 713c 5ab1 a43d cc25 65bd
00000310: c5b6 2dbd 87b8 b8b9 7320 9f3d c2dd 093d
00000320: 134d 24bd 6be9 abbd 0ffb 9c3c 0c89 803d
00000330: 634b 343d 253a 9e3c 13dc acbd 21f8 4cbd
00000340: 42b8 0dbb 4eb4 fdbd 835b a83d 9bc0 e23c
00000350: afff 8dbd cc5c a0bb 45d1 fe3d bdaa 803d
00000360: 543c d43d fc68 7b3d f593 1a3d 578b 4fbd
00000370: 8786 103d aed0 873d 5964 05be cc6e d63d
00000380: b006 bfbd 35bb a3bd 427b 533d a3e8 fe3d
00000390: 3aa0 363d cf25 68be fc65 c1bd 348a b93a
000003a0: d721 f23c b674 37bd 9206 bd3c 16c2 1fbe
000003b0: 633c 183d 7fc1 2abd 41f6 843d b5ac 2cbd
000003c0: 1329 223d 9202 963d a4a8 143e 49fe 15bd
000003d0: 7395 423e a92a ed3d dd6b f9bd 4354 8cbc
000003e0: 3894 79bd 0636 18be 4db2 b1bd 67d3 393d
000003f0: cff1 e7bd 4311 abbc 35f2 043d eae5 edbd

network_body._body_endoder.seq_layers.2.bias f4 [128]
0.0 0.0 0.0 0.0 0.0 0.0 0.0 0.0
0.0 0.0 0.0 0.0 0.0 0.0 0.0 0.0
0.0 0.0 0.0 0.0 0.0 0.0 0.0 0.0
0.0 0.0 0.0 0.0 0.0 0.0 0.0 0.0
0.0 0.0 0.0 0.0 0.0 0.0 0.0 0.0
0.0 0.0 0.0 0.0 0.0 0.0 0.0 0.0
0.0 0.0 0.0 0.0 0.0 0.0 0.0 0.0
0.0 0.0 0.0 0.0 0.0 0.0 0.0 0.0
0.0 0.0 0.0 0.0 0.0 0.0 0.0 0.0
0.0 0.0 0.0 0.0 0.0 0.0 0.0 0.0
0.0 0.0 0.0 0.0 0.0 0.0 0.0 0.0
0.0 0.0 0.0 0.0 0.0 0.0 0.0 0.0
0.0 0.0 0.0 0.0 0.0 0.0 0.0 0.0
0.0 0.0 0.0 0.0 0.0 0.0 0.0 0.0
0.0 0.0 0.0 0.0 0.0 0.0 0.0 0.0
0.0 0.0 0.0 0.0 0.0 0.0 0.0 0.0
00000000: 0000 0000 0000 0000 0000 0000 0000 0000
00000010: 0000 0000 0000 0000 0000 0000 0000 0000
00000020: 0000 0000 0000 0000 0000 0000 0000 0000
00000030: 0000 0000 0000 0000 0000 0000 0000 0000
00000040: 0000 0000 0000 0000 0000 0000 0000 0000
00000050: 0000 0000 0000 0000 0000 0000 0000 0000
00000060: 0000 0000 0000 0000 0000 0000 0000 0000
00000070: 0000 0000 0000 0000 0000 0000 0000 0000
00000080: 0000 0000 0000 0000 0000 0000 0000 0000
00000090: 0000 0000 0000 0000 0000 0000 0000 0000
000000a0: 0000 0000 0000 0000 0000 0000 0000 0000
000000b0: 0000 0000 0000 0000 0000 0000 0000 0000
000000c0: 0000 0000 0000 0000 0000 0000 0000 0000
000000d0: 0000 0000 0000 0000 0000 0000 0000 0000
000000e0: 0000 0000 0000 0000 0000 0000 0000 0000
000000f0: 0000 0000 0000 0000 0000 0000 0000 0000
00000100: 0000 0000 0000 0000 0000 0000 0000 0000
00000110: 0000 0000 0000 0000 0000 0000 0000 0000
00000120: 0000 0000 0000 0000 0000 0000 0000 0000
00000130: 0000 0000 0000 0000 0000 0000 0000 0000
00000140: 0000 0000 0000 0000 0000 0000 0000 0000
00000150: 0000 0000 0000 0000 0000 0000 0000 0000
00000160: 0000 0000 0000 0000 0000 0000 0000 0000
00000170: 0000 0000 0000 0000 0000 0000 0000 0000
00000180: 0000 0000 0000 0000 0000 0000 0000 0000
00000190: 0000 0000 0000 0000 0000 0000 0000 0000
000001a0: 0000 0000 0000 0000 0000 0000 0000 0000
000001b0: 0000 0000 0000 0000 0000 0000 0000 0000
000001c0: 0000 0000 0000 0000 0000 0000 0000 0000
000001d0: 0000 0000 0000 0000 0000 0000 0000 0000
000001e0: 0000 0000 0000 0000 0000 0000 0000 0000
000001f0: 0000 0000 0000 0000 0000 0000 0000 0000

action_model._continuous_distribution.mu.weight f4 [1, 128]
0.012528004 0.01973921 -0.029516796 -0.010469357 -0.014861913 -0.02171962 -0.003917727 -0.0321768
-0.0017188237 0.0056022243 0.007267192 -0.036607493 0.02798189 0.011080738 -0.017618537 0.0053796964
0.014728638 0.016759424 -0.003545558 -0.0022867485 0.011729701 -0.010993553 0.019041566 0.005367446
0.003302404 0.03463546 0.0023186463 -0.04821096 0.01754362 -0.004261664 0.034304287 0.009755801
0.025907476 -0.007678389 -0.02463126 -0.016065275 -0.028759945 0.0043339003 0.02095011 -0.027683893
0.026691485 0.0055203354 0.03271015 -0.01752488 0.014313704 0.021337911 0.0034950615 -0.02923218
-0.011806375 0.0098581 0.0010593346 -0.0029528437 0.0155655835 -0.015635222 -0.016212206 -0.005844259
0.015316458 -0.010079575 0.024493668 -0.0044217445 0.0047538406 0.022696042 0.008248748 0.02363981
-0.021095729 0.0017817591 -0.02805281 -0.025826508 -0.015296082 -0.0011825225 0.003818901 0.005562798
0.011912812 0.004272185 0.022869011 0.016589124 0.0044957963 0.003399352 0.012742333 -0.00014126631
-0.0014601935 -0.0011221005 -0.00014052332 0.00097020995 -0.03945838 -0.007578353 0.016965132 0.00992532
-0.006793193 0.014983505 0.011232086 -0.000502562 0.020248802 0.029579345 0.022060944 -0.00093682634
9.758925e-05 0.03024495 -0.018709816 -0.023152359 0.017545829 -0.016864313 0.017408317 -0.0017221924
0.016662946 0.0054586804 -0.007033733 0.0016915401 -0.016881758 0.027252102 0.024641775 -0.0054821665
-0.005118412 0.0074426346 -0.0017108641 0.026373079 0.013772504 0.019841647 -0.008065824 0.007822889
0.010809551 0.013220578 -0.0023036941 -0.01068106 -0.0039326195 -0.0025148725 -0.027481655 0.03557768
00000000: 4242 4d3c 20b4 a13c 35cd f1bc aa87 2bbc
00000010: 627f 73bc 58ed b1bc 4760 80bb d2cb 03bd
00000020: 274a e1ba dd92 b73b a021 ee3b bdf1 15bd
00000030: 473a e53c fc8b 353c c054 90bc 2a48 b03b
00000040: 6350 713c 0f4b 893c 985c 68bb 46dd 15bb
00000050: ef2d 403c 4e1e 34bc 0ffd 9b3c 67e1 af3b
00000060: 256d 583b e9dd 0d3d 6ef4 173b db78 45bd
00000070: a3b7 8f3c 6ea5 8bbb a782 0c3d ccd6 1f3c
00000080: ea3b d43c ff9a fbbb 7fc7 c9bc 539b 83bc
00000090: fa99 ebbc 6403 8e3b 919f ab3c 55c9 e2bc
000000a0: 1aa8 da3c eee3 b43b 14fb 053d 5690 8fbc
000000b0: 0784 6a3c d8cc ae3c 670d 653b 5378 efbc
000000c0: 876f 41bc de83 213c 5fd9 8a3a 7f84 41bb
000000d0: ca06 7f3c 7015 80bc 76cf 84bc 3381 bfbb
000000e0: e2f1 7a3c cd24 25bc f2a6 c83c 48e4 90bb
000000f0: 1bc6 9b3b 0ded b93c c225 073c 46a8 c13c
00000100: f3d0 acbc ea89 e93a 02cf e5bc 1d92 d3bc
00000110: 6b9c 7abc dffe 9aba 8746 7a3b 2248 b63b
00000120: f42d 433c affd 8b3b cb57 bb3c eae5 873c
00000130: 7951 933b aac7 5e3b 38c5 503c e320 14b9
00000140: f763 bfba 7213 93ba 7159 13b9 b055 7e3a
00000150: 1c9f 21bd d553 f8bb 76fa 8a3c cf9d 223c
00000160: 6f99 debb 607d 753c c906 383c 5dbe 03ba
00000170: d1e0 a53c 6250 f23c 27b9 b43c 5a95 75ba
00000180: d4a8 cc38 42c4 f73c 5445 99bc 04aa bdbc
00000190: 45bc 8f3c 0727 8abc e39b 8e3c 30bb e1ba
000001a0: bb80 883c bbde b23b 3b7b e6bb abb6 dd3a
000001b0: 9d4b 8abc cd3f df3c 8cdd c93c bfa3 b3bb
000001c0: 5ab8 a7bb 58e1 f33b 133f e0ba 5b0c d83c
000001d0: 12a6 613c f38a a23c 8526 04bc 932b 003c
000001e0: 8b1a 313c 209b 583c 93f9 16bb 9dff 2ebc
000001f0: 34dd 80bb 8fd0 24bb 3521 e1bc e7b9 113d

action_model._discrete_distribution.branches.0.weight f4 [1, 128]
-0.007326923 0.00028739392 -0.003877253 -0.0063131987 -0.018795714 0.00036962228 0.012043363 -0.016208818
-0.0033758418 -0.0005732893 0.0027059058 -0.01653866 -0.0075561353 -0.0039381324 0.010540049 -0.0012780675
-0.0033790749 0.012891238 0.0065977485 -0.010098495 0.0015466034 -0.0014157569 0.004049037 0.00031451116
0.0026954494 -0.011681533 0.008426025 0.01596816 0.00050092017 -0.006882561 0.0074546672 0.0075679906
-0.012863223 0.0028406603 -0.011694158 0.0073062307 0.013279887 0.005471506 0.009372964 -0.0071457275
-0.018572595 0.0016901357 -0.0033826716 0.00440226 -0.008579632 -0.012461883 0.010558768 0.024220036
0.0042645778 0.001769173 -0.007735283 -0.0045714057 0.0014516235 0.013290261 -0.009432537 -0.006570443
0.004140259 -0.00020605813 -0.011948216 0.0018064711 -0.014768328 0.0021178985 -0.00041243792 0.012975983
-0.011320956 -0.00852899 0.003226354 -0.004331888 0.007472945 0.008581672 0.0022852798 0.0009253818
-0.008854589 0.0074651563 -0.0010032892 -0.0061129616 0.0063536367 0.0085514095 0.006001031 0.0010297134
-0.0051141395 -0.0065510585 -0.0021592337 0.012865416 -0.012710094 -0.013649627 -0.002833275 0.009790143
0.0048411316 -0.017737465 0.008210002 -0.01720252 0.0040787705 0.0034824614 0.0018395856 -0.006030684
-0.0008339408 -0.018007869 -0.011491372 -0.003479236 -0.010482031 0.0020481057 0.0012054265 0.011969995
0.0012238243 -0.005842561 -0.0072486675 0.0015215616 0.0010808551 -0.0095834425 0.008929566 0.00066475867
-0.009528729 0.0053331875 0.0048765377 -0.008900682 0.0077103414 -0.01247446 -0.004065769 0.005433478
-0.0015940061 0.0027169941 0.010797373 0.0045416867 0.0083514955 0.0015213635 0.009815308 -0.0065651285
00000000: af16 f0bb 5cad 9639 8319 7ebb f3de cebb
00000010: 78f9 99bc ddc9 c139 8751 453c 5bc8 84bc
00000020: 3a3d 5dbb cb48 16ba 9155 313b 157c 87bc
00000030: 7599 f7bb 730b 81bb 2bb0 2c3c d484 a7ba
00000040: 7873 5dbb c535 533c ed31 d83b 2874 25bc
00000050: 66b7 ca3a eb90 b9ba c9ad 843b f9e4 a439
00000060: 23a6 303b e763 3fbc 4f0d 0a3c a9cf 823c
00000070: 2f50 033a 1b87 e1bb 4846 f43b e8fc f73b
00000080: 45c0 52bc 5f2a 3a3b db98 3fbc 1b69 ef3b
00000090: e293 593c 524a b33b 0f91 193c b526 eabb
000000a0: 8e25 98bc 8b87 dd3a d0af 5dbb d540 903b
000000b0: 9691 0cbc ed2c 4cbc affe 2c3c 1969 c63c
000000c0: dfbd 8b3b 98e3 e73a 4278 fdbb bbcb 95bb
000000d0: 6744 be3a 65bf 593c ed8a 1abc df4c d7bb
000000e0: 03ab 873b 4f11 58b9 73c2 43bc 1dc7 ec3a
000000f0: dbf6 71bc 71cc 0a3b 7b3c d8b9 3899 543c
00000100: 887b 39bc 2dbd 0bbc 3d71 533b 83f2 8dbb
00000110: 9bdf f43b 249a 0c3c a2c4 153b 5295 723a
00000120: d712 11bc 459e f43b cd80 83ba 3d4f c8bb
00000130: 2b32 d03b 361b 0c3c 4ca4 c43b 73f7 863a
00000140: 8394 a7bb 43aa d6bb ee81 0dbb 77c9 523c
00000150: 003e 50bc afa2 5fbc 77ae 39bb d666 203c
00000160: 5ba2 9e3b 294e 91bc 3f83 063c 4dec 8cbc
00000170: 35a7 853b 023a 643b 401e f13a 0b9d c5bb
00000180: d29c 5aba 3d85 93bc 4f46 3cbc e503 64bb
00000190: d3bc 2bbc 8339 063b 67ff 9d3a cc1d 443c
000001a0: bb68 a03a f472 bfbb 3b86 edbb 236f c73a
000001b0: 7bab 8d3a df03 1dbc 504d 123c 3343 2e3a
000001c0: 631e 1cbc 05c2 ae3b 5dcb 9f3b 2bd4 11bc
000001d0: 08a7 fc3b ad61 4cbc 243a 85bb 510b b23b
000001e0: f8ed d0ba 990f 323b 77e7 303c 6ed2 943b
000001f0: b6d4 083c 7d68 c73a 63d0 203c 4a20 d7bb

network_body._body_endoder.seq_layers.0.weight f4 [128, 1]
-1.69271 -0.13077076 -0.36628988 0.8417897 -0.57645464 -0.43516374 0.09980125 -0.58263123
-0.42010614 -0.2233586 0.3580117 1.5120862 -1.4821786 0.9629593 0.9703913 -1.4343265
-0.28509948 1.3468558 -2.0549393 1.0118235 0.5001366 2.2269773 -0.9670959 0.4629836
0.38794762 0.086561404 -2.49087 0.84042734 1.639815 -1.0241855 1.5868275 -0.34391794
-0.26654252 -0.5697976 -0.4425863 -0.095228046 -0.6456471 -2.7868392 -1.7183269 -2.0994213
-1.5734534 -0.014568439 -0.7495648 0.24822555 -1.6886543 -0.45929387 1.2367637 0.8922224
-1.019474 -0.9757314 -0.6666763 0.9215807 -0.77869594 0.71026754 -0.002977684 0.40069044
-0.7812274 -0.7283211 -0.9115512 1.5676197 -0.90275496 -1.5668423 -0.3409921 0.47133037
-0.42175123 -0.26465535 1.2107292 2.2849364 0.4908391 -0.513958 1.1008722 -1.0610074
0.075478494 0.097473636 -0.46009907 1.3717606 -0.35587302 0.4467655 1.1988583 -2.8468032
1.1355346 -0.67236984 0.6051297 1.3344804 -0.5279876 -1.6294961 0.5126098 -0.85580224
0.028768126 -0.8593433 -1.3183008 -0.16148877 0.13464503 -1.3316926 -0.0809531 -0.42085743
-0.25407586 0.74172235 -3.3676567 1.1409745 0.49479508 0.43578857 -0.16122533 -0.50565803
-1.1948661 -0.67689294 1.035761 1.0451783 -0.18298915 -0.9076522 -0.038147476 1.0729979
-0.10883151 -0.39543408 -0.97734004 -0.6228717 0.25346416 0.28247988 0.18623792 0.5069378
1.2930111 2.0519435 -0.29491508 1.9367852 -0.027012287 -0.8401192 -0.6646808 1.5631908
00000000: b9aa d8bf c5e8 05be 598a bbbe 887f 573f
00000010: 8892 13bf c8cd debe 9964 cc3d 5227 15bf
00000020: 2718 d7be 1eb8 64be 4f4d b73e 0a8c c13f
00000030: 07b8 bdbf 8084 763f 906b 783f 0398 b7bf
00000040: 8ff8 91be c565 ac3f 2084 03c0 6f83 813f
00000050: f408 003f cc86 0e40 9993 77bf 300c ed3e
00000060: 12a1 c63e 1b47 b13d 6a6a 1fc0 3f26 573f
00000070: 75e5 d13f 8318 83bf 2a1d cb3f 0316 b0be
00000080: 4378 88be 41de 11bf ac9a e2be ec06 c3bd
00000090: 2149 25bf 935b 32c0 23f2 dbbf eb5c 06c0
000000a0: ec66 c9bf 76b0 6ebc 7be3 3fbf d72e 7e3e
000000b0: d325 d8bf 9128 ebbe 464e 9e3f b068 643f
000000c0: 207e 82bf 88c9 79bf 4cab 2abf b6ec 6b3f
000000d0: 9e58 47bf 18d4 353f 3f25 43bb 4c27 cd3e
000000e0: 85fe 47bf 4073 3abf 6b5b 69bf c3a7 c83f
000000f0: f31a 67bf 4a8e c8bf 8496 aebe 3752 f13e
00000100: c7ef d7be e880 87be 2df9 9a3f 663c 1240
00000110: 434f fb3e c092 03bf 61e9 8c3f 17cf 87bf
00000120: 7894 9a3d 42a0 c73d 1b92 ebbe da95 af3f
00000130: fd34 b6be 73be e43e 3074 993f 0632 36c0
00000140: 3359 913f 6e20 2cbf c8e9 1a3f 41d0 aa3f
00000150: 322a 07bf 5493 d0bf 653a 033f db15 5bbf
00000160: 22ab eb3c ecfd 5bbf 15be a8bf 505d 25be
00000170: 63e0 093e e774 aabf bdca a5bd a07a d7be
00000180: 3b16 82be 84e1 3d3f b087 57c0 740b 923f
00000190: c855 fd3e ae1f df3e 4118 25be ce72 01bf
000001a0: 5ff1 98bf db48 2dbf d193 843f 67c8 853f
000001b0: 8261 3bbe e55b 68bf 8740 1cbd ff57 893f
000001c0: 0ee3 debd 5676 cabe f532 7abf 8574 1fbf
000001d0: 0ec6 813e 34a1 903e 27b5 3e3e adc6 013f
000001e0: 6381 a53f 0b53 0340 1cff 96be 94e8 f73f
000001f0: df48 ddbc 0d12 57bf 8528 2abf a316 c83f

network_body._body_endoder.seq_layers.0.bias f4 [128]
0.0 0.0 0.0 0.0 0.0 0.0 0.0 0.0
0.0 0.0 0.0 0.0 0.0 0.0 0.0 0.0
0.0 0.0 0.0 0.0 0.0 0.0 0.0 0.0
0.0 0.0 0.0 0.0 0.0 0.0 0.0 0.0
0.0 0.0 0.0 0.0 0.0 0.0 0.0 0.0
0.0 0.0 0.0 0.0 0.0 0.0 0.0 0.0
0.0 0.0 0.0 0.0 0.0 0.0 0.0 0.0
0.0 0.0 0.0 0.0 0.0 0.0 0.0 0.0
0.0 0.0 0.0 0.0 0.0 0.0 0.0 0.0
0.0 0.0 0.0 0.0 0.0 0.0 0.0 0.0
0.0 0.0 0.0 0.0 0.0 0.0 0.0 0.0
0.0 0.0 0.0 0.0 0.0 0.0 0.0 0.0
0.0 0.0 0.0 0.0 0.0 0.0 0.0 0.0
0.0 0.0 0.0 0.0 0.0 0.0 0.0 0.0
0.0 0.0 0.0 0.0 0.0 0.0 0.0 0.0
0.0 0.0 0.0 0.0 0.0 0.0 0.0 0.0
00000000: 0000 0000 0000 0000 0000 0000 0000 0000
00000010: 0000 0000 0000 0000 0000 0000 0000 0000
00000020: 0000 0000 0000 0000 0000 0000 0000 0000
00000030: 0000 0000 0000 0000 0000 0000 0000 0000
00000040: 0000 0000 0000 0000 0000 0000 0000 0000
00000050: 0000 0000 0000 0000 0000 0000 0000 0000
00000060: 0000 0000 0000 0000 0000 0000 0000 0000
00000070: 0000 0000 0000 0000 0000 0000 0000 0000
00000080: 0000 0000 0000 0000 0000 0000 0000 0000
00000090: 0000 0000 0000 0000 0000 0000 0000 0000
000000a0: 0000 0000 0000 0000 0000 0000 0000 0000
000000b0: 0000 0000 0000 0000 0000 0000 0000 0000
000000c0: 0000 0000 0000 0000 0000 0000 0000 0000
000000d0: 0000 0000 0000 0000 0000 0000 0000 0000
000000e0: 0000 0000 0000 0000 0000 0000 0000 0000
000000f0: 0000 0000 0000 0000 0000 0000 0000 0000
00000100: 0000 0000 0000 0000 0000 0000 0000 0000
00000110: 0000 0000 0000 0000 0000 0000 0000 0000
00000120: 0000 0000 0000 0000 0000 0000 0000 0000
00000130: 0000 0000 0000 0000 0000 0000 0000 0000
00000140: 0000 0000 0000 0000 0000 0000 0000 0000
00000150: 0000 0000 0000 0000 0000 0000 0000 0000
00000160: 0000 0000 0000 0000 0000 0000 0000 0000
00000170: 0000 0000 0000 0000 0000 0000 0000 0000
00000180: 0000 0000 0000 0000 0000 0000 0000 0000
00000190: 0000 0000 0000 0000 0000 0000 0000 0000
000001a0: 0000 0000 0000 0000 0000 0000 0000 0000
000001b0: 0000 0000 0000 0000 0000 0000 0000 0000
000001c0: 0000 0000 0000 0000 0000 0000 0000 0000
000001d0: 0000 0000 0000 0000 0000 0000 0000 0000
000001e0: 0000 0000 0000 0000 0000 0000 0000 0000
000001f0: 0000 0000 0000 0000 0000 0000 0000 0000

network_body._body_endoder.seq_layers.2.weight f4 [128, 128]
0.009585653 0.18827973 0.034303676 -0.091060065 -0.10061624 -0.024591932 -0.086749494 0.08576477
-0.011874788 0.028655782 -0.014395264 0.02657511 -0.13649173 0.09785905 -0.11924057 -0.03458618
0.019889817 -0.18572132 -0.09356716 -0.06242686 -0.07219992 0.04674981 0.072459474 0.14927499
-0.02165574 -0.07751552 0.17468914 0.017459674 -0.05343139 0.013033432 -0.12553829 -0.09789486
0.03724807 0.06484661 0.109665856 0.15532832 -0.003311108 -0.0006697475 0.0068333107 0.011879445
0.20571277 -0.03591053 0.04765197 -0.029951157 -0.098925225 0.08557155 -0.01610196 -0.05373447
0.16688809 0.0068321945 -0.12339992 -0.16171797 0.13939503 0.014553374 -0.010315212 -0.033549037
-0.09660797 0.16416912 0.089961655 -0.16395538 -0.19521181 0.08780895 0.055874836 -0.016786916
-0.051862914 0.047205914 -0.072478145 -0.03221293 -0.0404727 0.06642001 0.03795682 -0.0917594
0.080866255 -0.028807694 -0.0014594576 0.011983809 -0.04131309 0.03261848 -0.021274704 0.049039926
0.09571178 -0.022395035 0.035836823 -0.090729296 -0.05953001 -0.047268305 0.01575026 0.06017824
-0.009590514 -0.032152854 -0.023169294 -0.038106207 -0.007926055 -0.039414477 0.070342705 0.04072179
0.08369199 0.080034606 0.067253955 -0.0436665 -0.13590866 0.103733286 0.054938365 0.15356177
-0.14008297 1.559259e-05 0.16483764 -0.08779408 -0.18144149 -0.011522861 -0.0019578468 0.13403395
0.088361606 -0.052482676 -0.093974665 0.106198214 0.08920039 0.080520086 0.051708244 -0.08851561
-0.092534065 0.05184184 0.11160964 0.041444376 -0.016516749 -0.072217196 0.0847024 -0.07888662
-0.16456033 -0.111714624 0.04850129 -0.10852611 0.072726116 -0.17897306 0.020077191 -0.048793655
0.08096346 -0.16828038 -0.039994236 -0.030628804 0.037631012 -0.1888142 -0.019616736 -0.14597107
-0.11717313 0.15308733 0.07908323 -0.13751517 -0.08024991 -0.11765767 0.09675135 -0.034976117
-0.06418974 -0.07087379 -0.060558207 0.13768937 0.0017327565 0.03106395 0.062889375 0.012946273
-0.06858489 -0.04551554 0.11077559 -0.08059905 0.041422315 -0.07333097 -0.08024653 -0.060232624
0.15652864 -0.045184277 -0.034348104 -0.08613558 0.11893385 0.008878165 -0.044534083 0.049288582
0.030545998 0.006657764 -0.054374546 -0.03477345 0.009958756 0.08096997 0.17316303 -0.06789916
-0.0893142 -0.10039525 0.13114116 -0.0959464 0.14527096 -0.050049793 -0.115623206 0.011268406
-0.020780226 -0.05843942 -0.01847439 0.009214727 0.13324384 0.0077111535 0.022637483 -0.09444793
0.074129015 0.14325964 0.013038325 -0.035123445 0.03875173 0.0728198 -0.14191996 -0.022607572
-0.06354094 -0.011279455 0.025819167 0.006244801 -0.019219937 0.13386486 -0.114010796 0.041617475
-0.1459635 -0.12541313 0.023858437 -0.14402358 0.005637112 -0.037400674 0.058765244 -0.033582088
-0.03625967 0.09272476 -0.018148627 0.010162164 0.00060231256 0.0019080424 0.044015 0.1506268
-0.08180788 0.018794136 -0.060918346 -0.05898181 0.091206886 -0.12913571 -0.0050459052 -0.03909365
0.06391709 -0.09262821 0.059498835 0.09058584 -0.108685836 0.039034262 -0.052420314 -0.008999306
0.18001413 0.12938538 0.06392872 -0.10486596 -0.10087104 -0.102656275 -0.122855976 -0.06474038
00000000: 250d 1d3c 67cc 403e 0382 0c3d b37d babd
00000010: e30f cebd 0575 c9bc b8a9 b1bd 71a5 af3d
00000020: 798e 42bc 88bf ea3c 1dda 6bbc 0cb4 d93c
00000030: 7dc4 0bbe 536a c83d 6634 f4bd 3daa 0dbd
00000040: f8ef a23c bb2d 3ebe 24a0 bfbd 4fb3 7fbd
00000050: 8ddd 93bd bb7c 3f3d a265 943d 8bdb 183e
00000060: 6167 b1bc 75c0 9ebd b6e1 323e 9707 8f3c
00000070: e0da 5abd 2d8a 553c 1c8d 00be 1a7d c8bd
00000080: 6f91 183d 4dce 843d 7e98 e03d 630e 1f3e
00000090: 2dff 58bb fe91 2fba f7e9 df3b 01a2 423c
000000a0: 5ea6 523e eb16 13bd b62e 433d 215c f5bc
000000b0: 4f99 cabd 2340 af3d 42e8 83bc ad18 5cbd
000000c0: b6e4 2a3e 9ae0 df3b 19b9 fcbd 6599 25be
000000d0: 92bd 0e3e 4671 6e3c 2301 29bc b76a 09bd
000000e0: 66da c5bd f31b 283e d13d b83d ebe3 27be
000000f0: 9be5 47be 2ed5 b33d 03dd 643d b784 89bc
00000100: 356e 54bd fd5a 413d 6c6f 94bd b5f1 03bd
00000110: b4c6 25bd 3707 883d 9c78 1b3d 5aec bbbd
00000120: 359d a53d 1dfe ebbc 454b bfba bd57 443c
00000130: ea37 29bd f59a 053d 4a48 aebc 17de 483d
00000140: 8a04 c43d cb75 b7bc a2c9 123d 48d0 b9bd
00000150: bdd5 73bd 699c 41bd b006 813c 757d 763d
00000160: 8821 1dbc b6b2 03bd 88cd bdbc 4115 1cbd
00000170: 49dc 01bc 1371 21bd d60f 903d e4cb 263d
00000180: b566 ab3d 2fe9 a33d 71bc 893d a5db 32bd
00000190: a42b 0bbe 1e72 d43d 0d07 613d 4c3f 1d3e
000001a0: e971 0fbe d5cc 8237 33cb 283e 62cd b3bd
000001b0: cccb 39be 62ca 3cbc 384f 00bb 3240 093e
000001c0: eef6 b43d 13f8 56bd ca75 c0bd 737e d93d
000001d0: b2ae b63d b7e7 a43d 06cc 533d ac47 b5bd
000001e0: 8082 bdbd 1c58 543d 9893 e43d 94c1 293d
000001f0: 224e 87bc 9ce6 93bd 7478 ad3d 4f8f a1bd
00000200: 8182 28be a3ca e4bd 4aa9 463d f042 debd
00000210: 6ef1 943d b744 37be ec78 a43c dbdb 47bd
00000220: 2cd0 a53d b151 2cbe ffd0 23bd 42e9 fabc
00000230: fa22 1a3d 8258 41be 47b3 a0bc 7179 15be
00000240: 77f8 efbd edc2 1c3e 63f6 a13d c7d0 0cbe
00000250: 115a a4bd 81f6 f0bd 9225 c63d 1e43 0fbd
00000260: e975 83bd 4726 91bd e20b 78bd 71fe 0c3e
00000270: a91d e33a d379 fe3c 25cc 803d 9b1c 543c
00000280: 3c76 8cbd 816e 3abd 50de e23d 1d11 a5bd
00000290: 72aa 293d 8c2e 96bd 4b58 a4bd 7cb6 76bd
000002a0: 0b49 203e 2613 39bd 99b0 0cbd da67 b0bd
000002b0: 9793 f33d b975 113c 5f69 36bd d3e2 493d
000002c0: 9a3b fa3c 5f29 da3b d8b7 5ebd 9b6e 0ebd
000002d0: 0d2a 233c 95d3 a53d a651 313e b70e 8bbd
000002e0: 5dea b6bd 069c cdbd de49 063e 8c7f c4bd
000002f0: e9c1 143e 0301 4dbd dccb ecbd 1f9f 383c
00000300: 4b3b aabc 2c5e 6fbd 9b57 97bc 5ef9 163c
00000310: 1371 083e d8ad fc3b 3e72 b93c eb6d c1bd
00000320: f4d0 973d a8b2 123e b39e 553c 9add 0fbd
00000330: 22ba 1e3d 8c22 953d 7753 11be 8433 b9bc
00000340: c121 82bd 77cd 38bc b882 d33c 30a1 cc3b
00000350: 2173 9dbc df13 093e 7e7e e9bd 1677 2a3d
00000360: 7577 15be 4d6c 00be c572 c33c eb7a 13be
00000370: 86b7 b83b 7331 19bd d3b3 703d 5f8d 09bd
00000380: 0585 14bd 7be6 bd3d 6eac 94bc 357f 263c
00000390: 83e4 1d3a 4717 fa3a 1349 343d e93d 1a3e
000003a0: e48a a7bd 29f6 993c 8485 79bd e996 71bd
000003b0: adca ba3d 273c 04be 1f58 a5bb aa20 20bd
000003c0: f7e6 823d dcb3 bdbd 0db5 733d 1285 b93d
000003d0: ae96 debd 64e2 1f3d afb6 56bd d371 13bc
000003e0: a055 383e 9a7d 043e 10ed 823d f7c3 d6bd
000003f0: 7a95 cebd 743d d2bd ea9b fbbd 9b96 84bd

network_body._body_endoder.seq_layers.2.bias f4 [128]
0.0 0.0 0.0 0.0 0.0 0.0 0.0 0.0
0.0 0.0 0.0 0.0 0.0 0.0 0.0 0.0
0.0 0.0 0.0 0.0 0.0 0.0 0.0 0.0
0.0 0.0 0.0 0.0 0.0 0.0 0.0 0.0
0.0 0.0 0.0 0.0 0.0 0.0 0.0 0.0
0.0 0.0 0.0 0.0 0.0 0.0 0.0 0.0
0.0 0.0 0.0 0.0 0.0 0.0 0.0 0.0
0.0 0.0 0.0 0.0 0.0 0.0 0.0 0.0
0.0 0.0 0.0 0.0 0.0 0.0 0.0 0.0
0.0 0.0 0.0 0.0 0.0 0.0 0.0 0.0
0.0 0.0 0.0 0.0 0.0 0.0 0.0 0.0
0.0 0.0 0.0 0.0 0.0 0.0 0.0 0.0
0.0 0.0 0.0 0.0 0.0 0.0 0.0 0.0
0.0 0.0 0.0 0.0 0.0 0.0 0.0 0.0
0.0 0.0 0.0 0.0 0.0 0.0 0.0 0.0
0.0 0.0 0.0 0.0 0.0 0.0 0.0 0.0
00000000: 0000 0000 0000 0000 0000 0000 0000 0000
00000010: 0000 0000 0000 0000 0000 0000 0000 0000
00000020: 0000 0000 0000 0000 0000 0000 0000 0000
00000030: 0000 0000 0000 0000 0000 0000 0000 0000
00000040: 0000 0000 0000 0000 0000 0000 0000 0000
00000050: 0000 0000 0000 0000 0000 0000 0000 0000
00000060: 0000 0000 0000 0000 0000 0000 0000 0000
00000070: 0000 0000 0000 0000 0000 0000 0000 0000
00000080: 0000 0000 0000 0000 0000 0000 0000 0000
00000090: 0000 0000 0000 0000 0000 0000 0000 0000
000000a0: 0000 0000 0000 0000 0000 0000 0000 0000
000000b0: 0000 0000 0000 0000 0000 0000 0000 0000
000000c0: 0000 0000 0000 0000 0000 0000 0000 0000
000000d0: 0000 0000 0000 0000 0000 0000 0000 0000
000000e0: 0000 0000 0000 0000 0000 0000 0000 0000
000000f0: 0000 0000 0000 0000 0000 0000 0000 0000
00000100: 0000 0000 0000 0000 0000 0000 0000 0000
00000110: 0000 0000 0000 0000 0000 0000 0000 0000
00000120: 0000 0000 0000 0000 0000 0000 0000 0000
00000130: 0000 0000 0000 0000 0000 0000 0000 0000
00000140: 0000 0000 0000 0000 0000 0000 0000 0000
00000150: 0000 0000 0000 0000 0000 0000 0000 0000
00000160: 0000 0000 0000 0000 0000 0000 0000 0000
00000170: 0000 0000 0000 0000 0000 0000 0000 0000
00000180: 0000 0000 0000 0000 0000 0000 0000 0000
00000190: 0000 0000 0000 0000 0000 0000 0000 0000
000001a0: 0000 0000 0000 0000 0000 0000 0000 0000
000001b0: 0000 0000 0000 0000 0000 0000 0000 0000
000001c0: 0000 0000 0000 0000 0000 0000 0000 0000
000001d0: 0000 0000 0000 0000 0000 0000 0000 0000
000001e0: 0000 0000 0000 0000 0000 0000 0000 0000
000001f0: 0000 0000 0000 0000 0000 0000 0000 0000

value_heads.value_heads.extrinsic.weight f4 [1, 128]
0.19611283 0.14528137 -0.12079277 0.04524432 0.11432492 0.034602094 0.1825186 -0.14602053
-0.17840911 0.014677101 0.2017461 -0.11313028 0.02536028 0.034297105 0.18539087 -0.02015882
-0.0645177 0.17151216 0.05462761 0.015014304 -0.20537348 -0.15664013 0.14582907 -0.03856246
-0.1970786 0.06690253 0.20827775 -0.16374311 -0.16935514 0.12981828 0.10872527 0.1275677
0.050057646 -0.15526976 0.16141196 0.1824285 -0.1827411 0.016946515 0.03503442 -0.13124697
0.21280156 -0.15868929 0.04866307 0.052787773 -0.09917597 0.019109622 -0.017118163 -0.09402832
0.06638932 0.15069166 0.06568095 0.028107068 -0.09078761 0.17217779 -0.014115994 -0.13220546
-0.025428256 -0.19167645 -0.011973339 -0.070918925 -0.21330741 -0.12612717 -0.16972244 0.14467847
0.17159162 0.15207057 -0.015729256 -0.15581624 -0.11526928 -0.004839706 -0.03227762 0.19291225
-0.08166878 -0.14547089 -0.15524802 -0.18091775 0.013645308 -0.067323975 -0.10202643 -0.039765146
-0.119724035 0.16786101 0.017411673 -0.0976797 0.065773845 -0.16267143 0.12049676 -0.13100837
0.06102309 0.11376091 0.11653279 0.16036464 0.12281502 -0.013465188 0.026253527 0.043560077
-0.13638774 0.07139529 0.17542121 -0.13171963 -0.034776427 0.20381233 0.20702763 0.008427906
0.019018816 0.14228901 0.21531194 0.048880238 0.080832675 0.021848977 0.16595362 0.04729919
-0.026573608 0.058681715 0.04766881 0.17236692 0.01771034 0.011677747 0.18989189 0.08868806
-0.040109497 0.021818537 0.061030727 0.016523493 -0.21087693 0.10883724 0.14567941 0.124839164
00000000: cdd1 483e a4c4 143e 3362 f7bd 1c52 393d
00000010: 2f23 ea3d edba 0d3d 28e6 3a3e 6886 15be
00000020: e1b0 36be 3978 703c 8896 4e3e d9b0 e7bd
00000030: 5dc0 cf3c 1f7b 0c3d 1bd7 3d3e 1c24 a5bc
00000040: db21 84bd e2a0 2f3e 33c1 5f3d 8efe 753c
00000050: 6d4d 52be 4566 20be 3754 153e acf3 1dbd
00000060: f9ce 49be 3204 893d c346 553e 46ac 27be
00000070: 6f6b 2dbe 15ef 043e 5bab de3d 1ba1 023e
00000080: 3f09 4d3d 09ff 1ebe 2d49 253e 89ce 3a3e
00000090: 7c20 3bbe 6bd3 8a3c 4180 0f3d 9b65 06be
000000a0: a7e8 593e 727f 22be ed52 473d fe37 583d
000000b0: c51c cbbd c88b 9c3c 643b 8cbc eb91 c0bd
000000c0: 20f7 873d ea4e 1a3e bc83 863d cb40 e63c
000000d0: dbee b9bd 604f 303e c546 67bc de60 07be
000000e0: eb4e d0bc d546 44be d32b 44bc f13d 91bd
000000f0: 426d 5abe 7b27 01be b8cb 2dbe 9826 143e
00000100: b7b5 2f3e 63b8 1b3e a4da 80bc 4b8e 1fbe
00000110: 4d12 ecbd 6596 9ebb 8a35 04bd ca8a 453e
00000120: f641 a7bd 52f6 14be 56f9 1ebe 8142 39be
00000130: 9290 5f3c 27e1 89bd 3cf3 d0bd c7e0 22bd
00000140: e031 f5bd c2e3 2b3e eda2 8e3c 4b0c c8bd
00000150: 70b4 863d 5793 26be 01c7 f63d 0f27 06be
00000160: 59f3 793d 7bfb e83d bea8 ee3d a136 243e
00000170: 7186 fb3d 189d 5cbc a311 d73c 0d6c 323d
00000180: 3aa9 0bbe b237 923d 9ea1 333e 83e1 06be
00000190: ba71 0ebd 2eb4 503e 0dff 533e 3315 0a3c
000001a0: 59cd 9b3c 36b4 113e bc7a 5c3e a536 483d
000001b0: 9a8b a53d a0fc b23c bfef 293e ccbc 413d
000001c0: e5b0 d9bc 3d5c 703d 5f40 433d f480 303e
000001d0: 4615 913c 0554 3f3c 0573 423e 16a2 b53d
000001e0: db49 24bd cabc b23c 5bfb 793d 475c 873c
000001f0: 1ff0 57be 0fe6 de3d fc2c 153e adab ff3d
